ElegantRL/EntornoObservacionesAccionesMejorado/2Msteps_SAC_0/act.pth (torch, 26453 bytes, 8 tensors)

state_avg f4 [48]
000000 00 00 00 00 00 00 00 00 00 00 00 00 00 00 00 00
       0.0 0.0 0.0 0.0
000010 00 00 00 00 00 00 00 00 00 00 00 00 00 00 00 00
       0.0 0.0 0.0 0.0
000020 00 00 00 00 00 00 00 00 00 00 00 00 00 00 00 00
       0.0 0.0 0.0 0.0
000030 00 00 00 00 00 00 00 00 00 00 00 00 00 00 00 00
       0.0 0.0 0.0 0.0
000040 00 00 00 00 00 00 00 00 00 00 00 00 00 00 00 00
       0.0 0.0 0.0 0.0
000050 00 00 00 00 00 00 00 00 00 00 00 00 00 00 00 00
       0.0 0.0 0.0 0.0
000060 00 00 00 00 00 00 00 00 00 00 00 00 00 00 00 00
       0.0 0.0 0.0 0.0
000070 00 00 00 00 00 00 00 00 00 00 00 00 00 00 00 00
       0.0 0.0 0.0 0.0
000080 00 00 00 00 00 00 00 00 00 00 00 00 00 00 00 00
       0.0 0.0 0.0 0.0
000090 00 00 00 00 00 00 00 00 00 00 00 00 00 00 00 00
       0.0 0.0 0.0 0.0
0000a0 00 00 00 00 00 00 00 00 00 00 00 00 00 00 00 00
       0.0 0.0 0.0 0.0
0000b0 00 00 00 00 00 00 00 00 00 00 00 00 00 00 00 00
       0.0 0.0 0.0 0.0

state_std f4 [48]
000000 00 00 80 3f 00 00 80 3f 00 00 80 3f 00 00 80 3f
       1.0 1.0 1.0 1.0
000010 00 00 80 3f 00 00 80 3f 00 00 80 3f 00 00 80 3f
       1.0 1.0 1.0 1.0
000020 00 00 80 3f 00 00 80 3f 00 00 80 3f 00 00 80 3f
       1.0 1.0 1.0 1.0
000030 00 00 80 3f 00 00 80 3f 00 00 80 3f 00 00 80 3f
       1.0 1.0 1.0 1.0
000040 00 00 80 3f 00 00 80 3f 00 00 80 3f 00 00 80 3f
       1.0 1.0 1.0 1.0
000050 00 00 80 3f 00 00 80 3f 00 00 80 3f 00 00 80 3f
       1.0 1.0 1.0 1.0
000060 00 00 80 3f 00 00 80 3f 00 00 80 3f 00 00 80 3f
       1.0 1.0 1.0 1.0
000070 00 00 80 3f 00 00 80 3f 00 00 80 3f 00 00 80 3f
       1.0 1.0 1.0 1.0
000080 00 00 80 3f 00 00 80 3f 00 00 80 3f 00 00 80 3f
       1.0 1.0 1.0 1.0
000090 00 00 80 3f 00 00 80 3f 00 00 80 3f 00 00 80 3f
       1.0 1.0 1.0 1.0
0000a0 00 00 80 3f 00 00 80 3f 00 00 80 3f 00 00 80 3f
       1.0 1.0 1.0 1.0
0000b0 00 00 80 3f 00 00 80 3f 00 00 80 3f 00 00 80 3f
       1.0 1.0 1.0 1.0

weight f4 [64, 48]
000000 7a de 0c ab d5 c4 50 2c f5 76 c8 ac 7f fe b4 ac
       -5.004674e-13 2.9667842e-12 -5.6975488e-12 -5.1441624e-12
000010 00 a5 4c ac c4 da b0 2b e7 e3 22 ab 16 e6 a1 2c
       -2.9081737e-12 1.2566272e-12 -5.787024e-13 4.60144e-12
000020 12 5a 8f ab 92 af ad 2b 2f 41 27 ac 23 19 f0 ab
       -1.0185761e-12 1.234112e-12 -2.3768312e-12 -1.7060002e-12
000030 47 41 e6 ac 76 79 a4 ac 00 c2 58 ac 7a e6 73 aa
       -6.5442404e-12 -4.6746452e-12 -3.0803138e-12 -2.1662698e-13
000040 50 78 11 2c fc 53 6d 2c 61 e7 a7 ac a1 34 63 ac
       2.0672526e-12 3.3726346e-12 -4.7721137e-12 -3.2287855e-12
000050 4d 12 03 2c 8c 50 aa 2c fa 4c f8 ab e2 e9 97 2c
       1.8626379e-12 4.840633e-12 -1.7642825e-12 4.3176443e-12
000060 0c 53 d0 ab 5a 8e 79 2a 66 3b bb 2c 91 04 e0 ac
       -1.4802339e-12 2.2165031e-13 5.321454e-12 -6.36697e-12
000070 59 24 9d ac 1a 6c 11 ac 11 ae 4e ac 07 dd b1 2c
       -4.4662438e-12 -2.0665748e-12 -2.9370987e-12 5.0551815e-12
000080 76 50 a1 ac 72 6c 6e ac 68 8b ac ac 28 00 e2 ac
       -4.584828e-12 -3.3882033e-12 -4.9040112e-12 -6.4233237e-12
000090 19 db 92 ac ec de b0 2c 37 5c 28 2c e5 90 39 2c
       -4.1738943e-12 5.02697e-12 2.3925425e-12 2.6370514e-12
0000a0 26 51 04 aa 8e e9 82 ac 64 c1 30 2b 88 5c e1 ac
       -1.1752109e-13 -3.720752e-12 6.2796144e-13 -6.4051577e-12
0000b0 ff 01 b2 ac 13 91 83 ac 18 3e 7b 2c 55 28 67 2c
       -5.059286e-12 -3.7393504e-12 3.5703714e-12 3.2849463e-12
0000c0 2e f1 1c ad 72 f4 8a 2b bc 03 85 ab ca 00 a7 ac
       -8.921126e-12 9.873337e-13 -9.451255e-13 -4.746513e-12
0000d0 bf 8f 8a ab 88 e8 e2 ac 99 fc 7a 2c fd 59 ba ad
       -9.845387e-13 -6.4491225e-12 3.5667357e-12 -2.1185715e-11
0000e0 dc 7c ad ac 65 18 83 ac 7c 10 26 ad fb 0d 7a ad
       -4.930818e-12 -3.7259523e-12 -9.439668e-12 -1.4213959e-11
0000f0 cf 16 c4 aa 8d 85 05 ac 60 31 49 ab e7 59 68 ad
       -3.483242e-13 -1.8974572e-12 -7.1478067e-13 -1.32076355e-11
000100 41 70 37 ac 2e 5d e8 2a 39 21 a8 ac cc bd d7 ac
       -2.6068178e-12 4.1276135e-13 -4.7785356e-12 -6.131739e-12
000110 2c d3 9c 2b 54 d5 94 2c 77 e2 3d 2c 13 b8 80 ad
       1.1143079e-12 4.230097e-12 2.6984229e-12 -1.463366e-11
000120 8d 93 6e ac a6 a4 e4 2c 7f d4 13 2b 2b 1e 75 2a
       -3.3903741e-12 6.4984294e-12 5.251979e-13 2.1770838e-13
000130 9f 8c a6 ab 07 88 ce ac 5d c2 07 2d b6 25 87 ad
       -1.183404e-12 -5.869974e-12 7.717019e-12 -1.536447e-11
000140 10 48 4e ad cf 19 f2 2c 56 73 44 aa 3f 1c 4a ad
       -1.1725745e-11 6.880919e-12 -1.7448312e-13 -1.14886425e-11
000150 2e 12 83 ab 37 49 15 ac ca 10 1b 2d 76 1e 86 ad
       -9.313156e-13 -2.1214816e-12 8.814458e-12 -1.5247564e-11
000160 4e c8 8f ac b0 0d 34 ac ad f1 3c ac 9c c4 a5 ac
       -4.0865427e-12 -2.5587137e-12 -2.6850564e-12 -4.71141e-12
000170 d0 ab 2c 2c 2e 11 41 ac ff 4f d3 ac e4 6b b0 ad
       2.4538045e-12 -2.7436486e-12 -6.005862e-12 -2.0056797e-11
000180 a8 a3 5d 2c 01 df b0 2b eb 26 b1 ac 6a b9 83 ac
       3.1496836e-12 1.2567448e-12 -5.0349633e-12 -3.743829e-12
000190 d8 39 ce 2c 45 54 92 2c 38 09 4c ac d6 1c ec ab
       5.861294e-12 4.1589254e-12 -2.899526e-12 -1.6776812e-12
0001a0 9a 3d d8 ac 34 43 58 aa 2a 15 ab ac c2 94 af ac
       -6.1459284e-12 -1.920797e-13 -4.862462e-12 -4.9903146e-12
0001b0 32 66 09 ab d2 41 67 2b 8a 7a 40 ac b5 83 82 2c
       -4.8814e-13 8.215903e-13 -2.7352864e-12 3.7094446e-12
0001c0 19 ca 89 ac db cc c8 2c b2 83 97 2c ca ea c1 ac
       -3.9162115e-12 5.7070854e-12 4.3062992e-12 -5.5114567e-12
0001d0 05 97 f2 ab 32 f4 3b 2a 1c 31 61 2b 4f 85 ca 2b
       -1.7237051e-12 1.6693659e-13 8.000421e-13 1.4389964e-12
0001e0 be 6c 2d 2c 8d 54 ab 2a f0 41 5f ac 3f 08 4b 2c
       2.4645143e-12 3.043437e-13 -3.1726809e-12 2.8852613e-12
0001f0 81 ff db ac 74 bc 88 ac 13 e1 f3 ab 90 a3 5f ac
       -6.252721e-12 -3.886275e-12 -1.7328659e-12 -3.1781001e-12
000200 cb 9a 1f ac 66 8d ba ac 29 9a c7 ab 71 77 ad 2b
       -2.2681186e-12 -5.3021363e-12 -1.4182588e-12 1.2325541e-12
000210 9d f0 96 ac d1 45 fc aa 3c b9 9b 2c a8 ed 4c ab
       -4.28997e-12 -4.4812637e-13 4.42593e-12 -7.2805173e-13
000220 b0 82 20 2a 72 99 30 ab 82 d7 ac 2b 32 d2 89 2c
       1.4256196e-13 -6.274071e-13 1.228115e-12 3.9171106e-12
000230 3b a4 cf 2c 62 d2 89 2c ef 36 d0 2c 7e 45 16 ab
       5.901527e-12 3.9171314e-12 5.9178144e-12 -5.3387145e-13
000240 54 7c c9 ac 8b ad 54 ac e6 ba 98 2c 9d 1a 3a a9
       -5.726567e-12 -3.0223348e-12 4.3408497e-12 -4.132338e-14
000250 55 fa 5e ac 20 df ab ac 76 e9 d1 ac ff 4f bd ac
       -3.168706e-12 -4.884884e-12 -5.9660566e-12 -5.3805844e-12
000260 4e f8 b5 ab aa 08 76 2c bb 88 72 2c c4 52 d8 ac
       -1.2929742e-12 3.4963512e-12 3.446617e-12 -6.148278e-12
000270 14 e8 8b 2c 0c 83 af ac 4e ad bd ab 05 e1 35 ac
       3.9763835e-12 -4.9883483e-12 -1.3477359e-12 -2.5846558e-12
000280 c6 d1 ac ab a3 26 b0 ab 2e 45 c9 ac 8a aa c1 ac
       -1.2279559e-12 -1.2516276e-12 -5.720444e-12 -5.5043236e-12
000290 4d 61 8c ab bd a3 b9 29 be ca 4b ac 84 ff 28 2c
       -9.974605e-13 8.2440544e-14 -2.896058e-12 2.4016076e-12
0002a0 e5 de c9 ac 7a 33 f2 aa 96 42 c5 2c 79 f9 36 ac
       -5.73751e-12 -4.3023555e-13 5.6064693e-12 -2.600224e-12
0002b0 e1 87 ca 2c 3c 75 22 2c 51 68 ca ac 8a eb 8d 2c
       5.756271e-12 2.3086663e-12 -5.7527668e-12 4.033611e-12
0002c0 d7 11 4f ab b8 43 48 ac cc 5c b3 2c 8d 3f b5 ac
       -7.356593e-13 -2.84593e-12 5.0977885e-12 -5.151385e-12
0002d0 0d 8b 40 2b 9a d7 bb ab 02 2c a0 2c a8 75 fa 2b
       6.8405074e-13 -1.3346991e-12 4.5523594e-12 1.7796225e-12
0002e0 9a 90 57 2c ff 6d 1e 2c 03 c3 d7 ab c8 b0 bc ab
       3.0633608e-12 2.251421e-12 -1.5330795e-12 -1.340727e-12
0002f0 d1 d8 b8 ac c3 12 73 2c 04 16 b2 2c 0c 7c 99 2c
       -5.253666e-12 3.4542792e-12 5.0615085e-12 4.3622935e-12
000300 01 10 3b b4 fb eb 3b 32 05 91 bb b3 a1 9d 4c b3
       -1.7421554e-07 1.0938488e-08 -8.734245e-08 -4.7640814e-08
000310 d5 04 08 32 1e 77 15 b3 4d c0 d9 b2 72 58 b3 33
       7.917341e-09 -3.4800102e-08 -2.5349573e-08 8.351425e-08
000320 7c cb 3d b4 bc fb 3b 32 37 91 bb b3 0a a0 67 b3
       -1.7676024e-07 1.094207e-08 -8.7342805e-08 -5.3929433e-08
000330 ed 66 31 32 22 2c 85 b3 40 73 f2 b2 bf 91 ab 33
       1.0326159e-08 -6.201323e-08 -2.8224918e-08 7.989319e-08
000340 9e d4 40 b4 26 ee 3b 32 87 8e bb b3 25 ff 5f b3
       -1.7958743e-07 1.0938981e-08 -8.733792e-08 -5.2153286e-08
000350 d0 99 47 32 1d 63 9c b3 2d f1 dc b3 60 7c 99 33
       1.1618297e-08 -7.282345e-08 -1.0288418e-07 7.1472414e-08
000360 d6 ca 43 b4 ed dc 3b 32 87 8b bb b3 71 13 54 b3
       -1.8234581e-07 1.0935065e-08 -8.733246e-08 -4.937778e-08
000370 b1 f6 45 32 e8 b3 9f b3 f8 57 e9 b2 f5 cf 9a 33
       1.1523e-08 -7.436739e-08 -2.7164774e-08 7.209011e-08
000380 bd 3f 44 b4 bf f7 3b 32 0c 91 bb b3 70 f4 26 b3
       -1.827711e-07 1.09411635e-08 -8.73425e-08 -3.88722e-08
000390 9f 27 4e 32 15 16 c5 b3 7f b9 9f 33 42 12 bc 33
       1.1999787e-08 -9.177544e-08 7.437756e-08 8.757753e-08
0003a0 64 1a 3a b4 b5 02 3c 32 40 8c bb b3 30 53 34 32
       -1.7332201e-07 1.0943656e-08 -8.7333774e-08 1.0496294e-08
0003b0 12 74 93 32 6d 98 21 b3 62 55 69 34 05 8f 27 34
       1.7165835e-08 -3.7624364e-08 2.1730878e-07 1.5605117e-07
0003c0 35 8a 82 af dc 15 3d 2c 20 54 ae ad aa 17 83 ad
       -2.3745064e-10 2.687065e-12 -1.9818869e-11 -1.4903485e-11
0003d0 1d 6b 36 ae 72 32 d8 ae 88 22 33 2d 6b e2 bb af
       -4.1477145e-11 -9.831504e-11 1.01826395e-11 -3.4175981e-10
0003e0 85 55 5b af 85 b1 5f ac 2a cd b9 ad 40 9e 30 2e
       -1.9948317e-10 -3.178875e-12 -2.1123176e-11 4.015832e-11
0003f0 96 88 21 ae ea 27 3f ae 67 30 a1 ad 26 9b 0b af
       -3.6728474e-11 -4.3463823e-11 -1.8325076e-11 -1.2697096e-10

bias f4 [64]
000000 35 79 c1 2c 57 61 2a 2d c3 14 c9 ac 5e db 2f ac
       5.4988466e-12 9.684995e-12 -5.7150686e-12 -2.499077e-12
000010 83 e8 b7 33 1a 1f 6c ae a6 18 4e 2d 2a 57 ed 3d
       8.563895e-08 -5.368781e-11 1.1715217e-11 0.11588891
000020 3c a5 e1 2c 9c 24 97 ae 95 0c a9 ad 46 6d 68 2c
       6.4132293e-12 -6.873188e-11 -1.9218663e-11 3.3029842e-12
000030 2f 28 4f ae 2e ec 7f bc 9c e2 88 ac 08 6d c0 2c
       -4.710204e-11 -0.0156202745 -3.890511e-12 5.469073e-12
000040 cb 45 d4 b0 34 99 47 b6 37 d3 b0 be d4 e0 3b b6
       -1.5444866e-09 -2.9742487e-06 -0.34536144 -2.7996039e-06
000050 13 38 74 2c 47 a2 cf b0 f8 3d 2b b6 43 e9 ef 2b
       3.4705613e-12 -1.5107354e-09 -2.5517056e-06 1.7046715e-12
000060 30 1c 05 31 a6 85 e5 2a d2 85 ae 34 82 f8 23 2e
       1.937007e-09 4.077131e-13 3.2507393e-07 3.728263e-11
000070 0e 69 e8 ad 88 47 4f ae 76 b8 98 32 c7 f0 7b 3e
       -2.6422e-11 -4.7129883e-11 1.7779012e-08 0.24603568
000080 4a 1f d0 b7 8c de 0e 2c 88 2a ae ac 54 ae fe b7
       -2.4810102e-05 2.0302952e-12 -4.9500994e-12 -3.0360337e-05
000090 54 c4 c3 2c 01 3a 5d b5 01 e5 b8 bb ad d3 85 b0
       5.56403e-12 -8.241332e-07 -0.005642534 -9.737186e-10
0000a0 1d 03 92 b2 56 9c 08 be 06 2b 2d 32 40 c7 0f ae
       -1.6998053e-08 -0.13340887 1.0079708e-08 -3.2691405e-11
0000b0 00 c3 a8 ab f4 7e 33 ac 84 fc 0f af 71 1f 4b ac
       -1.1991241e-12 -2.5507903e-12 -1.3095486e-10 -2.8865489e-12
0000c0 d6 18 0a b3 b8 0e 11 ad 00 02 8e b6 a6 66 af ad
       -3.2153217e-08 -8.245564e-12 -4.2321626e-06 -1.9940782e-11
0000d0 9c 3c 10 2e 96 ca 11 ae b8 27 4e 2d d6 1b 0d ad
       3.279564e-11 -3.3149115e-11 1.1718564e-11 -8.021103e-12
0000e0 3c 55 13 2e b1 51 f1 2c 91 49 64 b7 8a 2a 70 a7
       3.3499634e-11 6.8587015e-12 -1.36069875e-05 -3.3329751e-15
0000f0 b7 dd cd b9 c6 75 7e 2c 27 d6 2a 2d 1f da d1 b3
       -0.00039265837 3.6160948e-12 9.710933e-12 -9.771997e-08

weight f4 [32, 64]
000000 b1 9a df 2b 18 f7 19 ad 10 11 a1 ab d1 7f ce 2b
       1.5888038e-12 -8.751909e-12 -1.1444474e-12 1.4672657e-12
000010 84 b9 61 33 4e 7e 94 2e 42 7b a3 2d bb 94 54 3e
       5.255562e-08 6.752697e-11 1.8585692e-11 0.20759861
000020 32 bd 70 ac 9e e4 cd 2d e3 80 76 ad 0f df bc 2c
       -3.4211076e-12 2.3407328e-11 -1.40121e-11 5.368046e-12
000030 fb 12 b8 2d 33 93 d7 be 47 2d 21 ab 0a 35 f7 2b
       2.0926807e-11 -0.42104492 -5.7261525e-13 1.7565127e-12
000040 56 24 3e af 63 50 65 36 cd 17 86 bf d6 58 a0 b4
       -1.7293308e-10 3.417045e-06 -1.0476013 -2.986696e-07
000050 33 d9 84 2c 2d 3d 5c 2d c1 92 f0 b3 60 c8 29 ad
       3.7757796e-12 1.2519136e-11 -1.1202565e-07 -9.65103e-12
000060 7b 1d 2e b5 89 ca 89 ab 06 cd 66 b2 d7 b1 92 af
       -6.486295e-07 -9.79065e-13 -1.3434379e-08 -2.6683608e-10
000070 03 e7 80 ad b7 b8 2e 2d dc 44 df b3 e1 b8 d4 bd
       -1.4654505e-11 9.93177e-12 -1.0396772e-07 -0.10386825
000080 3d f3 42 37 26 ba 46 2c 80 68 69 ac ec 7e d8 b6
       1.1619934e-05 2.8240825e-12 -3.31693e-12 -6.4520773e-06
000090 71 43 cf 2d 67 23 d3 33 7f ac aa 3d d3 59 83 31
       2.3563125e-11 9.831893e-08 0.08333682 3.8228136e-09
0000a0 36 3c 7f 32 b3 bc c2 3e 92 f8 12 32 63 89 49 af
       1.4856644e-08 0.3803459 8.554837e-09 -1.8329653e-10
0000b0 12 89 b3 2a 8e 65 3d 2c ae 67 e9 2e 5b 43 c0 2b
       3.18919e-13 2.691489e-12 1.06140305e-10 1.3661115e-12
0000c0 30 01 9c b0 3b 48 de 2d 95 25 e6 31 26 54 f0 ad
       -1.1350831e-09 2.5270555e-11 6.6981536e-09 -2.732221e-11
0000d0 6d 39 32 2d 94 0a d3 2d 4d 8e a3 2b bd e7 c0 ac
       1.013088e-11 2.399262e-11 1.1621343e-12 -5.4826963e-12
0000e0 4b e7 48 ad 9f d6 a7 2b aa c3 f5 39 4e 69 91 2c
       -1.1420041e-11 1.1925633e-12 0.00046875823 4.132839e-12
0000f0 7a d3 02 ba 8e 5e db ad 42 4e 88 ad cd dd 5e b5
       -0.0004990619 -2.4939408e-11 -1.5496163e-11 -8.302421e-07
000100 df 2e 35 ac df 01 03 ad 8a aa c9 ab 06 7b ac ac
       -2.5747666e-12 -7.446903e-12 -1.4329243e-12 -4.9021924e-12
000110 90 16 0a 34 d7 78 68 2e b7 c1 b9 ae 90 c7 a8 3c
       1.286046e-07 5.285802e-11 -8.447237e-11 0.020602971
000120 5f 95 f8 aa a4 58 8b 2e 13 cf 76 ac 78 af 99 2c
       -4.4157297e-13 6.336734e-11 -3.5073652e-12 4.3680025e-12
000130 51 59 4a 2c 80 e4 89 3d c0 86 91 ac 4f 23 92 aa
       2.8755507e-12 0.06733036 -4.136108e-12 -2.595931e-13
000140 8a fc 05 b1 1b 0f 31 36 a9 dc f0 bf 28 04 3f 35
       -1.94976e-09 2.6383848e-06 -1.881734 7.115909e-07
000150 25 4f 5f ac 0d 22 54 2d f0 1a e1 b4 08 3f 6d 2c
       -3.173414e-12 1.2058366e-11 -4.1929115e-07 3.3714715e-12
000160 ed 78 42 b6 5a de 0f ac 4a 59 07 b5 75 0e 52 b1
       -2.897864e-06 -2.0444952e-12 -5.042135e-07 -3.056724e-09
000170 5e 15 cd 2b 5b 1b b9 2d 34 21 92 b5 fe 66 e6 bf
       1.4572057e-12 2.1044213e-11 -1.0887511e-06 -1.8000181
000180 ed ab 21 36 c1 01 bb ab 01 76 17 2c 69 63 2b 37
       2.4090943e-06 -1.3287636e-12 2.1523896e-12 1.021554e-05
000190 6d c9 e1 ad 09 85 d9 b5 6e 3a 08 be 67 18 b9 b4
       -2.566899e-11 -1.6206478e-06 -0.13303539 -3.447669e-07
0001a0 e3 b1 80 b2 32 a8 12 3f 94 d4 42 32 29 cc bb 2c
       -1.4982055e-08 0.57287896 1.1340621e-08 5.337526e-12
0001b0 bd bd 05 2c 0b be bd ac 75 c9 62 b1 fa 9b 72 2c
       1.9005763e-12 -5.392802e-12 -3.3001843e-09 3.4476853e-12
0001c0 10 ea b6 32 e5 e7 d1 ad bf 4a aa b5 57 8e 80 ae
       2.1294028e-08 -2.3863531e-11 -1.2687741e-06 -5.846051e-11
0001d0 c0 d5 44 2c fd b8 b1 af c1 04 d3 ac f5 bd b8 2c
       2.797193e-12 -3.2327555e-10 -5.9975085e-12 5.250684e-12
0001e0 f8 49 6f 2e a0 ac 18 ad c8 3d 94 ba 3d b7 62 ab
       5.4408006e-11 -8.67853e-12 -0.0011309916 -8.0545623e-13
0001f0 58 be be b9 ee d8 f2 af b6 33 31 af 7f de 47 b6
       -0.0003638144 -4.417368e-10 -1.6116428e-10 -2.978282e-06
000200 96 cd ad 2c 21 ae 1d 2c c0 ce 9b ac 67 ee 6f ac
       4.9397804e-12 2.2407703e-12 -4.428319e-12 -3.4096283e-12
000210 16 37 3b ae 46 05 bd 2b 7d 91 7c ac 4b e8 f5 ad
       -4.2567803e-11 1.3430721e-12 -3.5892116e-12 -2.7956434e-11
000220 5e 98 82 ab 58 76 26 ad ac df c4 ac f6 f7 8b ac
       -9.279346e-13 -9.462285e-12 -5.5954876e-12 -3.978147e-12
000230 6d 11 50 ac ee ed cd 2c 0f 17 35 ac 89 c5 47 ab
       -2.956825e-12 5.852866e-12 -2.5734447e-12 -7.097314e-13
000240 40 31 09 ae b2 2e 58 ac 5a ac 69 aa 06 43 1f ad
       -3.1193936e-11 -3.0721367e-12 -2.0754354e-13 -9.052986e-12
000250 16 d9 79 ac a6 8c f8 ac 4a a0 77 ac 31 f2 9f ac
       -3.5505535e-12 -7.064199e-12 -3.518979e-12 -4.5459404e-12
000260 45 f9 54 ad 45 42 54 ac 47 de f0 ac 29 96 79 2c
       -1.2106154e-11 -3.01638e-12 -6.845888e-12 3.5468384e-12
000270 d1 a2 6a a8 fb 2a e4 2c 08 14 d9 ad a7 59 8b ad
       -1.30249146e-14 6.4849215e-12 -2.467894e-11 -1.5842284e-11
000280 9a 42 f1 ac 83 4c f7 aa cd 87 b9 ac be 14 4e ad
       -6.8570262e-12 -4.3929105e-13 -5.273093e-12 -1.171435e-11
000290 6b d0 e4 ab 9f 86 c2 ad 0e 27 0a ae f9 41 d2 ad
       -1.6258222e-12 -2.211503e-11 -3.1412255e-11 -2.3903534e-11
0002a0 04 c4 74 2b 06 9d 8b 2c bf 31 c1 2c a5 4e bc ac
       8.695824e-13 3.9680507e-12 5.490913e-12 -5.3520127e-12
0002b0 60 d4 af 2c 6a f3 ad 2c cc d5 ad ac 89 02 aa 2c
       4.9973775e-12 4.94398e-12 -4.940692e-12 4.831972e-12
0002c0 9f 90 81 ac e6 74 dd 2b ce 44 14 ae d1 a0 0c ad
       -3.6824567e-12 1.573544e-12 -3.3712415e-11 -7.993787e-12
0002d0 c4 43 10 ad 49 42 31 ab 35 96 09 2c 25 85 e7 ac
       -8.200499e-12 -6.297502e-13 1.9552253e-12 -6.580197e-12
0002e0 e8 a2 1f 2c e8 3b e7 ac 68 ca 9f ad 96 3a aa 2c
       2.268569e-12 -6.572066e-12 -1.8166094e-11 4.838195e-12
0002f0 76 d9 c4 2b ac df e7 29 85 b8 04 2c 27 4e fc ad
       1.3986995e-12 1.02972616e-13 1.8860757e-12 -2.868379e-11
000300 46 e3 8f ac fe a0 86 ac 0d a8 36 2c 19 5b 94 2c
       -4.089537e-12 -3.826383e-12 2.5957043e-12 4.216527e-12
000310 3e fd 53 b3 c0 45 b7 af dd a3 7c ae b6 d3 4a b6
       -4.935759e-08 -3.3337066e-10 -5.7443706e-11 -3.0223578e-06
000320 7e cb 45 ab a6 69 4c 2e 1d be fa ab 0a bc 54 ac
       -7.027086e-13 4.6478064e-11 -1.7816335e-12 -3.0231395e-12
000330 e7 c3 22 ad 4f 42 af b6 fb 5a f4 2a 50 16 60 ac
       -9.252133e-12 -5.2231258e-06 4.3406237e-13 -3.18447e-12
000340 7c 63 60 b1 de e4 44 ad 46 bc 64 b7 70 44 2c b5
       -3.265284e-09 -1.1192129e-11 -1.3633695e-05 -6.417458e-07
000350 e2 df 84 ac bc d0 23 2d 8e 52 00 af a6 1a 0d ae
       -3.7765216e-12 9.311826e-12 -1.1670861e-10 -3.2083357e-11
000360 9c c5 22 35 67 58 1c 2b 76 e2 ea 34 b6 5b 97 b0
       6.063726e-07 5.5545016e-13 4.3750669e-07 -1.1012762e-09
000370 f4 7b 65 aa f2 06 d1 ad 5b 54 a0 33 09 b2 db b6
       -2.0382291e-13 -2.3763633e-11 7.465925e-08 -6.5474346e-06
000380 a9 60 e8 2c e0 3f d3 ac b3 61 67 ac 76 1d 01 b3
       6.604568e-12 -6.0040722e-12 -3.2881308e-12 -3.0061948e-08
000390 a5 52 47 af f8 81 7f b4 85 99 08 b6 1a 07 bc 31
       -1.8128306e-10 -2.3796008e-07 -2.035494e-06 5.4723275e-09
0003a0 5e e1 6f ad 34 25 8f 35 5c 57 0e b2 ca f6 2b 2c
       -1.3635619e-11 1.0665158e-06 -8.285351e-09 2.4437557e-12
0003b0 4b 01 fc ab 3c d0 a1 ac b6 88 3d b0 ee 47 ca 2a
       -1.7906036e-12 -4.599014e-12 -6.895208e-10 3.593232e-13
0003c0 fe e1 7a 32 52 ba e5 2d 99 c3 28 b5 ea fc 28 ae
       1.46033e-08 2.6117029e-11 -6.286951e-07 -3.842341e-11
0003d0 45 f2 e1 2c d7 50 f9 ac 37 ac ca ab b3 82 2b ac
       6.421782e-12 -7.0859807e-12 -1.4400762e-12 -2.4373114e-12
0003e0 ea b9 1b ad c8 2c 30 ad 35 55 f9 32 02 87 18 aa
       -8.852011e-12 -1.0014385e-11 2.9026163e-08 -1.3547152e-13
0003f0 e7 a5 15 2c cf c7 96 2d c6 c6 04 ae c1 7e 39 b2
       2.1266268e-12 1.7141758e-11 -3.018987e-11 -1.0797238e-08

bias f4 [32]
000000 97 0d f1 3d d5 e8 85 3e 2d 50 df ad 1b 42 81 b5
       0.1177017 0.261542 -2.538777e-11 -9.630488e-07
000010 6f 46 ab 3e 19 c6 2f 3e 74 b6 e5 ac de bd 1e 3e
       0.33452174 0.17165412 -6.528828e-12 0.15502116
000020 bb ca 53 3e de 29 19 3e 12 1c 33 3e 3e ae 92 3d
       0.20682804 0.14957377 0.17491177 0.0716214
000030 0d cf c9 ae 13 be cd 3d bd 38 e1 ac e4 90 73 b5
       -9.1772014e-11 0.100460194 -6.401184e-12 -9.07354e-07
000040 cf 8c b6 3e aa f1 8e b3 3e 32 83 3e c1 8c ad 3d
       0.35654303 -6.656349e-08 0.2562427 0.08474112
000050 b9 4a 5e b0 20 c4 c0 3e 11 24 51 3e 97 bb ab 3d
       -8.0869317e-10 0.37649632 0.20423914 0.08385389
000060 5c ea 87 b8 8f 32 42 3e 32 59 55 3e 75 57 96 b4
       -6.4809545e-05 0.18964599 0.20834807 -2.800331e-07
000070 8b b3 3d af 4b 6f 97 3e 22 e2 41 3e dd bc bc b5
       -1.7253236e-10 0.29577097 0.18933919 -1.4062058e-06

weight f4 [2, 32]
000000 f0 6a 63 bf c7 c1 15 c0 b7 8c ea ad 91 b7 9e b3
       -0.8883505 -2.3399522 -2.666521e-11 -7.390839e-08
000010 02 02 51 3f c1 01 90 bf c6 5a 95 aa fd a9 ce 3e
       0.8164369 -1.1250535 -2.6530704e-13 0.40364066
000020 6a 6d c6 3e 81 a5 c4 3f ac 28 bf 3f 9a 73 00 c0
       0.3875535 1.5363008 1.4934287 -2.0070558
000030 e4 b7 28 ae 2b 4e e5 bf 92 7e 32 29 de 1e 66 36
       -3.8362105e-11 -1.791448 3.9633722e-14 3.4290638e-06
000040 7f db 40 3f 36 74 22 b2 42 dd a2 3f 19 e8 9f bf
       0.75334924 -9.456064e-09 1.2723773 -1.2492706
000050 5d af de ae ce 31 5e 3f 47 47 1f 40 68 21 42 c0
       -1.0126542e-10 0.86794746 2.4887254 -3.033289
000060 ae 27 8b 3a f0 11 04 3f 7c a1 df 3e 7e de 77 b4
       0.0010616684 0.5158987 0.4367789 -2.308461e-07
000070 05 90 02 ae 78 33 22 3f 51 d2 2e 3f 20 2b ba b6
       -2.9686493e-11 0.63359785 0.6828967 -5.5482524e-06
000080 91 df c6 3e 40 e3 24 be 6b 13 fa 2d 52 45 6b b5
       0.38842443 -0.16102314 2.8430333e-11 -8.7645196e-07
000090 b1 15 12 be 2b df 33 3f 3c 0e ed 2b 99 dc 5e 3d
       -0.14266087 0.702624 1.6843814e-12 0.054409597
0000a0 d3 1e 56 bd a9 eb 58 be f4 d0 06 bf 45 a1 67 3d
       -0.05227549 -0.21183647 -0.5266259 0.056550283
0000b0 6e 18 1e ae 5f 59 cf 3e 40 51 1d 2b ac 53 c8 b4
       -3.594674e-11 0.40497872 5.589036e-13 -3.7313782e-07
0000c0 8a a1 0f bf a2 ef 07 33 f1 4e d1 be 62 5f 01 3f
       -0.56105864 3.165008e-08 -0.4088054 0.5053617
0000d0 be a6 d2 2d c9 67 b7 3c 8f cb 05 3d 1d 7e 85 3f
       2.3948284e-11 0.022388356 0.03266483 1.0429112
0000e0 85 70 a9 39 55 30 38 be 16 a7 db bd 10 11 91 33
       0.00032318025 -0.17987187 -0.107252285 6.755192e-08
0000f0 14 4a 85 2d 46 5d a8 3d db 4d c6 bd ce a5 d8 35
       1.5153247e-11 0.082209155 -0.096828185 1.614151e-06

bias f4 [2]
000000 7e ed 71 3e 2c 44 83 be
       0.23625752 -0.2563795
