ElegantRL/EntornoObservacionesAccionesMejorado/2Msteps_SAC_0/actor__000000351744_58772.395.pt (torch, 27329 bytes, 8 tensors)

state_avg f4 [48]
000000 00 00 00 00 00 00 00 00 00 00 00 00 00 00 00 00
       0.0 0.0 0.0 0.0
000010 00 00 00 00 00 00 00 00 00 00 00 00 00 00 00 00
       0.0 0.0 0.0 0.0
000020 00 00 00 00 00 00 00 00 00 00 00 00 00 00 00 00
       0.0 0.0 0.0 0.0
000030 00 00 00 00 00 00 00 00 00 00 00 00 00 00 00 00
       0.0 0.0 0.0 0.0
000040 00 00 00 00 00 00 00 00 00 00 00 00 00 00 00 00
       0.0 0.0 0.0 0.0
000050 00 00 00 00 00 00 00 00 00 00 00 00 00 00 00 00
       0.0 0.0 0.0 0.0
000060 00 00 00 00 00 00 00 00 00 00 00 00 00 00 00 00
       0.0 0.0 0.0 0.0
000070 00 00 00 00 00 00 00 00 00 00 00 00 00 00 00 00
       0.0 0.0 0.0 0.0
000080 00 00 00 00 00 00 00 00 00 00 00 00 00 00 00 00
       0.0 0.0 0.0 0.0
000090 00 00 00 00 00 00 00 00 00 00 00 00 00 00 00 00
       0.0 0.0 0.0 0.0
0000a0 00 00 00 00 00 00 00 00 00 00 00 00 00 00 00 00
       0.0 0.0 0.0 0.0
0000b0 00 00 00 00 00 00 00 00 00 00 00 00 00 00 00 00
       0.0 0.0 0.0 0.0

state_std f4 [48]
000000 00 00 80 3f 00 00 80 3f 00 00 80 3f 00 00 80 3f
       1.0 1.0 1.0 1.0
000010 00 00 80 3f 00 00 80 3f 00 00 80 3f 00 00 80 3f
       1.0 1.0 1.0 1.0
000020 00 00 80 3f 00 00 80 3f 00 00 80 3f 00 00 80 3f
       1.0 1.0 1.0 1.0
000030 00 00 80 3f 00 00 80 3f 00 00 80 3f 00 00 80 3f
       1.0 1.0 1.0 1.0
000040 00 00 80 3f 00 00 80 3f 00 00 80 3f 00 00 80 3f
       1.0 1.0 1.0 1.0
000050 00 00 80 3f 00 00 80 3f 00 00 80 3f 00 00 80 3f
       1.0 1.0 1.0 1.0
000060 00 00 80 3f 00 00 80 3f 00 00 80 3f 00 00 80 3f
       1.0 1.0 1.0 1.0
000070 00 00 80 3f 00 00 80 3f 00 00 80 3f 00 00 80 3f
       1.0 1.0 1.0 1.0
000080 00 00 80 3f 00 00 80 3f 00 00 80 3f 00 00 80 3f
       1.0 1.0 1.0 1.0
000090 00 00 80 3f 00 00 80 3f 00 00 80 3f 00 00 80 3f
       1.0 1.0 1.0 1.0
0000a0 00 00 80 3f 00 00 80 3f 00 00 80 3f 00 00 80 3f
       1.0 1.0 1.0 1.0
0000b0 00 00 80 3f 00 00 80 3f 00 00 80 3f 00 00 80 3f
       1.0 1.0 1.0 1.0

weight f4 [64, 48]
000000 12 89 33 b9 13 05 85 3a d0 74 ff ba 46 a7 e6 ba
       -0.00017121833 0.0010148607 -0.0019489769 -0.0017597459
000010 75 5e 82 ba 05 63 e1 39 bb 8f 4f b9 2f 51 ce 3a
       -0.0009946363 0.0004298912 -0.00019794602 0.0015740747
000020 ff a9 b6 b9 90 53 dd 39 be 22 55 ba c7 f9 18 ba
       -0.00034840402 0.00042214664 -0.0008130482 -0.00058355596
000030 e2 b1 12 bb 56 97 d1 ba 87 1c 8a ba ab 64 9b b8
       -0.0022383858 -0.0015990536 -0.0010537066 -7.409727e-05
000040 28 63 39 3a 76 32 97 3a 41 f6 d5 ba 02 c3 90 ba
       0.00070719654 0.0011535424 -0.0016324 -0.0011044445
000050 ed 07 27 3a c0 07 d9 3a a8 35 1e ba a3 97 c1 3a
       0.00063717255 0.0016558096 -0.0006035217 0.0014769923
000060 ed bc 04 ba 0d 01 9f 38 81 99 ee 3a b3 bb 0e bb
       -0.00050635525 7.5819065e-05 0.0018203707 -0.0021779358
000070 55 41 c8 ba 77 53 39 ba 32 af 83 ba b1 a7 e2 3a
       -0.001527826 -0.0007069627 -0.0010046719 0.0017292408
000080 27 96 cd ba 25 e8 97 ba 13 e2 db ba b4 fe 0f bb
       -0.0015685008 -0.001158957 -0.0016775749 -0.0021971883
000090 74 22 bb ba 40 68 e1 3a f7 8a 56 3a cd 78 6c 3a
       -0.0014277236 0.0017197207 0.00081841595 0.0009020686
0000a0 9f 9c 28 b8 36 d4 a6 ba 21 43 61 39 94 96 0f bb
       -4.0200186e-05 -0.0012728039 0.0002148268 -0.002190982
0000b0 2d d6 e2 ba d3 a8 a7 ba 31 12 a0 3a c8 46 93 3a
       -0.0017306261 -0.0012791402 0.0012212453 0.0011236304
0000c0 f3 00 48 bb ac 0e b1 39 49 7f a9 b9 c6 d0 d4 ba
       -0.0030518144 0.00033771002 -0.00032329027 -0.0016236536
0000d0 ce 8c b0 b9 94 92 10 bb bf e8 9f 3a c1 79 ed bb
       -0.00033674244 -0.0022060024 0.0012200101 -0.00724718
0000e0 73 13 dd ba a9 0f a7 ba d5 a0 53 bb cc 51 9f bb
       -0.0016866758 -0.0012745756 -0.0032291908 -0.004862046
0000f0 61 e2 f9 b8 0d 24 2a ba e5 31 80 b9 b6 0b 94 bb
       -0.000119154116 -0.00064903573 -0.00024451237 -0.0045179976
000100 df c0 69 ba d1 0d 14 39 e3 3f d6 ba 41 75 09 bb
       -0.00089169847 0.00014119527 -0.0016345944 -0.002097443
000110 36 db c7 39 54 a8 bd 3a 18 f8 71 3a a2 06 a4 bb
       0.00038119563 0.0014469721 0.0009230389 -0.0050056735
000120 1b 01 98 ba 4d aa 11 3b a8 60 3c 39 7d 27 9c 38
       -0.0011597009 0.0022226751 0.00017965084 7.446015e-05
000130 66 3e d4 b9 7b 96 03 bb 70 05 2d 3b 92 39 ac bb
       -0.00040482281 -0.0020078707 0.0026400946 -0.0052558864
000140 e5 6c 83 bb 04 41 1a 3b b6 59 7a b8 76 c8 80 bb
       -0.004010784 0.0023537287 -5.9688195e-05 -0.003930147
000150 c6 07 a7 b9 2f 3c 3e ba d9 98 45 3b 23 e6 aa bb
       -0.00031858514 -0.0007256893 0.0030150919 -0.0052154227
000160 b9 37 b7 ba a5 71 65 ba 3a c6 70 ba 9e 3f d3 ba
       -0.0013978399 -0.0008752591 -0.00091848115 -0.0016116982
000170 0f 0b 5c 3a fe 08 76 ba 02 a2 06 bb 91 d5 e0 bb
       0.0008393982 -0.0009385495 -0.0020543342 -0.0068613966
000180 1e 34 8d 3a 59 68 e1 39 c5 c2 e1 ba 09 dc a7 ba
       0.0010772978 0.0004299309 -0.0017224184 -0.0012806664
000190 a7 63 03 3b 50 79 ba 3a 18 fd 81 ba f5 6c 16 ba
       0.002004841 0.0014226828 -0.0009917347 -0.0005738282
0001a0 6a c7 09 bb 06 cb 89 b8 78 04 da ba 2c bf df ba
       -0.00210234 -6.570485e-05 -0.0016633412 -0.0017070523
0001b0 1b 16 2f b9 35 57 93 39 ba 4a 75 ba f8 52 a6 3a
       -0.00016697535 0.00028103 -0.00093571434 0.0012689522
0001c0 ea 93 af ba ec e2 ff 3a 33 16 c1 3a e2 1b f7 ba
       -0.0013395522 0.0019522584 0.0014731347 -0.0018852914
0001d0 f0 90 1a ba 42 84 6f 38 f4 7a 8f 39 a8 0a 01 3a
       -0.0005896231 5.7105215e-05 0.00027366693 0.00049225474
0001e0 0c ff 5c 3a 14 57 da 38 d8 3f 8e ba 7e 5c 81 3a
       0.0008430339 0.000104112696 -0.0010852767 0.0009869484
0001f0 9a 28 0c bb 5c 40 ae ba 4e 61 1b ba f9 7d 8e ba
       -0.0021386505 -0.0013294327 -0.000592728 -0.0010871283
000200 c7 61 4b ba 74 bb ed ba b8 59 fe b9 97 0c dd 39
       -0.00077584054 -0.001813753 -0.000485135 0.00042161785
000210 c6 5a c0 ba 07 b9 20 b9 d5 73 c6 3a e0 8b 82 b9
       -0.001467549 -0.00015327717 0.0015140722 -0.00024899747
000220 ff 8c 4c 38 85 10 61 b9 52 42 dc 39 1b 9e af 3a
       4.8768703e-05 -0.00021463826 0.00042011082 0.001339856
000230 0f 4e 04 3b 5a 9e af 3a 19 ab 04 3b 0e 7e 3f b9
       0.0020188128 0.0013398633 0.0020243584 -0.00018262138
000240 f1 61 00 bb e8 7e 87 ba 63 a0 c2 3a cb 28 6d b7
       -0.0019589628 -0.0010337504 0.0014848824 -1.4135799e-05
000250 46 12 8e ba 2d 08 db ba a7 be 05 bb 0c 3e f1 ba
       -0.0010839186 -0.0016710811 -0.0020407827 -0.0018405332
000260 87 e6 e7 b9 df be 9c 3a d2 87 9a 3a 05 d5 09 bb
       -0.0004423151 0.001195874 0.0011789745 -0.002103151
000270 7b 4a b2 3a 3d a8 df ba 92 b4 f1 b9 69 c9 67 ba
       0.0013602519 -0.0017063689 -0.00046101637 -0.0008841963
000280 0e 3b dc b9 f4 7b e0 b9 97 3e 00 bb ba ca f6 ba
       -0.0004200567 -0.00042816962 -0.0019568556 -0.0018828728
000290 a1 e7 b2 b9 e1 90 ec 37 0e d6 81 ba ca 5a 57 3a
       -0.00034123383 2.8200857e-05 -0.0009905712 0.0008215128
0002a0 20 a1 00 bb 65 51 1a b9 c4 63 fb 3a 1d 29 69 ba
       -0.0019627288 -0.00014716906 0.0019179513 -0.0008894371
0002b0 41 0c 01 3b 1e 04 4f 3a 87 f8 00 bb 66 d9 b4 3a
       0.0019691142 0.0007897037 -0.0019679384 0.00137977
0002c0 0e f0 83 b9 1a 33 7f ba 38 8e e4 3a e7 fa e6 ba
       -0.00025165122 -0.0009735093 0.0017437404 -0.0017622382
0002d0 95 5f 75 39 ef 5f ef b9 26 1d cc 3a 60 93 1f 3a
       0.00023400628 -0.00045657108 0.0015572652 0.0006087329
0002e0 35 58 89 3a 0c e0 49 3a 9c 78 09 ba cb 73 f0 b9
       0.0010478558 0.0007700927 -0.00052441075 -0.0004586264
0002f0 97 8d eb ba ec df 9a 3a 55 ef e2 3a 09 95 c3 3a
       -0.0017971274 0.0011816001 0.0017313758 0.0014921735
000300 48 76 08 be 09 31 3f bc 61 22 bf bd 32 03 8b bd
       -0.1332637 -0.011669406 -0.09332729 -0.06787719
000310 61 2f 17 bd cc 7a cd 3d 16 5b b0 bd cc 87 5f 3e
       -0.03691042 0.10033187 -0.08611123 0.21829146
000320 bc 1d fd bd 2c c2 29 bc 33 5c bf bd 12 0b 00 bd
       -0.12359187 -0.010361236 -0.093437575 -0.031260557
000330 fa c6 39 bd e6 4b 0d 3e 88 8e 93 be f3 fe 82 3e
       -0.045355774 0.13798484 -0.2881968 0.25585136
000340 13 5a 05 be 62 40 3c bc e8 f7 bb bd aa 7c 6c bd
       -0.13022642 -0.011489959 -0.09178144 -0.057736076
000350 01 63 5f bd 16 a9 cb 3d 9d 69 55 be 33 5c 65 3e
       -0.054537777 0.0994436 -0.2084107 0.22398452
000360 c3 c8 06 be ae 7f 53 bc cd 58 b8 bd 4d 86 94 bd
       -0.13162522 -0.012908859 -0.090013124 -0.07252178
000370 86 b9 81 bd a7 e5 c4 3b 10 59 4e be 90 80 73 3e
       -0.06334214 0.006008822 -0.20151162 0.23779511
000380 55 e1 fe bd 62 16 2f bc e5 2a bf bd 05 e8 a0 bd
       -0.124453224 -0.010686489 -0.09334353 -0.07856754
000390 2c bf 89 bd 80 30 a4 3c ca 03 af be 30 bf 8d 3e
       -0.06725916 0.020042658 -0.34182578 0.27684927
0003a0 0e 12 dc bd 96 ca 20 bc 63 39 b9 bd 5f 3f 28 bd
       -0.10745631 -0.009813925 -0.09044149 -0.04107606
0003b0 e6 0b 7c bd b6 4f 2f 3e 81 c4 2f bf ad 5d b8 3e
       -0.061534785 0.17120251 -0.68659216 0.3600897
0003c0 47 5b a6 bd 35 f4 70 3a b1 23 de bb bc 0e a7 bb
       -0.081228785 0.0009191663 -0.006779157 -0.005098192
0003d0 05 76 68 bc 3e c0 09 bd 4b 43 64 3b ad 6d ef bd
       -0.014188294 -0.033630602 0.0034830149 -0.11690841
0003e0 e1 bd 8b bd da 86 8e ba d1 c5 ec bb c0 16 61 3c
       -0.06823326 -0.0010873929 -0.00722573 0.013738334
0003f0 4f dc 4d bc 9b 97 73 bc 28 6d cd bb c2 e6 31 bd
       -0.012564733 -0.0148676885 -0.006269116 -0.04343296

bias f4 [64]
000000 64 8c f6 3a 1f 1d 59 3b 90 1f 00 bb 8b 1a 60 ba
       0.001881015 0.003312893 -0.0019550063 -0.0008548877
000010 31 fb c4 bd 63 6e 96 bc 15 4e 83 3b 53 2e 85 3c
       -0.096182235 -0.018363183 0.004007111 0.01625744
000020 d8 c4 0f 3b c1 9d c0 bc 71 6b d7 bb 31 18 94 3a
       0.0021937396 -0.023512723 -0.0065740873 0.0011298714
000030 3a 60 7e bb 62 8a 9b bc 6a 70 ae ba aa 39 f5 3a
       -0.003881468 -0.018986885 -0.0013308648 0.0018709202
000040 12 69 98 bd 26 a7 dd 3b d8 31 29 bc f1 2e ac 3d
       -0.074419156 0.0067643104 -0.010326825 0.08407391
000050 ac 97 9b 3a 83 71 18 3c 9f 82 67 bc 35 db 18 3a
       0.0011870763 0.009304407 -0.014130264 0.0005831004
000060 32 67 aa 3d f8 38 12 39 05 27 8c bc 3d eb c7 3c
       0.08320464 0.00013944868 -0.01710845 0.024404163
000070 78 15 14 bc 6f 48 64 bb bb 47 ff 3d 7b 79 4a 3e
       -0.009038322 -0.0034833213 0.124648534 0.19772904
000080 11 41 e0 3b 2c 0b 36 3a 13 ef dd ba 33 65 5f 3e
       0.006843694 0.0006944414 -0.0016932212 0.21815948
000090 0b 78 f9 3a 84 42 0b 3e 16 40 b0 bd 3a 58 b5 3d
       0.0019032968 0.13599592 -0.086059734 0.088547185
0000a0 6c 18 74 b7 43 e8 c8 bd a8 f6 0c 3e 5d 36 37 bc
       -1.45492195e-05 -0.098099254 0.13765967 -0.011182395
0000b0 c8 0d d7 b9 21 ba 64 ba d9 7a 37 bd fb 6a 81 ba
       -0.00041018263 -0.0008725245 -0.04479489 -0.0009873802
0000c0 8e e9 60 b9 66 db 38 bb c9 47 8a bd 56 d7 74 3b
       -0.0002144931 -0.0028206944 -0.06751973 0.0037359796
0000d0 41 cd 37 3c f1 cc 39 bc df 57 83 3b c7 d5 33 bb
       0.01121837 -0.011340366 0.004008278 -0.0027440654
0000e0 4a be 3b 3c 48 c1 19 3b 87 83 67 3d e4 04 99 b5
       0.011458943 0.0023461152 0.05652192 -1.1400812e-06
0000f0 55 8f 6a bb b9 1e a2 3a 60 b2 59 3b 77 62 3c 3d
       -0.0035791 0.0012368775 0.0033217892 0.04599234

weight f4 [32, 64]
000000 52 78 0e 3a e5 30 44 bb b6 44 cd b9 22 91 03 3a
       0.0005434799 -0.002993637 -0.0003915184 0.000501888
000010 d2 a8 c6 bb 4e 39 bd 3c a6 51 d0 3b db ce 4f bd
       -0.0060626054 0.023098614 0.0063573895 -0.050734382
000020 81 62 99 ba 42 2c 03 3c 89 0c 9d bb 95 ae f0 3a
       -0.001170233 0.008006157 -0.004792754 0.0018362576
000030 d6 92 24 bc 5f 7a c4 be 1e 69 4d b9 dd 80 1d 3a
       -0.010044774 -0.38374612 -0.00019589483 0.0006008277
000040 79 74 7f bd 4e 78 74 bc 09 0c 36 be 2e 1f b2 3d
       -0.062366936 -0.014921261 -0.17778029 0.08697353
000050 4c 49 a9 3a 76 ff 30 3b 20 82 8e bd 6f 5a 58 bb
       0.0012915521 0.0027007735 -0.06958413 -0.0033012887
000060 69 af 79 3d 78 94 af b9 d0 33 fe 3d be e3 16 3d
       0.0609583 -0.0003348922 0.12412226 0.036838286
000070 b6 42 a4 bb 77 81 87 bc eb 8f 96 3e 5b 6b 15 3d
       -0.0050128354 -0.016541226 0.29406676 0.036479335
000080 7c c6 e6 ba 9e 3b 7d 3a 7c b8 94 ba 58 9e 84 3e
       -0.001760676 0.0009660068 -0.0011346485 0.25902057
000090 4a 10 04 3c c9 48 f4 3e 11 c8 cd bd 5f 5b 3c 3e
       0.008060524 0.4771178 -0.10047925 0.1839423
0000a0 b6 a6 db 39 61 23 12 bf 87 3b 9c bd 52 6a 80 bd
       0.00041895144 -0.57085234 -0.076285414 -0.06270279
0000b0 23 c7 e4 38 6f 59 71 3a f5 b7 14 3d 03 05 f5 39
       0.00010908979 0.0009206747 0.036308248 0.00046733776
0000c0 d1 1c a0 bc 4b 9f 0d 3c bf 36 14 3e 01 78 1b 3a
       -0.01954499 0.008643935 0.14474009 0.0005930663
0000d0 db 1b 63 3b fe 75 06 3c 0c 6a d0 39 a4 d4 f5 ba
       0.0034654054 0.0082068425 0.00039751863 -0.0018755388
0000e0 6a 02 80 bb ed e0 d5 39 93 8e af 3e de 4f b9 3a
       -0.003906538 0.0004079411 0.34288463 0.0014138182
0000f0 ea 37 76 ba 8b c3 0b bc 99 b5 ad bb 9f 2a 87 3d
       -0.0009392487 -0.008530508 -0.005301189 0.06599926
000100 75 e5 66 ba 11 f3 26 bb 94 7f 00 ba 58 cd db ba
       -0.00088079955 -0.0025474469 -0.0004901823 -0.0016769571
000110 43 6d b3 bd a6 1f 94 3c 30 b7 ec bc 62 2f 86 3d
       -0.087610744 0.018081497 -0.028895944 0.06552006
000120 87 63 1e b9 89 90 b1 3c 08 3f 9d ba 2d d6 c3 3a
       -0.00015105131 0.021675365 -0.0011996934 0.0014941149
000130 24 cf fe bb 82 45 0f 3e b8 75 b9 ba 8a 3c ba b8
       -0.007776158 0.13991359 -0.0014149463 -8.8804474e-05
000140 f5 cb 7f be ad e2 f0 3b 38 94 b5 3e 46 79 0a bf
       -0.24980147 0.0073512406 0.35464644 -0.540913
000150 3e 48 8e ba 38 27 87 3b f2 86 af 3b ca 24 97 3a
       -0.001085527 0.0041245483 0.005356663 0.001153135
000160 65 e4 b1 bd 12 54 37 ba 22 1c 74 3d 7d 32 92 bf
       -0.08686141 -0.00069934234 0.059597142 -1.1421658
000170 8d a5 02 3a 86 32 9c 3c 5c 98 f6 bf bd df 09 be
       0.00049837754 0.01906706 -1.9265246 -0.13464256
000180 92 b9 88 3b 48 50 ee b9 dc 04 41 3a 33 fa 68 3e
       0.0041725123 -0.00045454712 0.000736309 0.22751693
000190 e2 db 0f bc 5a 43 02 bf dd 41 31 be db 76 0b bf
       -0.0087804515 -0.5088402 -0.17310281 -0.54478234
0001a0 c4 13 77 b9 13 4f 41 3e e8 40 15 3d 63 51 ef 3a
       -0.00023563119 0.1887782 0.036438853 0.0018258508
0001b0 5c 6b 2a 3a d4 c9 f1 ba d1 7e 90 bf 1a 94 9a 3a
       0.0006500983 -0.001844699 -1.1288701 0.0011793405
0001c0 9c c0 d9 bb a9 bd 05 bc 71 e0 04 3d 36 d1 a3 bc
       -0.0066452753 -0.008162894 0.032440607 -0.01999722
0001d0 9d d8 7a 3a 65 7a e2 bd 4b 72 06 bb 45 6b eb 3a
       0.0009569021 -0.11058501 -0.0020514901 0.0017961046
0001e0 8d 75 98 3c 4d 8e 42 bb fc 22 a6 bd 36 73 90 b9
       0.01861074 -0.0029686869 -0.081121415 -0.0002755166
0001f0 17 5e 59 3a 02 bb 1a be d8 d2 61 bd e1 1e 09 bd
       0.00082919135 -0.151104 -0.055132717 -0.033476714
000200 86 79 dd 3a ad ee 48 3a cc 8f c6 ba 80 de 98 ba
       0.0016897179 0.000766496 -0.0015149056 -0.001166299
000210 09 94 6e bc 23 df f0 39 ea e8 a0 ba fb a9 1c bc
       -0.0145616615 0.00045942617 -0.0012276445 -0.009562011
000220 2b 6d a6 b9 b8 22 54 bb 64 e5 fa ba 12 5f b2 ba
       -0.00031743324 -0.0032369327 -0.001914185 -0.0013608655
000230 4e 93 84 ba 52 32 03 3b d6 c6 66 ba 58 91 7e b9
       -0.0010114701 0.0020019007 -0.00088034326 -0.00024277472
000240 73 d3 2e bc d7 bd 89 ba 43 e3 94 b8 8a f0 4a bb
       -0.010670531 -0.0010508847 -7.099521e-05 -0.0030966126
000250 52 30 9f ba 03 5e 1e bb 23 c6 9d ba 8d d2 cb ba
       -0.0012145138 -0.0024164922 -0.0012037199 -0.001555042
000260 ca ad 87 bb a7 3b 87 ba 9f 77 19 bb fe 05 9f 3a
       -0.0041405903 -0.001031746 -0.0023417247 0.0012132523
000270 a4 7e 95 b6 96 5e 11 3b 41 51 0a bc da 91 b1 bb
       -4.455289e-06 0.0022181622 -0.008442224 -0.005418998
000280 a5 b7 19 bb 08 90 1d b9 33 6d ec ba 8b 4b 83 bb
       -0.0023455408 -0.00015026343 -0.0018037915 -0.004006808
000290 88 c5 11 ba b2 e0 f7 bb f6 08 30 bc c6 f6 05 bc
       -0.00055607455 -0.0075646276 -0.010744324 -0.008176511
0002a0 24 ef 9b 39 34 e9 b1 3a 25 32 f6 3a 22 f7 ef ba
       0.00029742077 0.0013573528 0.0018783255 -0.0018307904
0002b0 80 11 e0 3a 5e a9 dd 3a e9 83 dd ba 79 a4 d8 3a
       0.0017095059 0.0016911437 -0.0016900274 0.0016528509
0002c0 d1 1b a5 ba aa 15 0d 3a f4 ef 3c bc f5 39 33 bb
       -0.0012596791 0.00053819513 -0.011531819 -0.0027347778
0002d0 74 d6 37 bb 2e e5 61 b9 92 52 2f 3a 9a 82 13 bb
       -0.0028051408 -0.00021543048 0.0006688024 -0.0022508265
0002e0 3f 6c 4b 3a 66 53 13 bb 3b 9f cb bb cd eb d8 3a
       0.00077599654 -0.002248013 -0.00621405 0.0016549766
0002f0 66 dd fa 39 ef bc 13 38 d0 1f 29 3a 51 be 20 bc
       0.0004784867 3.522349e-05 0.0006451579 -0.009811
000300 66 5a b7 ba 01 8c ab ba 38 c2 68 3a 61 0c bd 3a
       -0.0013988733 -0.0013087989 0.00088790385 0.0014423245
000310 e5 f8 e4 bd 92 8a e9 bd 8a f4 a0 bc 1b 23 88 3d
       -0.11180285 -0.11403383 -0.019647855 0.06647321
000320 c1 0f 7c b9 5f 39 82 3c 3c c1 1f ba e3 87 87 ba
       -0.00024038462 0.015896497 -0.0006094163 -0.001034018
000330 68 c7 c0 38 5b 19 06 be 7e ad 1b 39 fd c6 8e ba
       9.192416e-05 -0.1309561 0.00014846583 -0.0010893043
000340 ec e0 d5 be 17 ec 7a bb a9 25 1b bd c0 12 f4 bd
       -0.41773164 -0.0038287693 -0.037877712 -0.11917639
000350 c8 51 a9 ba 27 bf 50 3b ab 84 23 bd 4b d4 33 bc
       -0.001291805 0.0031852217 -0.039921444 -0.010975908
000360 bf 4f 2a 3d c3 40 47 39 fc b9 a4 3e 40 b0 3a be
       0.041579958 0.00019002245 0.32173145 -0.18231297
000370 b7 32 92 b8 3f b1 4e bc fd 51 3e 3e c0 2f 23 be
       -6.971269e-05 -0.012615501 0.18585964 -0.15936184
000380 0f 10 14 3b cb 97 06 bb c3 6b 93 ba e8 5d e2 bd
       0.002259258 -0.0020537253 -0.0011247325 -0.110530674
000390 0c fe 7d bd 53 81 a3 3e 79 8b 80 3e 67 81 35 bd
       -0.062009856 0.31934604 0.2510641 -0.04431286
0003a0 52 cc 1f b9 6f 86 fb 3e 4f 74 45 3d 1e 26 5b 3a
       -0.00015239537 0.49126002 0.048206624 0.0008359867
0003b0 ad 8d 20 ba de 35 ce ba 13 86 71 be 4b e4 00 39
       -0.0006124627 -0.0015732606 -0.23586302 0.00012292077
0003c0 31 80 54 3b e7 5a 12 3c 49 bb 1c 3e d8 f6 3d bb
       0.003242504 0.008932806 0.15305819 -0.0028986242
0003d0 de f5 0f 3b 25 da 1e bb f9 22 01 ba 35 93 5a ba
       0.0021966617 -0.002423891 -0.0004926171 -0.00083379756
0003e0 b4 74 46 bb e7 83 60 bb 62 6b 42 3e a7 5e 42 b8
       -0.0030281963 -0.0034258307 0.18986276 -4.6341356e-05
0003f0 72 b2 3e 3a 50 25 c0 3b eb 31 29 bc 05 54 93 3e
       0.0007274515 0.005863823 -0.010326843 0.2877504

bias f4 [32]
000000 86 85 41 3e ef ec 56 3d e9 48 0e bc 12 63 2a 3d
       0.18898591 0.05247205 -0.008684375 0.041598387
000010 c8 2d 27 3e eb 2f 9a 3d 6a 58 12 bb 46 ad 71 3e
       0.16326058 0.07528671 -0.002233053 0.23601255
000020 dc 14 4a 3e eb 30 53 3e d5 05 99 3e 59 dd 85 3e
       0.1973452 0.2062413 0.29887262 0.26145437
000030 78 b7 ba b9 05 e5 1c 3e ce 7f 0f bb 47 59 1c 3e
       -0.0003561338 0.15321739 -0.0021896246 0.15268432
000040 6a b1 34 3e 60 11 ae ba 8b 11 76 3e 77 d6 82 3e
       0.17645803 -0.0013280325 0.2403013 0.2555425
000050 e7 69 54 ba d3 36 40 3e b2 bc 86 3e 60 84 d7 3c
       -0.0008102939 0.18770914 0.26315838 0.026308239
000060 a6 69 6b 3e e8 df 18 3e 2b b1 03 bd 82 c4 f7 bb
       0.2298952 0.14929163 -0.032151382 -0.0075612674
000070 00 d9 d2 ba bf fe 74 3e a5 d5 96 bc 67 e2 62 be
       -0.00160864 0.23925303 -0.01841242 -0.22156678

weight f4 [2, 32]
000000 53 b6 f3 3e bd 8b ec bf b4 70 15 bc f8 79 d6 3e
       0.4760004 -1.8480145 -0.009121109 0.4188993
000010 82 60 67 3e a8 0b 1e c0 96 52 be b8 1d c3 fc 3e
       0.22595409 -2.4694614 -9.075289e-05 0.4936761
000020 14 73 33 3e c3 b9 60 3f af 9b a2 3f 3f 39 25 c0
       0.17524368 0.8778345 1.2703761 -2.581619
000030 30 0d e1 b8 0c ac 2e be c8 72 63 37 c7 0b 02 3f
       -0.000107312924 -0.17057818 1.3556979e-05 0.5079922
000040 eb 25 88 3f bb b5 36 b8 0e 70 39 3f 14 c8 e6 bf
       1.0636572 -4.356143e-05 0.72436607 -1.8029809
000050 71 b1 14 3a 93 2c 0a 40 9f b9 e8 3e ea cc 9b bf
       0.0005672193 2.1589706 0.45454118 -1.217191
000060 aa 4c 12 3f 99 52 90 3e 5c 0f 6d 3f f9 d6 a6 bb
       0.5714823 0.28188017 0.9260156 -0.0050915447
000070 a4 13 76 39 0f 71 61 3f 6f bd 30 3f 31 17 aa bf
       0.00023467705 0.8806314 0.6903905 -1.3288327
000080 f0 bf a1 3d f4 07 f0 3e 3d 55 1f 3c a1 c8 ea bd
       0.07897937 0.46881068 0.009724912 -0.11464048
000090 96 2c 42 be 33 8b d0 be 24 05 17 3a 61 ca 3c be
       -0.1896232 -0.407312 0.0005760959 -0.18436576
0000a0 9f ca 92 bd 89 3c a0 3e c7 f9 d6 be 5b 8f 06 3f
       -0.07167553 0.31296185 -0.4198744 0.52562493
0000b0 d2 b1 8f 39 06 b1 f5 bf d5 79 48 39 b3 c4 4b be
       0.00027407572 -1.9194648 0.00019118872 -0.19899254
0000c0 94 81 4a be de 47 38 3a 4a 13 c4 be 35 df 02 3f
       -0.19775993 0.0007029752 -0.38295966 0.51121837
0000d0 3e 86 f9 b9 ac e2 00 bb d0 37 8f be ac 7c db 3e
       -0.00047593 -0.0019666357 -0.2797227 0.42868555
0000e0 c3 58 39 bd 21 30 15 3d c9 ce 6d be d7 8b 90 3b
       -0.045250665 0.036422852 -0.23223414 0.0044112015
0000f0 2e 40 49 39 83 d2 9a be c4 fb 46 bd c7 25 b8 3e
       0.00019192763 -0.30238733 -0.048579946 0.35966322

bias f4 [2]
000000 c4 73 58 3e 4d 2c 11 be
       0.21137911 -0.14177056
