ElegantRL/EntornoObservacionesAccionesMejorado/2Msteps_SAC_0/actor__000000000512_56983.559.pt (torch, 27329 bytes, 8 tensors)

state_avg f4 [48]
0	0x00000000	0.0
1	0x00000000	0.0
2	0x00000000	0.0
3	0x00000000	0.0
4	0x00000000	0.0
5	0x00000000	0.0
6	0x00000000	0.0
7	0x00000000	0.0
8	0x00000000	0.0
9	0x00000000	0.0
10	0x00000000	0.0
11	0x00000000	0.0
12	0x00000000	0.0
13	0x00000000	0.0
14	0x00000000	0.0
15	0x00000000	0.0
16	0x00000000	0.0
17	0x00000000	0.0
18	0x00000000	0.0
19	0x00000000	0.0
20	0x00000000	0.0
21	0x00000000	0.0
22	0x00000000	0.0
23	0x00000000	0.0
24	0x00000000	0.0
25	0x00000000	0.0
26	0x00000000	0.0
27	0x00000000	0.0
28	0x00000000	0.0
29	0x00000000	0.0
30	0x00000000	0.0
31	0x00000000	0.0
32	0x00000000	0.0
33	0x00000000	0.0
34	0x00000000	0.0
35	0x00000000	0.0
36	0x00000000	0.0
37	0x00000000	0.0
38	0x00000000	0.0
39	0x00000000	0.0
40	0x00000000	0.0
41	0x00000000	0.0
42	0x00000000	0.0
43	0x00000000	0.0
44	0x00000000	0.0
45	0x00000000	0.0
46	0x00000000	0.0
47	0x00000000	0.0

state_std f4 [48]
0	0x3f800000	1.0
1	0x3f800000	1.0
2	0x3f800000	1.0
3	0x3f800000	1.0
4	0x3f800000	1.0
5	0x3f800000	1.0
6	0x3f800000	1.0
7	0x3f800000	1.0
8	0x3f800000	1.0
9	0x3f800000	1.0
10	0x3f800000	1.0
11	0x3f800000	1.0
12	0x3f800000	1.0
13	0x3f800000	1.0
14	0x3f800000	1.0
15	0x3f800000	1.0
16	0x3f800000	1.0
17	0x3f800000	1.0
18	0x3f800000	1.0
19	0x3f800000	1.0
20	0x3f800000	1.0
21	0x3f800000	1.0
22	0x3f800000	1.0
23	0x3f800000	1.0
24	0x3f800000	1.0
25	0x3f800000	1.0
26	0x3f800000	1.0
27	0x3f800000	1.0
28	0x3f800000	1.0
29	0x3f800000	1.0
30	0x3f800000	1.0
31	0x3f800000	1.0
32	0x3f800000	1.0
33	0x3f800000	1.0
34	0x3f800000	1.0
35	0x3f800000	1.0
36	0x3f800000	1.0
37	0x3f800000	1.0
38	0x3f800000	1.0
39	0x3f800000	1.0
40	0x3f800000	1.0
41	0x3f800000	1.0
42	0x3f800000	1.0
43	0x3f800000	1.0
44	0x3f800000	1.0
45	0x3f800000	1.0
46	0x3f800000	1.0
47	0x3f800000	1.0

weight f4 [64, 48]
0	0xba8cc450	-0.0010739658
1	0x3d9d9b14	0.076955944
2	0xbdf1d2fc	-0.1180782
3	0xbdd83bc8	-0.10558277
4	0xbd6254b2	-0.055256553
5	0x3d1d9154	0.038468674
6	0xbb3a4785	-0.0028423977
7	0x3de8f193	0.113742016
8	0xbc509540	-0.0127308965
9	0x3d1b7e82	0.037962444
10	0xbd31939e	-0.04335367
11	0xbce703e8	-0.028200105
12	0xbe0c580f	-0.13705467
13	0xbdc295d6	-0.09501235
14	0xbd723acc	-0.059138104
15	0x3bae2400	0.00531435
16	0x3d684d4a	0.056714334
17	0x3db04911	0.08607686
18	0xbdc72ed2	-0.09725727
19	0xbd7fe2d2	-0.062472172
20	0x3d556c84	0.05210544
21	0x3df3f728	0.11912376
22	0xbcf1de83	-0.029525047
23	0x3ddbdc14	0.10735336
24	0xbcbd6dd8	-0.023123667
25	0x3c78b360	0.015179485
26	0x3e0504b6	0.12990078
27	0xbe084479	-0.1330737
28	0xbdb8f7f0	-0.09031665
29	0xbd14c448	-0.03632
30	0xbd650bcc	-0.055919454
31	0x3dfdd6c8	0.12394482
32	0xbdbe72a4	-0.0929921
33	0xbd873fae	-0.06603943
34	0xbdcd453c	-0.10022971
35	0xbe0994df	-0.13435696
36	0xbdab7e71	-0.08373726
37	0x3dfc8e3a	0.12331815
38	0x3d831754	0.06400934
39	0x3d8e6554	0.069529206
40	0x3bf73b2e	0.0075448966
41	0xbd96a0ae	-0.07354866
42	0x3cc6d3d8	0.024270937
43	0xbe09286b	-0.13394324
44	0xbdd44905	-0.1036549
45	0xbd977473	-0.07395258
46	0x3db961e2	0.09051873
47	0x3dac418a	0.08410938
48	0xbd5d1f1e	-0.053984754
49	0xbc7df21e	-0.01549962
50	0x3e14b20d	0.14521046
51	0x3e2eee3c	0.17083067
52	0x3df8122a	0.121128395
53	0x3c90fe21	0.017699303
54	0x3df34609	0.118785925
55	0xbda6017f	-0.08105754
56	0x3d10cf60	0.03535402
57	0xbdf8ee2a	-0.12154801
58	0xbd3c4bf0	-0.045970857
59	0xbd445b9e	-0.047938935
60	0x3e033458	0.12812936
61	0x3d5b4f26	0.05354228
62	0xbd923dc4	-0.07140687
63	0x3d31547e	0.04329347
64	0x3db10fdd	0.08645604
65	0xbce8e6bb	-0.028430333
66	0x3d71676f	0.058936533
67	0x3d6e4928	0.058175236
68	0x3e1b13c7	0.15144263
69	0x3e08fb2d	0.13377066
70	0xbdd46cd7	-0.10372322
71	0xbd65841d	-0.056034196
72	0x3d816502	0.06318094
73	0x3dde49ef	0.108539455
74	0x3e3693a9	0.17829765
75	0x3e1a28db	0.15054648
76	0x3db920e9	0.0903948
77	0xbe02c08a	-0.1276876
78	0x3c9d106e	0.019172873
79	0xbdc8a7b1	-0.097976096
80	0xbe027cfc	-0.1274299
81	0x3defe60f	0.11713802
82	0x3e267073	0.16253833
83	0xbdf28b32	-0.11842956
84	0x3db4f11c	0.088350505
85	0xbcbd4f0c	-0.023108982
86	0xbbd6d0eb	-0.0065556667
87	0xbd999418	-0.0749895
88	0x3d7a56f0	0.061118066
89	0xbdc329ea	-0.09529479
90	0x3dd930be	0.10605
91	0x3dc9e117	0.098573856
92	0x3e280c19	0.16410865
93	0x3d7757fe	0.06038665
94	0xbdeeefad	-0.11666808
95	0xbdd2c7b8	-0.102919996
96	0x3d9126a6	0.0708745
97	0x3ce7b24a	0.028283257
98	0xbde80ec3	-0.113309406
99	0xbdac8ab7	-0.08424895
100	0x3e070e02	0.13188937
101	0x3dbfadc6	0.093593165
102	0xbd85a199	-0.06524963
103	0xbd1aa240	-0.03775239
104	0xbe0d9d51	-0.13829543
105	0xbb8da10f	-0.004322178
106	0xbde01c73	-0.10942926
107	0xbde5ff6d	-0.11230359
108	0xbc33f994	-0.010984797
109	0x3c977145	0.018486628
110	0xbd7c2300	-0.061556816
111	0x3daaf95b	0.08348342
112	0xbdb47b18	-0.08812541
113	0x3e038106	0.12842187
114	0x3dc67a90	0.09691346
115	0xbdfe00c2	-0.12402488
116	0xbd1ee224	-0.038789883
117	0x3b76348e	0.0037567946
118	0x3c937b47	0.01800312
119	0x3d04a576	0.03238436
120	0x3d6328c4	0.0554588
121	0x3be07100	0.006849408
122	0xbd9234e8	-0.07138997
123	0x3d84fa91	0.06493104
124	0xbe10150e	-0.14070532
125	0xbdb31d8c	-0.0874587
126	0xbd1fb977	-0.038995232
127	0xbd927544	-0.07151273
128	0xbd51100d	-0.051040698
129	0xbdf46009	-0.1193238
130	0xbd02b48d	-0.031910468
131	0x3ce336a0	0.027736008
132	0xbdc5ba35	-0.09654657
133	0xbc253756	-0.010083994
134	0x3dcbfe98	0.09960669
135	0xbc863619	-0.016383218
136	0x3b5242b8	0.0032083225
137	0xbc675873	-0.014120209
138	0x3ce267a9	0.02763732
139	0x3db48598	0.088145435
140	0x3e07fb46	0.13279447
141	0x3db485d9	0.08814592
142	0x3e085be6	0.13316306
143	0xbc44d5fc	-0.0120139085
144	0xbe03f5ff	-0.12886809
145	0xbd8b4b89	-0.068015166
146	0x3dc80f22	0.09768511
147	0xba73c700	-0.00092993677
148	0xbd9205b6	-0.071299955
149	0xbde1263a	-0.10993619
150	0xbe097a0c	-0.13425463
151	0xbdf7f7bc	-0.121077985
152	0xbcee5e3c	-0.029097669
153	0x3da11dae	0.07866989
154	0x3d9ed8b8	0.077561796
155	0xbe0dab6d	-0.13834925
156	0x3db7445e	0.08948587
157	0xbde5e7fa	-0.11225887
158	0xbcf87170	-0.030327529
159	0xbd6e3fd8	-0.058166355
160	0xbce26038	-0.027633771
161	0xbce6c080	-0.028167963
162	0xbe03d13c	-0.12872785
163	0xbdfdac31	-0.123863585
164	0xbcb7e600	-0.02244854
165	0x3af328b9	0.0018551565
166	0xbd857901	-0.0651722
167	0x3d5d5d04	0.054043785
168	0xbe0437b7	-0.12911879
169	0xbc1ea080	-0.009681821
170	0x3e0132ca	0.1261703
171	0xbd6fae02	-0.058515556
172	0x3e04a722	0.12954381
173	0x3d54cb94	0.05195196
174	0xbe04929e	-0.12946555
175	0x3db9e600	0.09077072
176	0xbc879a69	-0.01655312
177	0xbd832598	-0.06403655
178	0x3deaf154	0.11471811
179	0xbded6bd4	-0.11592832
180	0x3c7c384f	0.015394284
181	0xbcf60f74	-0.030036665
182	0x3dd1d016	0.10244767
183	0x3d240838	0.0400469
184	0x3d8d29fa	0.06892772
185	0x3d4f8238	0.050661296
186	0xbd0d4b96	-0.034495912
187	0xbcf7292e	-0.030171003
188	0xbdf21fc5	-0.11822466
189	0x3d9f33c2	0.07773544
190	0x3de943dc	0.11389896
191	0x3dc90a38	0.09816402
192	0xbd7de3c7	-0.061984804
193	0x3d4cca94	0.04999788
194	0xbc70bc16	-0.014693281
195	0xbc069dd2	-0.008216338
196	0x3ce35b49	0.02775349
197	0x3db4193c	0.087938756
198	0xbce4ba9c	-0.027921014
199	0x3c93136a	0.017953593
200	0x3d33cae4	0.043894663
201	0x3e0b57a5	0.13607652
202	0xbcb4495d	-0.022007639
203	0xbcfad065	-0.030616948
204	0x3cdbe203	0.02684117
205	0x3e0b3728	0.13595259
206	0xbbad1395	-0.0052818754
207	0x3e0c2d77	0.13689218
208	0x3db55895	0.08854786
209	0x3d7cfdbc	0.061765417
210	0x3daed55d	0.085367896
211	0x3d19459b	0.037419897
212	0x3e022a65	0.12711485
213	0x3ad5071a	0.0016252727
214	0x3d2414d1	0.040058915
215	0x3cf5d0d1	0.030006798
216	0xbd9cc873	-0.0765542
217	0xbd0166d5	-0.03159221
218	0x3e4f221a	0.20227852
219	0xbd540bac	-0.051768944
220	0x3dc8b6c4	0.09800485
221	0x3e348db9	0.17632188
222	0x3dbc506d	0.091950275
223	0x3c2b9a9d	0.010473874
224	0xbdb7723e	-0.08957337
225	0x3dead5fb	0.11466595
226	0xbc80fff7	-0.015747054
227	0x3cc366c6	0.023852717
228	0x3d7401e9	0.059572134
229	0x3c821f3a	0.01588403
230	0x3d6364bc	0.05551599
231	0x3dfa4a2a	0.12221177
232	0x3d557382	0.05211211
233	0x3e303a1c	0.17209667
234	0x3e325f32	0.17419127
235	0xbcce6d92	-0.025198732
236	0x3e2fd4ef	0.17171071
237	0xbd7314cb	-0.059346
238	0x3b5c9410	0.0033657588
239	0x3d36d5ee	0.044637613
240	0x3d84c4b0	0.06482828
241	0x3dbf5ef4	0.09344283
242	0x3d0ce00b	0.03439335
243	0x3d528349	0.051394735
244	0x3e2ce7a0	0.16885233
245	0xbdfafe52	-0.12255539
246	0x3e15abc3	0.14616303
247	0xbdff105b	-0.124542914
248	0x3c9539ee	0.0182161
249	0xbd1e0091	-0.03857476
250	0x3ba478d1	0.0050192853
251	0x3d896a8c	0.06709775
252	0x3e597682	0.21236613
253	0xbcf2dc6a	-0.029646117
254	0xbd5fd6fb	-0.05464838
255	0xbd823347	-0.063574366

bias f4 [64]
0	0x3e092480	0.1339283
1	0x3e48ec80	0.19621468
2	0xbe03b0f9	-0.12860478
3	0xbd665ce6	-0.05624094
4	0x3e5a1ccd	0.21300049
5	0x3d236ac0	0.039896727
6	0x3dedb3a4	0.11606529
7	0x3d89b242	0.06723453
8	0x3db94094	0.090455204
9	0x3d4b7e6d	0.049681116
10	0xbc475861	-0.012167067
11	0x3dae8c28	0.085228264
12	0x3d65878b	0.056037467
13	0x3e82ea1a	0.2556923
14	0x3d0020b7	0.0312812
15	0x3d6e1ba4	0.05813183
16	0xbdd90424	-0.10596493
17	0x3e5e8a73	0.21732502
18	0x3d6be839	0.05759451
19	0x3e1cb7f6	0.1530455
20	0x3daa7555	0.083231606
21	0x3e22e488	0.1590749
22	0xbdc3f607	-0.0956841
23	0x3d3ee4e6	0.046605013
24	0x3cdb0944	0.026737817
25	0x3cfbb34d	0.030725146
26	0xbd14dd77	-0.036344018
27	0x3dca6563	0.09882619
28	0xbd90e43e	-0.07074784
29	0xbd84515c	-0.064608306
30	0x3dfd6e2b	0.123745285
31	0x3dbeeb29	0.09322197
32	0x3e836eba	0.25670415
33	0x3d1ae066	0.03781166
34	0xbdcd5ed6	-0.10027854
35	0x3e5e6b55	0.21720631
36	0x3e0c9c5d	0.13731523
37	0x3e8282da	0.25490457
38	0xbe11f30c	-0.14252871
39	0x3d6dd7c1	0.058067087
40	0xbcad95f8	-0.021189675
41	0x3debf740	0.115217686
42	0x3e42fe63	0.19042353
43	0x3d8f7293	0.07004275
44	0xbc5d4ea0	-0.013507515
45	0xbce457fa	-0.027873982
46	0x3e5e6a07	0.21720134
47	0xbd7fd43e	-0.06245827
48	0x3e88aea8	0.26695752
49	0x3b819dd8	0.003955584
50	0x3db265db	0.08710834
51	0x3badfc15	0.0053095915
52	0x3e8bdcb9	0.27316836
53	0xbc232e54	-0.009959776
54	0x3e1fae9a	0.15593949
55	0xbc4be0ac	-0.012443703
56	0x3e658d1b	0.22417109
57	0x3dccd37b	0.10001274
58	0xbe0cfdfb	-0.13768761
59	0x3c43d5bf	0.0119528165
60	0xbc19d97d	-0.009390232
61	0xbcb2ea67	-0.021840287
62	0x3de5d622	0.11222483
63	0x3e6a99c9	0.22910227

weight f4 [32, 64]
0	0x3d126f68	0.035750777
1	0xbb96f603	-0.0046069636
2	0xbcd2ff08	-0.025756374
3	0x3d073b80	0.033015728
4	0xbd689b96	-0.056789003
5	0x3df27215	0.11838166
6	0x3dd4a68b	0.10383328
7	0x3d5e40a3	0.05426086
8	0xbd4c9733	-0.049948882
9	0xbdeee758	-0.11665219
10	0xbd92774c	-0.0715166
11	0x3df7653c	0.12079856
12	0xbdf0a95e	-0.11751054
13	0xbdfa9b7f	-0.1223669
14	0xbc53245d	-0.012887088
15	0x3d21e498	0.039524645
16	0xbdfd3c88	-0.12365061
17	0xbdf45dcf	-0.11931955
18	0xbb49c671	-0.0030788446
19	0xbd2ab457	-0.04167589
20	0x3dae030e	0.084966764
21	0x3d04e73f	0.032447096
22	0xbddcdeba	-0.10784669
23	0xbde55434	-0.11197701
24	0x3daebef6	0.08532517
25	0xbcb47ba8	-0.02203162
26	0xbd6d7f1f	-0.05798256
27	0x3d204d2c	0.039136097
28	0xbce67be6	-0.028135251
29	0x3d735cd8	0.059414715
30	0x3ce6f542	0.02819312
31	0xbd6863bb	-0.056735735
32	0xbdd434a2	-0.103616014
33	0x3d822389	0.06354434
34	0xbd98debc	-0.07464358
35	0xbc942a6a	-0.01808663
36	0x3c8b2a80	0.016988039
37	0xbd9bbbf7	-0.07604211
38	0x3d85071d	0.064954974
39	0xbdb2f936	-0.087389395
40	0x3ce1c86f	0.027561394
41	0x3c1d561a	0.009603048
42	0x3d2ade7d	0.041716088
43	0xbe0037fb	-0.12521355
44	0x3beb2b80	0.0071768165
45	0x3d7813af	0.060565647
46	0xbdab26c4	-0.08357003
47	0x3cfbdbd8	0.030744478
48	0xbb44d112	-0.0030031842
49	0x3dd7dd76	0.10540287
50	0xbcf7a407	-0.030229582
51	0x3a5e7f53	0.0008487601
52	0xbd68d762	-0.05684603
53	0xbcfad628	-0.030619696
54	0x3d11ad22	0.035565503
55	0xbdfcafd3	-0.12338223
56	0x3db8ccee	0.09023462
57	0x3db2b0e8	0.087251484
58	0x3d57846c	0.05261652
59	0x3dbe7c14	0.0930101
60	0xbd2ad976	-0.041711293
61	0x3ce7d456	0.028299492
62	0x3b21aae5	0.0024668511
63	0xbdb80064	-0.089844495
64	0xbd43a610	-0.04776579
65	0xbd331d5f	-0.043729182
66	0xbd0414d4	-0.032246426
67	0xbde1eff2	-0.11032094
68	0xbdbbacaa	-0.091637924
69	0xbc0a7ae8	-0.008452155
70	0xbcba2759	-0.02272384
71	0xbded3ece	-0.11584245
72	0x3ce34bf7	0.027746184
73	0x3d6619ce	0.056176953
74	0x3dcccaaf	0.09999596
75	0x3dc94d0d	0.098291494
76	0xbdae511f	-0.08511566
77	0xbd5684ae	-0.052372627
78	0xbd7b2424	-0.061313763
79	0x3cc04aa3	0.02347309
80	0x3cf56e92	0.02995995
81	0x3cef26c3	0.029193288
82	0x3d9797f6	0.07402031
83	0x3d76ec6b	0.06028406
84	0xbd94ffe9	-0.072753735
85	0x3dab9ce5	0.08379535
86	0x3da137d1	0.07871974
87	0x3c8d6383	0.017259365
88	0xbdec831e	-0.11548446
89	0xbd9ac90b	-0.07557877
90	0x3d08a6c5	0.03336217
91	0x3d0c9502	0.034321792
92	0x3debea8d	0.115193464
93	0x3d5eb9d6	0.054376446
94	0x3d067045	0.032821912
95	0xbc03ced2	-0.008044915
96	0x3da21eea	0.07916053
97	0xbd3a679f	-0.045508977
98	0x3d3e85a8	0.046514183
99	0xbd710ca3	-0.058849942
100	0xbb900a21	-0.0043957387
101	0x3d951b70	0.07280624
102	0x3d62faea	0.05541507
103	0xbd08b18f	-0.033372458
104	0xbba3e463	-0.005001591
105	0xbd9014f5	-0.07035247
106	0x3d4793ce	0.048724942
107	0x3d9e769c	0.07737467
108	0x3d2f2de8	0.04276839
109	0xbdf8879d	-0.12135241
110	0xbdbc3d6e	-0.09191404
111	0x3d9ee56b	0.07758602
112	0xbceaa5bf	-0.028643487
113	0x3d90d8a0	0.07072568
114	0x3d6c7d6c	0.0577368
115	0xbd063ea8	-0.032774597
116	0xbdd39bd6	-0.10332458
117	0xbdf7db78	-0.12102407
118	0x3d2e3ae9	0.04253665
119	0x3d8681f7	0.065677576
120	0xbcb97722	-0.022639815
121	0xbdfe8d70	-0.12429321
122	0xbdaf4f4f	-0.08560049
123	0xbc947c65	-0.018125722
124	0x3d5e06d0	0.054205716
125	0xbd4831ac	-0.048875496
126	0xbda4e6b1	-0.080518134
127	0xbdb26cf6	-0.08712189
128	0x3de3a61a	0.11115666
129	0x3d5443f9	0.051822636
130	0xbdcc1b44	-0.09966138
131	0xbd9d213e	-0.07672356
132	0xbe062d4d	-0.13103218
133	0x3cc33880	0.023830652
134	0xbd515f26	-0.05111613
135	0xbcdfd88f	-0.027324943
136	0xbc66d1f1	-0.01408814
137	0xbdffa2c8	-0.1248222
138	0xbddd9081	-0.108185776
139	0xbdb7598d	-0.08952627
140	0xbd5e207a	-0.05423019
141	0xbcdd13f2	-0.02698705
142	0xbd4b2a79	-0.049601052
143	0xbbf262e6	-0.0073970435
144	0xbc963350	-0.018335015
145	0x3df39716	0.11894052
146	0xbd48c30e	-0.049014144
147	0x3dd5f984	0.10447982
148	0xbda3a1f3	-0.07989874
149	0xbe0ca3eb	-0.13734405
150	0x3d0d33a8	0.03447309
151	0xbd8f14fe	-0.06986426
152	0x3d8563d6	0.06513183
153	0xbd8b05b5	-0.06788198
154	0x3ddcf0af	0.10788094
155	0x3dd01ace	0.101613626
156	0xb999abbb	-0.00029310383
157	0x3c7b3a56	0.015333733
158	0x3e073f8e	0.13207838
159	0x3da1ff2e	0.0791
160	0xbdebb7fa	-0.115097
161	0xbc21f43d	-0.009884891
162	0xbdf3d3fd	-0.11905668
163	0x3dc4a1d9	0.096011825
164	0xbca13b29	-0.01968153
165	0xbc806883	-0.015674835
166	0xbd85d9e6	-0.065357015
167	0xbda3f7f3	-0.08006277
168	0x3ca04c05	0.019567499
169	0x3dc91991	0.098193295
170	0xbddfaa01	-0.109210975
171	0xbcb2b8f3	-0.021816706
172	0x3de653a0	0.11246419
173	0x3de3d711	0.11125005
174	0xbc96d60c	-0.018412612
175	0x3ddeae89	0.10873134
176	0x3bfb3d56	0.007667224
177	0x3de45513	0.11149039
178	0xbd91f0ba	-0.07125993
179	0xbe2031f7	-0.1564406
180	0xbdebcd40	-0.11513758
181	0x3d1d8ab9	0.038462374
182	0x3d794e93	0.06086595
183	0xbe179e2b	-0.1480643
184	0x3dd8eb7e	0.105917916
185	0xbdf6eb54	-0.12056604
186	0x3d8889fc	0.066669434
187	0x3ddef90a	0.10887344
188	0x3d14d5d6	0.036336742
189	0xbd58c0ea	-0.052918352
190	0x3da38b6e	0.079855785
191	0xbcdc570d	-0.026896978
192	0xbdbc78a8	-0.09202701
193	0xbdb68cf7	-0.08913606
194	0x3d6f43b0	0.05841416
195	0x3dc2536c	0.09488568
196	0xbd034ec6	-0.032057546
197	0xbdf7517b	-0.12076088
198	0xbdfa8efa	-0.12234302
199	0xbd51c5c8	-0.05121401
200	0x3d834820	0.06410241
201	0xbdac6ae4	-0.08418825
202	0x3d00b4cc	0.03142242
203	0xbd8a111a	-0.06741543
204	0x3dd59a18	0.10429782
205	0xbd5acdb8	-0.053418845
206	0xbcd70302	-0.026246551
207	0xbdf574ae	-0.119851455
208	0xbddc5fa3	-0.10760429
209	0x3c370d38	0.011172585
210	0x3c8f8d7f	0.017523525
211	0x3da99ae3	0.082814954
212	0xbdd29937	-0.1028313
213	0x3c9e41af	0.01931843
214	0xbcaa1c18	-0.02076535
215	0x3daa777c	0.08323571
216	0xbd81f27d	-0.06345079
217	0x3d1799e0	0.03701198
218	0x3d47602a	0.048675694
219	0x3d837ed9	0.06420679
220	0xbd2014ab	-0.03908221
221	0x3d2e4159	0.04254279
222	0xbca27c9e	-0.019834813
223	0x3d0e7b76	0.03478571
224	0xbdf0ba1f	-0.1175425
225	0xbdd62bb7	-0.10457557
226	0xbdcf2678	-0.10114759
227	0xbd849e42	-0.06475498
228	0xbd66fe3e	-0.056394808
229	0x3cacbd2e	0.021086302
230	0xbd0051b1	-0.031327907
231	0xbd8b9563	-0.06815603
232	0xbbbda907	-0.005787972
233	0xbd124ef7	-0.035719838
234	0x3d8c4a15	0.068500675
235	0xbe10a6fc	-0.141262
236	0xbd3bd3d0	-0.045856297
237	0xbda38398	-0.07984084
238	0x3c831b24	0.016004153
239	0x3c047d92	0.008086579
240	0xbd181ea7	-0.037138607
241	0x3df55585	0.11979202
242	0xbd804f40	-0.06265116
243	0x3c0ef319	0.008724951
244	0x3cc50596	0.024050515
245	0x3dc0a4c0	0.094064236
246	0x3dbee44d	0.09320889
247	0x3c314158	0.010818802
248	0xbd251f47	-0.04031303
249	0x3d2329b2	0.039834686
250	0x3d920940	0.071306705
251	0xbbfa69e0	-0.007642016
252	0x3d85d0e7	0.065339856
253	0x3dcf0d44	0.10109952
254	0xbd88e814	-0.066848904
255	0xbcc84c29	-0.024450378

bias f4 [32]
0	0x3d8732a2	0.06601454
1	0xbd69fe83	-0.057127487
2	0x3d9d2eac	0.076749176
3	0x3c3b22f5	0.011421909
4	0x3e700905	0.2344094
5	0x3e01c743	0.12673669
6	0xbdc80abc	-0.097676724
7	0x3e50892c	0.20364827
8	0x3dfb40c4	0.122682124
9	0xbdc381f5	-0.09546272
10	0x3d0b30e1	0.03398216
11	0xbdee000f	-0.11621105
12	0x3cf34451	0.029695662
13	0x3b8c05ac	0.004273137
14	0xbdf93d0f	-0.12169849
15	0x3d2c869d	0.042120565
16	0x3d722f51	0.059127156
17	0x3e0abdbc	0.1354894
18	0x3df957a8	0.12174922
19	0x3d2fae96	0.042891107
20	0x3dcdc6af	0.100476615
21	0x3d1779cc	0.03698139
22	0x3e4ec1a4	0.20191056
23	0x39d777ce	0.00041097257
24	0x3e05531a	0.13019982
25	0x3dd214ec	0.10257897
26	0x3d5ae205	0.053438205
27	0xbd198404	-0.037479416
28	0xbd260b0c	-0.04053788
29	0x3d812623	0.06306102
30	0x3de04a8c	0.10951719
31	0xbd5c21cf	-0.05374318

weight f4 [2, 32]
0	0x3b777032	0.0037756083
1	0xbbbcef83	-0.0057658567
2	0xbd17f11b	-0.03709517
3	0x3c42b129	0.011883059
4	0x3e296de6	0.16545829
5	0xba46db22	-0.0007585754
6	0x3cb12bd5	0.021627346
7	0x3d85dffe	0.06536864
8	0x3b88836b	0.004166057
9	0xbc79ff89	-0.015258678
10	0xbb85ea65	-0.00408678
11	0xbcb9d6bc	-0.022685401
12	0xbbd55bc4	-0.0065111835
13	0xbc61ed8d	-0.013789547
14	0xb9eff6e7	-0.0004576959
15	0x3c2a61d1	0.010399298
16	0x3d27e7a3	0.04099239
17	0xbc8d0651	-0.017214926
18	0xbc374c68	-0.01118765
19	0xbc872667	-0.016497804
20	0xbcc5523e	-0.024087068
21	0xbb57b9e1	-0.003291719
22	0x3da3e063	0.08001783
23	0xbd289cd2	-0.04116518
24	0x3d966b6f	0.0734471
25	0x3de3a6c0	0.111157894
26	0x3d75d57d	0.06001805
27	0xbccf7f27	-0.025329186
28	0xbc824a8d	-0.01590469
29	0x3be1712e	0.006879947
30	0x3cea4795	0.028598586
31	0xbccc4086	-0.02493311
32	0xbb978694	-0.0046241973
33	0xbb329784	-0.0027250955
34	0xbcc2c0ea	-0.02377363
35	0xbd17c95d	-0.03705727
36	0xbd2a24b6	-0.041538917
37	0xbd11bacb	-0.03557853
38	0xbbcbe519	-0.006222379
39	0xbd441eba	-0.047880866
40	0xbd0c1303	-0.03419782
41	0xbbb2b97e	-0.0054542413
42	0x3c30a86e	0.010782344
43	0xbb2cd76b	-0.0026373516
44	0x3cd7afcc	0.026328944
45	0x3c245a49	0.010031291
46	0x3b712dc9	0.0036800972
47	0xbbc77062	-0.006086395
48	0xbcd251a5	-0.025673697
49	0xbd00ae39	-0.03141615
50	0x3ab58c5a	0.0013851032
51	0xbbb5e9b1	-0.00555154
52	0xbcbfe969	-0.023426728
53	0xbbb882c3	-0.0056308224
54	0xbd56d48e	-0.0524488
55	0xbd2ebfbd	-0.042663325
56	0xbca92e61	-0.020651998
57	0xbc044b0d	-0.008074534
58	0xbc9c1010	-0.019050628
59	0x3aed4a5f	0.0018103829
60	0xbcb3db07	-0.021955026
61	0xbc5d73ef	-0.01351641
62	0xbd40e82a	-0.04709641
63	0x3c6020fa	0.013679737

bias f4 [2]
0	0x3d61d2a4	0.055132523
1	0xbd29c158	-0.041444153
