ElegantRL/EntornoObservacionesAccionesMejorado/2Msteps_SAC_0/cri.pth (torch, 26885 bytes, 8 tensors)

state_avg f4 [48]
00000000: 0000 0000 0000 0000 0000 0000 0000 0000
00000010: 0000 0000 0000 0000 0000 0000 0000 0000
00000020: 0000 0000 0000 0000 0000 0000 0000 0000
00000030: 0000 0000 0000 0000 0000 0000 0000 0000
00000040: 0000 0000 0000 0000 0000 0000 0000 0000
00000050: 0000 0000 0000 0000 0000 0000 0000 0000
00000060: 0000 0000 0000 0000 0000 0000 0000 0000
00000070: 0000 0000 0000 0000 0000 0000 0000 0000
00000080: 0000 0000 0000 0000 0000 0000 0000 0000
00000090: 0000 0000 0000 0000 0000 0000 0000 0000
000000a0: 0000 0000 0000 0000 0000 0000 0000 0000
000000b0: 0000 0000 0000 0000 0000 0000 0000 0000
0.0 0.0 0.0 0.0 0.0 0.0 0.0 0.0
0.0 0.0 0.0 0.0 0.0 0.0 0.0 0.0
0.0 0.0 0.0 0.0 0.0 0.0 0.0 0.0
0.0 0.0 0.0 0.0 0.0 0.0 0.0 0.0
0.0 0.0 0.0 0.0 0.0 0.0 0.0 0.0
0.0 0.0 0.0 0.0 0.0 0.0 0.0 0.0

state_std f4 [48]
00000000: 0000 803f 0000 803f 0000 803f 0000 803f
00000010: 0000 803f 0000 803f 0000 803f 0000 803f
00000020: 0000 803f 0000 803f 0000 803f 0000 803f
00000030: 0000 803f 0000 803f 0000 803f 0000 803f
00000040: 0000 803f 0000 803f 0000 803f 0000 803f
00000050: 0000 803f 0000 803f 0000 803f 0000 803f
00000060: 0000 803f 0000 803f 0000 803f 0000 803f
00000070: 0000 803f 0000 803f 0000 803f 0000 803f
00000080: 0000 803f 0000 803f 0000 803f 0000 803f
00000090: 0000 803f 0000 803f 0000 803f 0000 803f
000000a0: 0000 803f 0000 803f 0000 803f 0000 803f
000000b0: 0000 803f 0000 803f 0000 803f 0000 803f
1.0 1.0 1.0 1.0 1.0 1.0 1.0 1.0
1.0 1.0 1.0 1.0 1.0 1.0 1.0 1.0
1.0 1.0 1.0 1.0 1.0 1.0 1.0 1.0
1.0 1.0 1.0 1.0 1.0 1.0 1.0 1.0
1.0 1.0 1.0 1.0 1.0 1.0 1.0 1.0
1.0 1.0 1.0 1.0 1.0 1.0 1.0 1.0

weight f4 [64, 49]
00000000: d5bc 1d3f 05f9 573c 9113 873f bd94 543e
00000010: 3114 5f3e 2faa f13c 1a74 0bbf 7955 233f
00000020: 84e8 263f 05f9 573c 9113 873f c9f4 483e
00000030: f944 6f3e 4bc6 02be 0d7d 06bf 4ac2 d33e
00000040: 6553 1d3f 05f9 573c 9113 873f 2cc9 973d
00000050: 67d2 6e3e 6b18 78be 8da2 8d3d 6220 ad3e
00000060: 08be 1d3f 05f9 573c 9113 873f 8f24 d43e
00000070: a170 743e abad 12be e0f2 91bd 4a10 143f
00000080: 173c 1b3f 05f9 573c 9113 873f 0992 843e
00000090: 089f 783e 5b32 bebe 4b3c dd3e 8172 963e
000000a0: e73e b43e 05f9 573c 9113 873f 3c99 19bf
000000b0: 5691 013e 88f4 d0bf eb38 a23e 2124 22bf
000000c0: 0f4a e33d ca98 013e 125e b93c ec6e f23e
000000d0: 2270 883d 6e79 d43d 66a2 973b c939 973c
000000e0: fd0e 2cbe 2163 913e 125e b93c ec6e f23e
000000f0: 6561 b23a 0cfa e83d fa67 913c 47bc b63c
00000100: 9de2 2abe 2cc5 4d3e 125e b93c ec6e f23e
00000110: c942 493d 776c be3d e50d f23b 3adb 243e
00000120: 080e 1cbe 34fe c33d 125e b93c ec6e f23e
00000130: 0cb4 383e ebcb 163d 46a7 683c 22a1 a6bd
00000140: 9c63 58bd 75e0 723e 125e b93c ec6e f23e
00000150: 5870 973e 56e1 603d 2471 223c 9db4 a93c
00000160: 933f ffbd 18c2 25be 125e b93c ec6e f23e
00000170: 55b7 cbbd 9ade b3bd f20c df3d a5a5 b3bd
00000180: f86b acbe 713e c83c 358c 493e ea6d cdbc
00000190: c25e 1d3f 9e4f 313e 2dce 843d 1afc 1dbc
000001a0: 475d f0be d7bb c4bd 49d6 b73e ea6d cdbc
000001b0: c25e 1d3f 672a 483e 9d37 9a3d 276b a53c
000001c0: 7587 14bf 4de8 c8bd 1a4c 8e3e ea6d cdbc
000001d0: c25e 1d3f 6487 1d3e 4533 613d 8af2 d73c
000001e0: 920f 26bf d561 a8bd fcb8 293e ea6d cdbc
000001f0: c25e 1d3f af5e dd3d 39a5 13bb ea9f 45bd
00000200: 4d0b 98be b2b4 9f3c 3997 9c3e ea6d cdbc
00000210: c25e 1d3f 2363 493e cc2d 773c 70b3 68bd
00000220: 5689 dfbe 8a21 59bd 08e9 b5bd ea6d cdbc
00000230: c25e 1d3f 1872 ebbd ee6e 02be ae98 883d
00000240: 0ea8 a7be 22f6 8abe e6dc 28bd 7e01 7e3d
00000250: 162e ae3c 55c4 cc3e 696b 503d 2137 b53d
00000260: 54ff 243b 39d0 8f3d ac1e 88be 70e2 6b3e
00000270: 162e ae3c 55c4 cc3e bbf2 8cbc b674 c83d
00000280: 141e 043d a4d2 923d 2ee9 70be e0d8 133e
00000290: 162e ae3c 55c4 cc3e c665 3d3d b477 9b3d
000002a0: b869 053d 5fbb 233e d9f0 55be 299e ed3c
000002b0: 162e ae3c 55c4 cc3e 4f33 1a3e 44da 7b3c
000002c0: 1afa ec3c 624d a7bd 13df 04be 6edb 3c3e
000002d0: 162e ae3c 55c4 cc3e 703b 953e bd29 0d3d
000002e0: 07dc 3d3d 9b57 c8bc 8de5 2fbe 3922 61be
000002f0: 162e ae3c 55c4 cc3e a496 38bd 2ada d9bd
00000300: 048d 8b3e 8987 01be 843c 93be 1598 6a3c
00000310: 5f4c 6b3e d6da c53c ecc2 183f 25a1 be3d
00000320: b2c9 033e 51f0 113c 2e6c 91bd 6084 f6bb
00000330: b61b bc3e d6da c53c ecc2 183f 115a 0b3d
00000340: 0360 0f3e f44c e8bb 0d34 83bd aa37 5cbd
00000350: 9937 953e d6da c53c ecc2 183f f5ad 5e3d
00000360: 497b f93d e242 13bd 935a 253e 395d 6ebd
00000370: af85 503e d6da c53c ecc2 183f cc0e 6b3e
00000380: 93a2 973d c64b 44bc d396 a2bd b3de 953d
00000390: 337b a33e d6da c53c ecc2 183f 2c9b 9b3e
000003a0: e7ee b83d 7a10 5ebd e049 cc3d 945b 39bd
000003b0: 24ab 85bd d6da c53c ecc2 183f bd89 44be
000003c0: d011 5dbd 4dec 37be c012 92bc ee96 d2be
000003d0: c1fd 2a3d 9102 c63d fd75 b43c b006 e13e
000003e0: ac18 733d 332c c63d e213 703b b187 2f3d
000003f0: b2cd 5abe b1cd 843e fd75 b43c b006 e13e
0.6161626 0.0131819295 1.0552846 0.20759864 0.21785046 0.029500095 -0.5447403 0.63802296
0.6519854 0.0131819295 1.0552846 0.19624628 0.23366155 -0.12770955 -0.5253456 0.41359168
0.61455375 0.0131819295 1.0552846 0.07411417 0.2332245 -0.24228065 0.0691577 0.3381377
0.6161809 0.0131819295 1.0552846 0.41434142 0.2387109 -0.14324062 -0.07126403 0.57837355
0.60638565 0.0131819295 1.0552846 0.25892666 0.24279416 -0.37147793 0.43210062 0.29384235
0.3520424 0.0131819295 1.0552846 -0.5999944 0.12653098 -1.6324625 0.3168405 -0.6333638
0.1109811 0.1265594 0.022627864 0.47350252 0.06662013 0.103747234 0.0046275137 0.018460171
-0.16802593 0.28395942 0.022627864 0.47350252 0.0013609348 0.11375818 0.017749775 0.022306575
-0.16688009 0.20094746 0.022627864 0.47350252 0.049135957 0.09298032 0.0073869103 0.16099253
-0.15239727 0.0956997 0.022627864 0.47350252 0.18037432 0.036815565 0.014200037 -0.081362024
-0.05282937 0.23718436 0.022627864 0.47350252 0.295779 0.054902397 0.00991467 0.020716006
-0.12463298 -0.16187322 0.022627864 0.47350252 -0.09947077 -0.08782692 0.10891141 -0.087718286
-0.33676124 0.024443837 0.19682391 -0.025076825 0.61472714 0.17315528 0.064846374 -0.009642625
-0.46946165 -0.0960614 0.35905674 -0.025076825 0.61472714 0.19547425 0.07530139 0.020192696
-0.5801919 -0.09809933 0.27792436 -0.025076825 0.61472714 0.15383679 0.054980535 0.026360769
-0.6486751 -0.08221785 0.16574472 -0.025076825 0.61472714 0.10809075 -0.00225289 -0.04824821
-0.29696122 0.019495342 0.30584124 -0.025076825 0.61472714 0.19666724 0.015086602 -0.05681175
-0.43659467 -0.0530105 -0.08882338 -0.025076825 0.61472714 -0.11496371 -0.12737629 0.06669746
-0.32745403 -0.2714091 -0.04122629 0.06201314 0.02126221 0.3999354 0.050883684 0.08848406
0.0025176601 0.07022137 -0.265859 0.23035598 0.02126221 0.3999354 -0.017205587 0.09787886
0.032255247 0.07169083 -0.23526451 0.144382 0.02126221 0.3999354 0.046239637 0.07591191
0.032571524 0.15989445 -0.20892657 0.02900608 0.02126221 0.3999354 0.15058635 0.015371863
0.028927851 -0.081690565 -0.12975721 0.18443081 0.02126221 0.3999354 0.2914691 0.034463633
0.046352413 -0.024455836 -0.1717741 -0.21985711 0.02126221 0.3999354 -0.045065537 -0.106373146
0.27256024 -0.12649359 -0.28757107 0.014318486 0.22978352 0.0241522 0.5967243 0.0930808
0.1286991 0.008907394 -0.07100712 -0.0075231045 0.36739892 0.0241522 0.5967243 0.03402144
0.1400147 -0.0070892517 -0.06406412 -0.053764023 0.2914398 0.0241522 0.5967243 0.054365117
0.12181718 -0.035952456 0.16147833 -0.058194373 0.20363496 0.0241522 0.5967243 0.22954863
0.074040554 -0.011980956 -0.07938924 0.07317867 0.3192993 0.0241522 0.5967243 0.30391824
0.09029942 -0.054214932 0.09975028 -0.04525335 -0.06526783 0.0241522 0.5967243 -0.19193168
-0.053972065 -0.17961235 -0.017831206 -0.41130775 0.041745905 0.09668458 0.022028917 0.43950415
0.0593497 0.09676399 0.0036632945 0.042854015 -0.21367529 0.2593818 0.022028917 0.43950415

bias f4 [64]
00000000: c1b5 353f f1f7 073f aeab f93e 971b fe3e
00000010: d283 163f 53b8 033f 9a1c 8dac 1c71 1aac
00000020: f4c9 f83e faa1 e03e bf8f 103f d139 013f
00000030: 6a70 013f 31f5 fd3e 076a 8e3d c01b f13e
00000040: fc27 a4ac adc3 3cbe 8146 f13e 5d43 003f
00000050: d911 0e3f b452 fe3e 40f5 fd3e d411 203e
00000060: 6e71 89bf 8714 013f 6eb2 023f e5f0 fd3e
00000070: cd44 ff3e 563a fc3e 5a44 81ac f879 023f
00000080: 6139 f13d e538 063f 0728 ec3e 975f 8c3e
00000090: 84bd 683f 834e 1c3f 613b 043f 2584 313f
000000a0: df80 003f 234f fe3e 8648 98be 260a b1ab
000000b0: b022 643e e136 373f 1d2a dfaa 6ebe fc3e
000000c0: 0426 f33e 655a 363f 4141 003f ac04 c6ac
000000d0: a4f9 023f 2700 003f 55cd 023f dd77 013f
000000e0: b87a 003f dff0 0c3f ccc0 033f 8087 ecac
000000f0: 37c6 343f 98d6 073f a70c ce3d 318e 0d3f
0.7098046 0.53112704 0.48763794 0.49630424 0.5879489 0.5145313 -4.0106364e-12 -2.1947505e-12
0.48591578 0.43873578 0.5646934 0.50478846 0.50562155 0.4960113 0.06953817 0.47091484
-4.6655995e-12 -0.1843402 0.47124103 0.5010279 0.55495983 0.49672472 0.49601173 0.15631801
-1.0737741 0.5042195 0.5105351 0.4959785 0.49857178 0.49263257 -3.673989e-12 0.5096736
0.11778522 0.52430564 0.46124288 0.2741668 0.9091418 0.610573 0.51653105 0.6934226
0.5019664 0.49669752 -0.2974283 -1.2579423e-12 0.22278857 0.71568114 -3.964198e-13 0.49364036
0.4748994 0.7123168 0.5009957 -5.628017e-12 0.5116217 0.5000023 0.5109456 0.5057352
0.50187254 0.5505504 0.5146606 -6.722567e-12 0.7061495 0.5306182 0.10061007 0.5529509

weight f4 [32, 64]
00000000: b9db 793e f4c9 e73e e4cf 0c3f fca7 063f
00000010: 6472 ba3e 0e8e fa3e 2be1 92ac 1a3e 472c
00000020: e85f 0f3f 4bb1 1b40 90cd c93e 63eb 013f
00000030: bab8 013f 87bb 063f 2932 cfbf 741c 1b3f
00000040: c1e4 de2b 163a e140 f150 1b3f 2d8c 043f
00000050: 8abc d93e 0699 063f 5fbb 063f 46b9 e73f
00000060: 2524 1ac1 2720 023f 03aa 003f 72c1 063f
00000070: 2d40 063f 91c4 073f 780e 6eab 0c5b 013f
00000080: 1250 5741 cc36 f13e 2f9d 243f e9da 3140
00000090: 4d8e 24c0 ad78 ae3e 6b22 f83e ad77 2440
000000a0: 5bbf 033f 239a 063f 7c42 aebf a57e 14ac
000000b0: d2bb 8c40 8bbe 783e 7065 2d2c 0387 073f
000000c0: cc43 173f a865 723e 4399 043f fe68 cb2c
000000d0: e054 fd3e 4472 053f bf86 fe3e 3eb3 013f
000000e0: e4e3 033f 9d4b d73e fefd 2a40 396d 08ac
000000f0: a45b 843e 0d18 eb3e acb4 a1bf 88c9 d23e
00000100: 1e72 4aac cb2b 03ad 4c67 c1ab bd60 bcaa
00000110: 5c42 b22b 229b 2fac 21f5 952a e3f5 b92c
00000120: 27b6 0aac 9028 362c 9a9a 6d2c 8d33 432c
00000130: 9981 2b2b 9abb c42b e404 632c 0821 32ac
00000140: 93d6 9b2c 3db8 82ac c412 7fac 0a15 762b
00000150: cf81 bcac ee63 99ac 0aa6 f5ab 4c23 e7ab
00000160: 417f 052a 72eb 34ac 05b3 49aa b751 792c
00000170: d7be 8bac d87d 8c2b 874a be2b 0b3d 0c2c
00000180: 602b 572c f628 32ac 71cf 4aac f623 82ac
00000190: 3fb5 6aac c55f 9cac d949 5eac ad48 062c
000001a0: f166 b6aa fc96 a3ac 6196 cd2b 9ca7 2629
000001b0: 9273 30ab f0f8 4e2b e955 6aac 81db 3aac
000001c0: 60eb 112c 131d d72b a9f9 b92b 85b9 d0ab
000001d0: 0765 ceab 85c6 df2b ac0c b9ab 6736 7b2b
000001e0: 7462 1c2b df56 002b 7c8c a42b cd07 8cac
000001f0: 86dc f0ac c5bb 04ad b422 352c 97db b9ac
00000200: 9bb9 b6ac afb1 5cab 5300 71ac 8892 662b
00000210: 6795 37ac a115 4d2c 802d b8ac 106b bfac
00000220: e5bd 872c b55d b5ac af87 562b ccf7 572a
00000230: 785a 48a9 c504 92ac e035 022c c290 a1ac
00000240: 47dc a32c ed54 83ab b50d 872c d3ae 562c
00000250: a1eb 93a9 e254 702b c838 1e2c fa2c fbac
00000260: cc2e 8d2c 1d2c 40ac 66f8 912c bac6 0bac
00000270: e743 d92b 87b7 212c 759f 932b 97c8 9cab
00000280: a569 202c b3f3 f5ac 132c acab 8b7a a0ac
00000290: 01a6 9aac 2610 bcab 686f 862b 150b 73ad
000002a0: 38f7 842c 13a2 2a2c 3028 ae2c 30fe 38ac
000002b0: 1f06 02ad eba0 3b2c c007 b02c a7bc a3ac
000002c0: 31bc b7ac cd72 18ac 3bc4 892c aaa4 9dab
000002d0: 66a4 d2ac 7940 33ac b2c5 8fac 8258 8c2c
000002e0: 218f 9dac c6fa 812c 42c1 252b ce6e 3eab
000002f0: 976d e7ab e662 2c2c 5eab d42c c8cc 63ac
00000300: f197 cdac a595 80ad ab38 93ad 3d0b 09ad
00000310: b9d6 8fad 2b90 44ad f866 2c2a f8fd 58ac
00000320: 04b9 64ad 4f1b 5c2c 0111 5aad 8e7e 65ad
00000330: 0421 19ad 01b9 79ad a799 f0ad 5f02 bfad
00000340: 4e90 9fac 3d04 5f2b 2c09 78ad 36ae 90ad
00000350: eb89 76ad 95da 2ead 074e 25ad 64fa 292c
00000360: 3957 882c 53b3 81ad 0315 41ad ca5f 06ad
00000370: 9024 94ad bbf5 19ad b792 c42b b2bf 51ad
00000380: 3c63 35ac c604 7fad 1ecf b3ad 262a 30ad
00000390: af52 38ae 79d8 8bad 166a faac d82d f0ad
000003a0: 0799 1bad e228 85ad cba3 a0ad 0301 87ac
000003b0: e533 85ac 2639 5aad 1527 9cac c89b faac
000003c0: 86ee 89ad 0794 6ead 9657 90ad 6e00 0eac
000003d0: f2bc 47ad c848 81ad edbe 1cad 7168 82ad
000003e0: d94a 3aad 69a1 0cad 4705 a4ac f70a 9aac
000003f0: 9bd4 90ad 56b5 43ad 32c8 13ae 5147 89ad
0.24400224 0.45271266 0.55004716 0.52600074 0.36415398 0.48936504 -4.1745682e-12 2.8314074e-12
0.56005716 2.432696 0.39414644 0.50749797 0.50672495 0.52629894 -1.6187183 0.6059029
1.5837541e-12 7.0383406 0.6067038 0.5177639 0.42526656 0.52577245 0.52629656 1.8103416
-9.633824 0.5083031 0.5025942 0.52638924 0.52441674 0.5303431 -8.4574665e-13 0.5052955
13.457048 0.4711212 0.64302343 2.7789862 -2.5711854 0.34076443 0.4846376 2.5698044
0.5146386 0.52578944 -1.361404 -2.1102367e-12 4.3979273 0.24291436 2.4641088e-12 0.52940387
0.59087825 0.23671591 0.5179636 5.7812635e-12 0.49478817 0.5212748 0.49712178 0.50664127
0.5151961 0.42049876 2.6717525 -1.9387393e-12 0.25851166 0.45916787 -1.2633262 0.4116938
-2.8769274e-12 -7.456212e-12 -1.3742145e-12 -3.3462634e-13 1.2666079e-12 -2.4955112e-12 2.663781e-13 5.285315e-12
-1.9712094e-12 2.5886272e-12 3.3765547e-12 2.7739783e-12 6.0931257e-13 1.3978708e-12 3.2261355e-12 -2.5313657e-12
4.4291875e-12 -3.715277e-12 -3.6248097e-12 8.7425954e-13 -5.357693e-12 -4.359616e-12 -1.7454382e-12 -1.6423334e-12
1.1856923e-13 -2.5710237e-12 -1.7914496e-13 3.543039e-12 -3.971805e-12 9.982527e-13 1.3520997e-12 1.9929082e-12
3.0577416e-12 -2.531806e-12 -2.882108e-12 -3.6988147e-12 -3.3354012e-12 -4.4444192e-12 -3.1589091e-12 1.9082888e-12
-3.2401124e-13 -4.6495013e-12 1.4607865e-12 3.7004782e-14 -6.2688147e-13 7.353137e-13 -3.330109e-12 -2.6554039e-12
2.0736399e-12 1.5284739e-12 1.3214335e-12 -1.4830781e-12 -1.4665221e-12 1.5900203e-12 -1.3148558e-12 8.924861e-13
5.5558965e-13 4.5595293e-13 1.1691893e-12 -3.9799054e-12 -6.8456933e-12 -7.5450245e-12 2.5740911e-12 -5.2823956e-12
-5.1933575e-12 -7.8406286e-13 -3.424834e-12 8.191577e-13 -2.60888e-12 2.9144259e-12 -5.234646e-12 -5.440433e-12
3.8580133e-12 -5.154733e-12 7.621637e-13 1.9181808e-13 -4.448739e-14 -4.150099e-12 1.8504018e-12 -4.5919666e-12
4.6571943e-12 -9.331681e-13 3.8384526e-12 3.0508276e-12 -6.5689865e-14 8.5382927e-13 2.248467e-12 -7.1388425e-12
4.0126565e-12 -2.7309329e-12 4.1487256e-12 -1.9863403e-12 1.5437624e-12 2.2981354e-12 1.0489236e-12 -1.1140142e-12
2.2796012e-12 -6.990375e-12 -1.2233568e-12 -4.5610785e-12 -4.3953734e-12 -1.3362686e-12 9.552194e-13 -1.38154115e-11
3.7791124e-12 2.4248422e-12 4.949839e-12 -2.6289075e-12 -7.391004e-12 2.6663626e-12 5.0030813e-12 -4.6536833e-12
-5.2220663e-12 -2.1664226e-12 3.91556e-12 -1.1201224e-12 -5.986811e-12 -2.547322e-12 -4.086253e-12 3.9888657e-12
-4.478099e-12 3.694242e-12 5.8887975e-13 -6.765533e-13 -1.6443954e-12 2.449757e-12 6.044428e-12 -3.2372317e-12
-5.8433193e-12 -1.461837e-11 -1.673713e-11 -7.790044e-12 -1.6352574e-11 -1.1173322e-11 1.5312393e-13 -3.0836427e-12
-1.3001381e-11 3.127904e-12 -1.2395641e-11 -1.3045244e-11 -8.704374e-12 -1.419509e-11 -2.7353076e-11 -2.1715239e-11
-4.535073e-12 7.9231397e-13 -1.40992044e-11 -1.644827e-11 -1.4014105e-11 -9.93929e-12 -9.39649e-12 2.415534e-12
3.875036e-12 -1.4745238e-11 -1.0975445e-11 -7.638288e-12 -1.6841889e-11 -8.751606e-12 1.3967359e-12 -1.19228395e-11
-2.5776733e-12 -1.4496132e-11 -2.0441922e-11 -1.00138006e-11 -4.1910194e-11 -1.5898604e-11 -7.1172053e-12 -2.73052e-11
-8.844709e-12 -1.5138505e-11 -1.8262633e-11 -3.837043e-12 -3.785849e-12 -1.2404555e-11 -4.4381256e-12 -7.1227226e-12
-1.5681022e-11 -1.3561602e-11 -1.64098e-11 -2.0179652e-12 -1.1353795e-11 -1.4697923e-11 -8.909967e-12 -1.482567e-11
-1.0589495e-11 -7.993919e-12 -4.6617462e-12 -4.3781606e-12 -1.646532e-11 -1.1124731e-11 -3.360174e-11 -1.5606768e-11

bias f4 [32]
00000000: 210f 0c3f 1a74 732b 29b7 55ac b461 5bad
00000010: 220f 0c3f 200f 0c3f 85ab 61ac e1a3 b1ac
00000020: f8c1 28ac 1e0f 0c3f 1f0f 0c3f 210f 0c3f
00000030: 05ab d5ac af57 1e2c 1f0f 0c3f c491 e8ad
00000040: 386b 8e2c fe3c 852c afd2 1f2c cd41 a6ab
00000050: a99b 51ac 4243 42ad a047 9a2b 240f 0c3f
00000060: 4b93 732b c9d2 ce3d 200f 0c3f 1e0f 0c3f
00000070: 210f 0c3f 210f 0c3f d87d 102b 210f 0c3f
0.54710585 8.6492066e-13 -3.0370795e-12 -1.2470403e-11 0.5471059 0.5471058 -3.2069636e-12 -5.0488368e-12
-2.398191e-12 0.54710567 0.5471057 0.54710585 -6.072811e-12 2.2501825e-12 0.5471057 -2.644008e-11
4.0477864e-12 3.786859e-12 2.2712212e-12 -1.1813273e-12 -2.9787095e-12 -1.10425575e-11 1.0962238e-12 0.547106
8.653535e-13 0.10098798 0.5471058 0.54710567 0.54710585 0.54710585 5.133372e-13 0.54710585

weight f4 [2, 32]
00000000: 4566 ab40 85de 68ac 006a 10ad c3a1 c9ac
00000010: 4466 ab40 4466 ab40 44af 2c2d e37d e6ab
00000020: 0be3 27ac 4466 ab40 4566 ab40 4566 ab40
00000030: cfb8 2aab 14ac cfac 4566 ab40 43c4 00af
00000040: 2235 04ac 0a52 d4ac 8725 be2c 7211 d22c
00000050: 30a9 d62c 07a5 252c f682 fd2b 4466 ab40
00000060: 90bf d5ac c479 4041 4466 ab40 4466 ab40
00000070: 4566 ab40 4566 ab40 2c07 1aac 4566 ab40
00000080: 4566 ab40 d387 1bac c22e 1aad 3d22 932b
00000090: 4466 ab40 4466 ab40 2e6b bb2c 9607 a4ac
000000a0: ec2a 1b2c 4466 ab40 4566 ab40 4566 ab40
000000b0: 95f4 3e2c 5679 8bac 4566 ab40 0689 01af
000000c0: 7ec2 33ab a2f5 6eac 91d6 dcac 01f5 deac
000000d0: 77c7 db2b b839 ae2a f330 2bad 4466 ab40
000000e0: f7f1 112c c479 4041 4466 ab40 4466 ab40
000000f0: 4566 ab40 4566 ab40 88d1 6e2b 4566 ab40
5.356234 -3.3092706e-12 -8.208989e-12 -5.7307228e-12 5.3562336 5.3562336 9.815985e-12 -1.6377424e-12
-2.3858162e-12 5.3562336 5.356234 5.356234 -6.0652606e-13 -5.9023984e-12 5.356234 -1.1711258e-10
-1.8787823e-12 -6.0345106e-12 5.404291e-12 5.970496e-12 6.1010294e-12 2.3539519e-12 1.801308e-12 5.3562336
-6.075092e-12 12.029728 5.3562336 5.3562336 5.356234 5.356234 -2.1888697e-12 5.356234
5.356234 -2.2102222e-12 -8.764269e-12 1.0454481e-12 5.3562336 5.3562336 5.326759e-12 -4.6620026e-12
2.2050651e-12 5.3562336 5.356234 5.356234 2.7136394e-12 -3.9640886e-12 5.356234 -1.1781162e-10
-6.3863487e-13 -3.3958188e-12 -6.2765977e-12 -6.3368204e-12 1.5616249e-12 3.094866e-13 -9.7310935e-12 5.3562336
2.0740057e-12 12.029728 5.3562336 5.3562336 5.356234 5.356234 8.484537e-13 5.356234

bias f4 [2]
00000000: ca5c 0c3f ca5c 0c3f
0.54829085 0.54829085
