ElegantRL/EntornoObservacionesAccionesMejorado/200ksteps_TD3_0/act.pth (torch, 26069 bytes, 7 tensors)

state_avg f4 [48]
00000000: 0000 0000 0000 0000 0000 0000 0000 0000
00000010: 0000 0000 0000 0000 0000 0000 0000 0000
00000020: 0000 0000 0000 0000 0000 0000 0000 0000
00000030: 0000 0000 0000 0000 0000 0000 0000 0000
00000040: 0000 0000 0000 0000 0000 0000 0000 0000
00000050: 0000 0000 0000 0000 0000 0000 0000 0000
00000060: 0000 0000 0000 0000 0000 0000 0000 0000
00000070: 0000 0000 0000 0000 0000 0000 0000 0000
00000080: 0000 0000 0000 0000 0000 0000 0000 0000
00000090: 0000 0000 0000 0000 0000 0000 0000 0000
000000a0: 0000 0000 0000 0000 0000 0000 0000 0000
000000b0: 0000 0000 0000 0000 0000 0000 0000 0000
0.0 0.0 0.0 0.0 0.0 0.0 0.0 0.0
0.0 0.0 0.0 0.0 0.0 0.0 0.0 0.0
0.0 0.0 0.0 0.0 0.0 0.0 0.0 0.0
0.0 0.0 0.0 0.0 0.0 0.0 0.0 0.0
0.0 0.0 0.0 0.0 0.0 0.0 0.0 0.0
0.0 0.0 0.0 0.0 0.0 0.0 0.0 0.0

state_std f4 [48]
00000000: 0000 803f 0000 803f 0000 803f 0000 803f
00000010: 0000 803f 0000 803f 0000 803f 0000 803f
00000020: 0000 803f 0000 803f 0000 803f 0000 803f
00000030: 0000 803f 0000 803f 0000 803f 0000 803f
00000040: 0000 803f 0000 803f 0000 803f 0000 803f
00000050: 0000 803f 0000 803f 0000 803f 0000 803f
00000060: 0000 803f 0000 803f 0000 803f 0000 803f
00000070: 0000 803f 0000 803f 0000 803f 0000 803f
00000080: 0000 803f 0000 803f 0000 803f 0000 803f
00000090: 0000 803f 0000 803f 0000 803f 0000 803f
000000a0: 0000 803f 0000 803f 0000 803f 0000 803f
000000b0: 0000 803f 0000 803f 0000 803f 0000 803f
1.0 1.0 1.0 1.0 1.0 1.0 1.0 1.0
1.0 1.0 1.0 1.0 1.0 1.0 1.0 1.0
1.0 1.0 1.0 1.0 1.0 1.0 1.0 1.0
1.0 1.0 1.0 1.0 1.0 1.0 1.0 1.0
1.0 1.0 1.0 1.0 1.0 1.0 1.0 1.0
1.0 1.0 1.0 1.0 1.0 1.0 1.0 1.0

weight f4 [64, 48]
00000000: 56d4 abb9 135d c03c c194 13bd 9bf6 03bd
00000010: 2121 8abc 1f51 403c de5f 63ba a32a 0e3d
00000020: 0299 7ebb a4ce 3d3c 4cc0 58bc 74f7 0cbc
00000030: b04d 2bbd 8380 edbc cbd4 93bc 2a8a d43a
00000040: 66c4 8d3c 6f30 d73c 4a1c f3bc 6c24 9cbc
00000050: a63c 823c 74e4 143d db9b 13bc f22c 063d
00000060: fe36 e7bb e7c5 973b f659 223d cd52 26bd
00000070: b8c5 e1bc 0e91 35bc 77c7 8bbc 00ea 1a3d
00000080: 3474 e8bc b018 a5bc a48d fabc 5aed 27bd
00000090: 8458 d1bc 1a22 1a3d 2005 a03c 15cf ad3c
000000a0: 8fdd 163b 06df b7bc a4ae f23b cd68 27bd
000000b0: 6b8e 01bd 84e1 b8bc 3247 e23c 0344 d23c
000000c0: d54e f43b 8418 b4bc ed43 763d 8efe a53d
000000d0: f3d3 883d 5b8c 4f3d f90e b13d bbca 06bb
000000e0: efc6 0e3d e9af 5ebd e39b ea3a db75 733c
000000f0: 8e33 8d3d c51b 7f3d 39a5 013d b4b4 163d
00000100: 208f 4e3d af73 d4bc c16f 0a3d 8a61 603d
00000110: 4166 9b3d 8a0c b33d bb2d c53c 4ec0 e73b
00000120: 1676 323d 2c02 823c 76cf 8f3d 68b5 b83d
00000130: 88de 693d 8950 2c3c 8171 633d 92c2 98bb
00000140: 3d1d 61bc a774 973c 25f9 853d 6545 123c
00000150: 47bd 683d 6c80 2b3d b4c2 333d 3d75 4b3b
00000160: d8ae 333d 84af 3dbd aa58 453d 22f5 923d
00000170: ae51 a43d 9456 853d 0ea2 5f3b 8676 abbb
00000180: b4ef a13d c94a 25bb 5e3f 573a 5889 0a3d
00000190: 39de f63d 3991 cf3d d6b7 883d 85dc fc3c
000001a0: 02a0 783c 5940 4cbc 9856 033b b5f3 cd3c
000001b0: f28b 9c3d b86d a03d 4602 8c3d fa80 8a3d
000001c0: b486 f43c 4286 e53c ce10 853d 5015 0e3d
000001d0: 00ea 893d 479c 993d b3e7 be3d 9d45 523d
000001e0: 3ad9 963d b86f 14bc 5af2 5e3c a047 d33d
000001f0: 611c 123d 52e2 543d 778e 883d 9959 9b3c
00000200: 7835 2d3d 88d0 42bd d931 d23c c571 bf3d
00000210: 2dfc 4a3d a517 9d3d 68fd de3d ca3e 153d
00000220: 5fbd 703d 9f52 7dbc 197e 333d 1e0d dc3d
00000230: 2bd1 f53d 9d33 d93d a05b e63d 4f61 1b3d
00000240: 9c0e 21bd 7e05 aabc db2f f43c 5ec7 94b9
00000250: 2041 b2bc 8667 09bd 91cc 27bd df51 17bd
00000260: 0077 11bc 95aa c43c 71e2 c13c 5aed 2cbd
00000270: 55b1 df3c 924b 0cbd 859d 17bc e264 91bc
00000280: 3428 0abc 85cd 0cbc c7e2 20bd 71d0 1abd
00000290: e876 e0bb 9a67 143a 18e9 a2bc b015 873c
000002a0: a75d 21bd 839d 41bb c9b2 1d3d 0442 92bc
000002b0: c7e6 213d d9dc 813c 87cd 21bd ade8 e23c
000002c0: 5d88 a5bb 2116 a0bc 2d62 0f3d 65e4 10bd
000002d0: 7fed 993b 7828 16bc 7c0c 003d 0237 483c
000002e0: 2b50 ac3c 634a 7d3c f978 2cbc afd2 16bc
000002f0: 21c4 13bd 0652 c23c c25c 0e3d e464 f53c
00000300: 9dfa 04bd b618 bb39 5083 02bd d2d3 d2bc
00000310: 0b5b debc 4b1d 5a3c eb60 e1bc f1c7 2abb
00000320: 717c 8539 c017 da3c b5ab 0bbd 6ccc 01bd
00000330: 74a4 ddbc ce71 ed3c 89dc 8cbc 2a7a 103d
00000340: d55e 693c 3c5b 813b 8513 afba 85a4 28bc
00000350: 06b0 7c3b b9bb 3ebc 980d e2ba 61ec 803b
00000360: 9abf 12bd 1f0a c9bc 7ba2 0c3d 5d3d 18bd
00000370: cca7 9cbb 469c 2a3d 2068 6a3c 924f dab9
00000380: 4be6 21bd 839a a43c f5da 03bd b4ce 66bc
00000390: 50c1 85bc e3eb 05bc cce1 73ba 9509 0d3d
000003a0: eac8 7d3b 2412 1a3d fc17 d33c 3e51 f0bc
000003b0: b264 933c 63ab 05bd ddee a2bc b3a6 373c
000003c0: 3167 d23c 77a9 0f3b 1a09 113c f250 cd3c
000003d0: 0c91 7c3d b439 30bc b733 a83d ab9c 19bd
000003e0: 56f4 3d3c 90fb 1bbd bc0a e8b8 63ac fa3c
000003f0: 4e59 993d ba5d 973c 4b37 c93c bbf7 90bc
-0.00032773864 0.023481881 -0.036030535 -0.032217603 -0.0168615 0.011738091 -0.0008673648 0.03470863
-0.0038848524 0.0115849115 -0.013229441 -0.008603919 -0.041822135 -0.028991943 -0.018045804 0.0016215493
0.017305564 0.026268212 -0.029676575 -0.019060336 0.01589806 0.036350682 -0.009009327 0.032757707
-0.007056116 0.004631746 0.039636575 -0.04060631 -0.0275601 -0.011081947 -0.017062886 0.037820816
-0.028375722 -0.020153373 -0.030585118 -0.04099784 -0.025554903 0.037630178 0.019533694 0.021216908
0.0023020243 -0.022445213 0.0074060727 -0.04087143 -0.03162996 -0.022568472 0.02762184 0.025667196
0.0074556866 -0.021984346 0.060123373 0.08105193 0.06681051 0.050670963 0.08645434 -0.0020567614
0.034857687 -0.05436698 0.0017899241 0.014859642 0.06894599 0.062282342 0.03165171 0.036793426
0.050429463 -0.025934068 0.033797983 0.05478052 0.07587863 0.08742626 0.024069658 0.007072485
0.043569647 0.015870176 0.07021992 0.090189755 0.057096988 0.010517248 0.055528168 -0.0046618665
-0.013739881 0.018488241 0.06541661 0.008927678 0.056821134 0.04187052 0.043886855 0.0031045221
0.043867916 -0.046309963 0.04818026 0.071756616 0.08023392 0.06510654 0.0034123692 -0.005232635
0.07907048 -0.0025221577 0.00082110416 0.033822387 0.12054104 0.10135121 0.06675689 0.03086687
0.015174868 -0.012466514 0.0020040628 0.025140623 0.0764388 0.07833427 0.06836371 0.067628816
0.029849388 0.02801812 0.06497346 0.034688294 0.06734085 0.07500511 0.09321537 0.05133592
0.073656514 -0.009059839 0.013607586 0.10316396 0.035671595 0.05197365 0.06667798 0.018963622
0.04228732 -0.047562152 0.025658535 0.09347872 0.0495569 0.076705255 0.10888177 0.036436833
0.05877435 -0.015461593 0.043821428 0.107446894 0.12002786 0.106055476 0.11247945 0.037934598
-0.039320573 -0.020754572 0.029807976 -0.000283773 -0.02175957 -0.033545993 -0.040966574 -0.036943313
-0.0088784695 0.024007121 0.023667546 -0.042218544 0.027306238 -0.034251757 -0.009253864 -0.0177483
-0.008432437 -0.008593922 -0.03927877 -0.03779644 -0.006850112 0.000566119 -0.019886538 0.016489834
-0.039395954 -0.0029543347 0.03850058 -0.017853744 0.039526727 0.015852379 -0.039502647 0.02769884
-0.005051656 -0.019541802 0.035005737 -0.035374064 0.004697501 -0.009164922 0.031261906 0.012220146
0.02103432 0.01545963 -0.010526889 -0.009205504 -0.036075715 0.023720752 0.03475643 0.029955335
-0.032465566 0.0003568583 -0.03186351 -0.02573577 -0.027143022 0.013312648 -0.027512034 -0.0026059116
0.00025460453 0.026622653 -0.0340993 -0.031689093 -0.027055956 0.02898493 -0.017195003 0.035272755
0.014243801 0.0039476436 -0.0013357258 -0.010293131 0.0038557067 -0.011641436 -0.0017246483 0.0039344286
-0.035827257 -0.024540959 0.03433464 -0.037167896 -0.004780745 0.04165294 0.014307052 -0.00041639485
-0.039526265 0.020093208 -0.032191236 -0.014087368 -0.01632753 -0.008173916 -0.0009303361 0.034432966
0.003872449 0.037614956 0.025768273 -0.029335614 0.017992351 -0.03263415 -0.01988929 0.011209178
0.025683971 0.0021921077 0.008852268 0.025063012 0.061661765 -0.010755945 0.08212989 -0.037502926
0.011593899 -0.038081706 -0.000110646215 0.030599779 0.07487737 0.01847731 0.024562499 -0.017696252

bias f4 [64]
00000000: 0164 273d ba42 c73d 23bd 833d b891 8cbc
00000010: 6d0f b13c 3385 fb3c 1b3c 863d 56dd 3b3d
00000020: de03 8e3d 93a5 903c 0e27 c03b ff29 d63c
00000030: 0f10 59bc 1617 dc3d cc73 233c 1e1e 873d
00000040: ef8e 02bd a5dc be3d 66a7 683d 6577 a73d
00000050: 1f2c d23c 03d9 15bc 66cc 4fbc 087e 5f3a
00000060: 759e a03d 809e 3a3c 406e 4c3c a5e5 e33c
00000070: c0ab 123d ba20 8abc 26d0 9f3d 7153 0cbb
00000080: 6dd4 0a3e cc0b 703d 2028 0bbd 7081 b43c
00000090: 3267 b33c b1e1 d23d 3383 1bbd 67ba ca3d
000000a0: a796 5e3d 88f3 8e3d 2b4b 9c3d 2378 533d
000000b0: dd55 b0bb 25f8 1abc fb19 be3d 5835 64bc
000000c0: 1ba4 073e 8462 f63c ce5a 473d 4565 0fbd
000000d0: 5a17 043e 5b83 463d 45e4 f73c b328 c0bc
000000e0: 4f92 303d 4d40 a93d 68f5 41bd e23e b63b
000000f0: cc19 523b 0931 32bd 486d 563d ea27 c53d
0.040866856 0.09729524 0.06432559 -0.017159328 0.0216138 0.030703163 0.06554433 0.04586538
0.06934331 0.017657077 0.0058640307 0.026143072 -0.013248458 0.10746591 0.009976339 0.06597541
-0.031874593 0.09319428 0.05680027 0.081770696 0.025655804 -0.009145978 -0.01268301 0.0008525555
0.07842723 0.011390328 0.0124774575 0.027819464 0.035808325 -0.016861308 0.07803373 -0.002141204
0.13557597 0.058605 -0.033973813 0.022034377 0.021899793 0.102969535 -0.03796692 0.09898835
0.054342892 0.06980044 0.07631525 0.051628243 -0.0053813295 -0.009458576 0.09282299 -0.013928734
0.13246195 0.030076273 0.048670582 -0.035008688 0.12899533 0.048465114 0.030260215 -0.023456907
0.04310828 0.082642175 -0.04735318 0.0055616954 0.0032058833 -0.043503795 0.052350312 0.09626754

weight f4 [32, 64]
00000000: afc0 323c 82a6 e8b9 2547 e1bb 8813 253c
00000010: 87ac 89bc f160 4b3d 455e 0a3d 6a2a fd3b
00000020: becf 6fbc a722 1ebd 4fbd 71bc dac0 203d
00000030: 9562 fdbc 3e45 34bd 6057 4e3a 8dc2 2d3c
00000040: db5d 11bd c81a 11bd 36a7 9639 fac1 dfbb
00000050: 973a f13c b5f9 9f3c 7eff e8bc 9093 08bd
00000060: 0af7 0a3d 3d4d dcbb 125d 76bc 8d24 443c
00000070: c8f4 2ebc e232 ac3c 0339 353c d3f1 55bc
00000080: 540e fabc af84 943c e48d 9abc 2fe9 103b
00000090: 5433 013c 290f c1bc 63ce eb3c 795e b1bc
000000a0: e2a6 1f3c 5fe2 d93a be7a 4b3c a487 4dbd
000000b0: 9985 0f3b 473d 9c3c 36e2 a4bc 45c0 343c
000000c0: 93c7 06bc 5356 043d ad44 adbc e319 933b
000000d0: ed64 a1bc 465d a3bb d4a3 773c 11cf f2bc
000000e0: c920 e53c c0d2 023d bec0 ab3c 3f7d 003d
000000f0: 6297 13bc 6a53 3a3c 0e90 263b f908 c6bc
00000100: 02ce 6ebc 1ff8 7cbc 2474 0dbc 51e3 09bd
00000110: 63c1 debc 6446 e33b b663 05bc c483 45bd
00000120: 802a ba3b 6b90 8a3c 6250 253d 0cf6 073d
00000130: 7d67 b7bc be99 99bc c59a 92bc 98f8 993b
00000140: 6caa 353c 3af8 e53b 6020 a13c ca12 de3c
00000150: de40 95bc 6280 113d de1a 043d f593 a93b
00000160: dff2 c2bc ff7c bebc c45b 123c 4a96 433c
00000170: cf7d f23c e279 b23c 6f52 5b3c d435 90ba
00000180: ad2c cf3c 591b 8ebc b19e 903c 262e 5ebc
00000190: 066e 83ba 773f a13c 6b7c d43c 05cb 84bb
000001a0: 54cb 13bb 6350 cbbc 2e4b 783c 35b1 633c
000001b0: a5d2 553c 2117 15bd a91f d9bc ebe6 d13c
000001c0: 17f8 86bc 5152 c53c b661 373c e981 04bc
000001d0: a045 dbbc 65ad f5bc 1ed2 a93c c21a b83c
000001e0: a84b ffbb d80b fdbc 09fe 9cbc a041 893a
000001f0: bf8c 863c 2423 2dbc 6105 dabc 7e74 d4bc
00000200: 2df0 0a3d 1778 2a3c 4a01 0fbd 31c9 bfbc
00000210: e4aa febc 00e7 963c e840 98bc 8b96 67bc
00000220: 5559 1ebc 52da 10bd d2ed e3bc 644f fbbc
00000230: fc10 47bc 8fdb bdbb ee57 90bc 0a01 8ebb
00000240: 65f1 84bb 7b49 033d 3c0d acbc 4439 1c3d
00000250: f9d5 e1bc 4b39 c1bc 2bae 623c 69b8 c4bc
00000260: 7ca9 bd3c 72d1 abbc fd72 e33c 5e96 113d
00000270: 0a71 fbba 11b1 073c 8dcb 0f3d f199 ae3c
00000280: c1f0 31bd 5b00 cabb fd00 0fbd 50d3 0b3d
00000290: 6fdb 16bc 3ff9 aebb 297e 86bc 381f a1bc
000002a0: a1b4 423b e6e4 de3c 6cda babc a1d9 79bc
000002b0: 298c 0c3d 15f3 0d3d 48d5 04bc 2116 173d
000002c0: ff47 643a eec7 f33c 92e5 7bbc 1f64 04bd
000002d0: 84b8 6dbc 3071 363c 5eb3 aa3c eff0 08bd
000002e0: 3b90 e33c f673 0ebd af5c c43c 365b 143d
000002f0: adb9 023c 21c6 09bc 5c85 963c e9f7 28bc
00000300: d10c e6bc 6e50 f3bc 52f5 953c 1530 ed3c
00000310: d538 c93a 079d b8bc 4b82 1cbd d880 babc
00000320: d038 8b3c da1c d6bc 56a0 903c 8514 b0bc
00000330: 51cf 0b3d e91c 9fbc c695 c7bb 860c 1bbd
00000340: 3a54 07bd c952 393a d7b6 773b 176d d23c
00000350: 5f5c 09bd 89b5 613c ecf6 fa38 d9ed a53c
00000360: 4314 24bc 700e 393c 723b 773c 38ae 9b3c
00000370: dbd3 79bc b8d2 513c 538d 08bc 3bcd 3e3c
00000380: 6df6 bebc 8f93 06bd 8291 e6bc 59c2 95bc
00000390: 779b 74bc 23eb ed3a 5c73 75b9 7721 93bc
000003a0: 66c2 e5ba 94d7 73bc 9065 af3c faf4 3ebd
000003b0: 5044 65bc 4a46 c7bc c6fb eb3b df60 6a3b
000003c0: ae4d 2abc 2902 1f3d 9e89 fdbc 59df c4bb
000003d0: 1941 c53b de23 133d de56 0b3d 551f e93b
000003e0: dd46 65bc dcbf 8a3c 9f58 e63c 69c4 14bb
000003f0: 1064 b33c d879 f03c e577 b7bc 1d06 e6bb
0.010910197 -0.00044374546 -0.006874936 0.010075457 -0.0168059 0.049652997 0.03378131 0.0077260034
-0.014636932 -0.038607266 -0.014754607 0.039246418 -0.030930797 -0.044011347 0.0007871296 0.010605467
-0.0354899 -0.03542593 0.0002873481 -0.0068285437 0.029446883 0.01952825 -0.02844214 -0.03334385
0.033927 -0.0067230747 -0.015036838 0.011971605 -0.010678478 0.021020357 0.011060956 -0.013058144
-0.03052441 0.018129675 -0.018866487 0.0022111645 0.007885773 -0.0235668 0.028784936 -0.021651493
0.009744378 0.001662325 0.012419401 -0.050178185 0.0021899699 0.019072188 -0.020127397 0.011032169
-0.008226293 0.032308888 -0.021150911 0.00448917 -0.019701445 -0.0049854843 0.015114743 -0.029639753
0.027969735 0.031939268 0.02096593 0.031369444 -0.00900826 0.0113724265 0.0025415453 -0.0241742
-0.014575483 -0.015440016 -0.008633647 -0.03366405 -0.027191823 0.0069358815 -0.008141449 -0.048221365
0.005681336 0.016914567 0.040359862 0.033193633 -0.022388214 -0.018750068 -0.017896065 0.004698824
0.011087995 0.0070181163 0.019668758 0.027108569 -0.018219408 0.035522826 0.032252185 0.0051751086
-0.02379745 -0.023252962 0.008933011 0.011937687 0.029601006 0.021786634 0.013386353 -0.001100237
0.025289858 -0.017347025 0.017653795 -0.013560807 -0.0010027296 0.019683583 0.025938233 -0.004052522
-0.0022551613 -0.024818605 0.015154643 0.01389723 0.01305071 -0.03639901 -0.026504355 0.025622806
-0.01647572 0.024087103 0.01119273 -0.008087614 -0.026766598 -0.029989908 0.020730074 0.022473697
-0.0077910013 -0.030889437 -0.019164102 0.0010471828 0.016424535 -0.01056746 -0.026613893 -0.025934454
0.033920456 0.010404608 -0.03491334 -0.023411365 -0.031087346 0.018420696 -0.018585637 -0.014135013
-0.009664853 -0.035364456 -0.027823362 -0.030677505 -0.0121500455 -0.0057939957 -0.017620053 -0.00433362
-0.004057097 0.0320525 -0.021002404 0.03814055 -0.02756785 -0.02358689 0.01383547 -0.024013715
0.023152106 -0.020973895 0.027764792 0.035543792 -0.0019183469 0.008281962 0.03510623 0.02131364
-0.04344249 -0.006164593 -0.034913052 0.03413707 -0.0092075905 -0.005339771 -0.01641758 -0.019668207
0.0029709714 0.027208757 -0.02280923 -0.015249641 0.034313355 0.03465565 -0.008107491 0.03688634
0.0008708238 0.02975842 -0.015374558 -0.032322045 -0.014509324 0.011135384 0.020837482 -0.033432897
0.027778735 -0.034778558 0.023969976 0.036219798 0.007978839 -0.008409054 0.018374138 -0.010313013
-0.028082283 -0.029701438 0.018305454 0.028953591 0.001535202 -0.022535814 -0.038210195 -0.022766516
0.016994864 -0.026136804 0.01765458 -0.02149416 0.03413326 -0.019422965 -0.0060908524 -0.03785374
-0.03303931 0.0007069526 0.003779819 0.025686784 -0.033535358 0.0137761915 0.00011966922 0.020255016
-0.010014596 0.011294946 0.015089856 0.019003972 -0.015248264 0.012806587 -0.008334476 0.01164561
-0.023310864 -0.032855567 -0.028145555 -0.018281149 -0.014929644 0.0018151741 -0.00023407995 -0.017960293
-0.0017529249 -0.014882941 0.021410733 -0.046620347 -0.013993338 -0.024325509 0.0072016446 0.0035763306
-0.010394497 0.03882042 -0.03094941 -0.0060080704 0.006019723 0.035922877 0.03401839 0.007114331
-0.013993946 0.016937189 0.02811843 -0.0022700077 0.0218983 0.029354975 -0.022396037 -0.0070197717

bias f4 [32]
00000000: 2641 a93c 19cc aabc 8771 863c c9ec 10bb
00000010: 79ec d53d 2817 0f3d 65ef eabc 9697 053d
00000020: c305 043e 896f 1bbd bb8f 1c3c da97 b7bc
00000030: b17c b73d 5c2e 0f3c 73ef 13bd 33e4 343c
00000040: 9134 51bc be19 073d 84f0 fa3c 9871 563c
00000050: 86d3 af3c c02a 063c 64e1 d53d 9479 a9bb
00000060: 4d5b a23d 3dd3 cf3c ed8c b8bb f75d 3bbc
00000070: c1ad a2bc f3fb 883c f759 943d 53e0 343d
0.020660948 -0.020849274 0.016411556 -0.0022113791 0.10445494 0.034934193 -0.028678605 0.032615267
0.12892823 -0.037948165 0.009555752 -0.022411276 0.0895933 0.00873908 -0.03611703 0.011040735
-0.01276888 0.032983534 0.030632265 0.013088606 0.021463167 0.008188903 0.104433805 -0.005171964
0.079275705 0.025369281 -0.005632034 -0.011435977 -0.019858243 0.016721701 0.07243722 0.044159245

weight f4 [1, 32]
00000000: 9be5 51bc 1807 deba 8c57 32bb 4574 05bc
00000010: a37b c43e 9bb0 cc3b a0c4 0f3b 2456 6abb
00000020: eb2e e93e f23f 0dbc 268c 88bc f60f ef3d
00000030: 1c86 ba3e ac44 983d 546e 1bbc 9e04 343b
00000040: 1d3b ea3b d319 14bc a1ba 01bb 5c12 093b
00000050: 7d04 81bb 17e2 00bb 66f6 a63e 27f9 faba
00000060: 867e b13e 276d 733e f5a6 2d3a 3a70 5bbb
00000070: 924d 4fbc 00a8 06bc 1534 a83e 7597 c63e
-0.01281109 -0.001693937 -0.0027212827 -0.008145397 0.38375577 0.006246639 0.0021937266 -0.003575691
0.45543608 -0.008621203 -0.01666839 0.11672966 0.36430442 0.07434973 -0.0094867535 0.0027468572
0.00714816 -0.00903936 -0.0019795077 0.0020915484 -0.0039373026 -0.001966601 0.32609862 -0.001914774
0.34666842 0.23772107 0.0006624305 -0.003348364 -0.012652772 -0.008218765 0.32852235 0.38787428
