ElegantRL/EntornoObservacionesAccionesMejorado/200ksteps_TD3_0/cri.pth (torch, 26885 bytes, 8 tensors)

state_avg f4 [48]
0	0x00000000	0.0
1	0x00000000	0.0
2	0x00000000	0.0
3	0x00000000	0.0
4	0x00000000	0.0
5	0x00000000	0.0
6	0x00000000	0.0
7	0x00000000	0.0
8	0x00000000	0.0
9	0x00000000	0.0
10	0x00000000	0.0
11	0x00000000	0.0
12	0x00000000	0.0
13	0x00000000	0.0
14	0x00000000	0.0
15	0x00000000	0.0
16	0x00000000	0.0
17	0x00000000	0.0
18	0x00000000	0.0
19	0x00000000	0.0
20	0x00000000	0.0
21	0x00000000	0.0
22	0x00000000	0.0
23	0x00000000	0.0
24	0x00000000	0.0
25	0x00000000	0.0
26	0x00000000	0.0
27	0x00000000	0.0
28	0x00000000	0.0
29	0x00000000	0.0
30	0x00000000	0.0
31	0x00000000	0.0
32	0x00000000	0.0
33	0x00000000	0.0
34	0x00000000	0.0
35	0x00000000	0.0
36	0x00000000	0.0
37	0x00000000	0.0
38	0x00000000	0.0
39	0x00000000	0.0
40	0x00000000	0.0
41	0x00000000	0.0
42	0x00000000	0.0
43	0x00000000	0.0
44	0x00000000	0.0
45	0x00000000	0.0
46	0x00000000	0.0
47	0x00000000	0.0

state_std f4 [48]
0	0x3f800000	1.0
1	0x3f800000	1.0
2	0x3f800000	1.0
3	0x3f800000	1.0
4	0x3f800000	1.0
5	0x3f800000	1.0
6	0x3f800000	1.0
7	0x3f800000	1.0
8	0x3f800000	1.0
9	0x3f800000	1.0
10	0x3f800000	1.0
11	0x3f800000	1.0
12	0x3f800000	1.0
13	0x3f800000	1.0
14	0x3f800000	1.0
15	0x3f800000	1.0
16	0x3f800000	1.0
17	0x3f800000	1.0
18	0x3f800000	1.0
19	0x3f800000	1.0
20	0x3f800000	1.0
21	0x3f800000	1.0
22	0x3f800000	1.0
23	0x3f800000	1.0
24	0x3f800000	1.0
25	0x3f800000	1.0
26	0x3f800000	1.0
27	0x3f800000	1.0
28	0x3f800000	1.0
29	0x3f800000	1.0
30	0x3f800000	1.0
31	0x3f800000	1.0
32	0x3f800000	1.0
33	0x3f800000	1.0
34	0x3f800000	1.0
35	0x3f800000	1.0
36	0x3f800000	1.0
37	0x3f800000	1.0
38	0x3f800000	1.0
39	0x3f800000	1.0
40	0x3f800000	1.0
41	0x3f800000	1.0
42	0x3f800000	1.0
43	0x3f800000	1.0
44	0x3f800000	1.0
45	0x3f800000	1.0
46	0x3f800000	1.0
47	0x3f800000	1.0

weight f4 [64, 49]
0	0x3dfd388e	0.123643026
1	0xbe15077b	-0.14553635
2	0x3ebe68ac	0.37189233
3	0xbd5eeb4d	-0.05442362
4	0xbdcc1d4c	-0.099665254
5	0x3dd92cf2	0.10604276
6	0xbd0c6b7d	-0.034282196
7	0x3dde1c06	0.10845189
8	0x3ea8b382	0.32949454
9	0xbe017a38	-0.12644279
10	0x3ec235cd	0.37931672
11	0xbd564cf4	-0.052319482
12	0xbcb6c040	-0.022308469
13	0x3dba1d34	0.09087601
14	0xbdc1a7aa	-0.094558075
15	0x3dd49c86	0.10381417
16	0x3e61e264	0.22059017
17	0xbe0e7f57	-0.13915764
18	0x3ec15327	0.37758753
19	0xbd9b14ab	-0.075723015
20	0xbc700a9c	-0.014650967
21	0xbcee1ecd	-0.029067421
22	0x3e23e677	0.16005884
23	0x3ddbeddb	0.10738727
24	0x3e43f5bc	0.19136709
25	0xbe04905b	-0.12945692
26	0x3ebf40fa	0.3735426
27	0x3dbc0ce0	0.09182143
28	0xbcd4b75c	-0.025966339
29	0xbc69f375	-0.014279236
30	0x3d0e0ba1	0.03467906
31	0x3e632ba8	0.22184622
32	0x3ed3fd63	0.41404256
33	0xbe0f7c77	-0.14012323
34	0x3ebe9f84	0.37231076
35	0x3e3fcdca	0.18730846
36	0x3daafe9a	0.08349343
37	0xbd42c048	-0.047546655
38	0x3cdab4cd	0.02669754
39	0x3e982e63	0.2972289
40	0xbe19d322	-0.15021947
41	0xbe04946f	-0.12947248
42	0x3ec4df99	0.3845184
43	0xbf054d91	-0.5207148
44	0xbdcc4766	-0.09974556
45	0x3e91ccf9	0.28476694
46	0x3f17c2fd	0.59281904
47	0x3d95e36e	0.073187694
48	0x3db17e9e	0.086667284
49	0x3dc53c40	0.096306324
50	0xbe07a8f8	-0.1324805
51	0x3ebcff78	0.36913657
52	0xbd8a56ec	-0.0675486
53	0xbdc29533	-0.09501114
54	0x3db30ae4	0.087423116
55	0xbcaa90bd	-0.02082097
56	0x3df41371	0.11917771
57	0x3ea6ffae	0.32616943
58	0xbe0ea618	-0.13930547
59	0x3ebd7266	0.37001342
60	0xbd574482	-0.05255557
61	0xbd025a64	-0.031824484
62	0x3d904b6b	0.07045635
63	0xbdd83627	-0.10557204
64	0x3deeb4b3	0.116555594
65	0x3e63f2e9	0.22260632
66	0xbe0c6e75	-0.13714011
67	0x3ebc236c	0.36745775
68	0xbdbfaa89	-0.09358699
69	0xbcacc35a	-0.021089245
70	0xbc7f96c7	-0.015599913
71	0x3e19267c	0.14956087
72	0x3de85d50	0.11345923
73	0x3e37ea16	0.1796039
74	0xbe122edb	-0.14275686
75	0x3ec28a7a	0.37996274
76	0x3dd42cae	0.103600845
77	0xbcfc4894	-0.030796327
78	0xbb01ec9b	-0.0019824866
79	0x3d20b5e0	0.03923595
80	0x3e678a18	0.22611272
81	0x3ed86618	0.4226539
82	0xbe102126	-0.14075145
83	0x3ec6dda8	0.38840985
84	0x3e44914c	0.19196051
85	0x3d90f9c9	0.07078893
86	0xbd8ff0f7	-0.07028382
87	0x3b9fc61d	0.004875912
88	0x3ea09c3f	0.31369206
89	0xbe1fc3ae	-0.1560199
90	0xbe047e31	-0.12938763
91	0x3ebc7efe	0.36815637
92	0xbf053968	-0.5204072
93	0xbdb930ae	-0.09042488
94	0x3e9877f1	0.29779008
95	0x3f1b589f	0.606821
96	0x3db0fafe	0.08641623
97	0x3dac9d4a	0.08428438
98	0xbc129a1c	-0.008947875
99	0xbc006179	-0.007835739
100	0x3b9239bd	0.0044624493
101	0xbbaae91a	-0.005215776
102	0x385a95b2	5.2114665e-05
103	0x3b097119	0.0020971952
104	0x3c05a9de	0.008158175
105	0x3bf025d9	0.0073287305
106	0x3bf5c719	0.007500541
107	0x3a0bfef7	0.0005340422
108	0x3bf316f3	0.0074185072
109	0xbbc994d0	-0.006151773
110	0xbbac5601	-0.005259276
111	0xbb085817	-0.0020804459
112	0xbbfa0ff9	-0.0076312986
113	0x3c400f5e	0.011722414
114	0xbb03f5ef	-0.0020135602
115	0x3b7a606b	0.0038204442
116	0xb9d638db	-0.0004085962
117	0xb93c72fa	-0.00017971909
118	0xbbe5872b	-0.0070046387
119	0xba7cebc4	-0.0009648169
120	0xbc409927	-0.011755264
121	0xbbcdeca1	-0.006284312
122	0x3c25ac2d	0.010111851
123	0xbc49ee06	-0.012324816
124	0x3b0db758	0.0021624174
125	0x3b093405	0.0020935547
126	0xbc4e132e	-0.012577815
127	0x3b28345c	0.0025665974
128	0x3bc7f5cc	0.0061022993
129	0x3c1becab	0.009516875
130	0x3b212cf9	0.0024593456
131	0x3c284b4e	0.01027186
132	0x3a01a96d	0.0004946206
133	0x3ba412c1	0.0050071185
134	0x3b7e3c60	0.003879331
135	0xbc1ebeca	-0.009689042
136	0xbb3d0a53	-0.0028845265
137	0xbc179a46	-0.00925309
138	0x3c27481f	0.010210066
139	0x3bcd6ce7	0.0062690857
140	0xbbb69d80	-0.0055729747
141	0xbb1d96ef	-0.0024046262
142	0x3b65edd3	0.0035084381
143	0xbc3bb656	-0.0114570465
144	0x39c28a82	0.0003710576
145	0x3bcd6871	0.006268554
146	0x3ad7d4a9	0.0016466576
147	0xbb050207	-0.0020295398
148	0x3c17dfd4	0.009269673
149	0x3ba1c986	0.0049373535
150	0xbc4ccdd7	-0.012500248
151	0x3be288f8	0.0069133006
152	0xbc36b09c	-0.011150505
153	0x3bd71b35	0.0065645226
154	0x3c27dfb1	0.010246203
155	0x39ccbdde	0.00039051374
156	0xbb6d25b2	-0.0036185798
157	0xbbf7f194	-0.00756664
158	0xbbda07c9	-0.00665376
159	0xbb5475f9	-0.003241895
160	0xbbcd1f30	-0.0062598214
161	0x3c485e8c	0.012229573
162	0xbbd4904c	-0.006486928
163	0x3b97e38e	0.004635281
164	0xbc3a2dee	-0.01136349
165	0x3bc0c0bf	0.005882352
166	0x3c29cafb	0.010363336
167	0xbc27c355	-0.010239442
168	0xbb888f1a	-0.0041674497
169	0x3b17ad11	0.0023143927
170	0xbc5b845b	-0.013398255
171	0xbc15aca7	-0.009135402
172	0x3bb0b022	0.0053920904
173	0x3c3df851	0.011594848
174	0xbb9b784a	-0.004744564
175	0xba764d5b	-0.0009395682
176	0xbc5d3b8b	-0.013502966
177	0xbc5c0390	-0.013428584
178	0x3c2dcee7	0.010608411
179	0x3c2944db	0.010331358
180	0xbb50909b	-0.0031824473
181	0xbbc3c471	-0.0059743454
182	0xbadadef0	-0.0016698521
183	0x3bacf1eb	0.0052778623
184	0xbc5d7613	-0.013516921
185	0xbc0497b8	-0.008092813
186	0xbba8cf9d	-0.0051517026
187	0xbbd64f47	-0.0065402123
188	0x39f94dcf	0.00047550953
189	0x3c10483d	0.008806285
190	0x3b065f81	0.0020503702
191	0xbc50483b	-0.012712534
192	0x3c39bb8d	0.0113362195
193	0x3c1ffc33	0.009764719
194	0x3b5976b1	0.0033182318
195	0x3bb7dbf0	0.0056109354
196	0x3b64c8e5	0.0034909782
197	0x3c2bb854	0.010480959
198	0xbc5256d3	-0.012838083
199	0xbc10705e	-0.008815853
200	0xbb17d9b9	-0.0023170544
201	0xbb4cf357	-0.0031272972
202	0xbc22212d	-0.009895605
203	0xbc61cb64	-0.013781402
204	0xbc3ace1c	-0.011401679
205	0xbb18baff	-0.0023304818
206	0x3c337f17	0.010955594
207	0x3c04db2c	0.008108895
208	0x3b4e1325	0.0031444516
209	0xbc0e14aa	-0.008671919
210	0xbbd4eb3d	-0.006497769
211	0x39d61d3e	0.00040839048
212	0xbc5fd4de	-0.013661591
213	0xba691da8	-0.0008892664
214	0x3b220b21	0.0024725872
215	0x3c370313	0.011170167
216	0xbb864779	-0.0040978757
217	0x3c47d8ac	0.012197655
218	0xb9427567	-0.00018545018
219	0xbc1e63a1	-0.009667308
220	0x3c352363	0.0110558
221	0x3c35e615	0.011102219
222	0xbc2d61c3	-0.01058239
223	0xbc061dd1	-0.00818582
224	0x3bb8cfd8	0.0056400113
225	0xbc0e4981	-0.008684517
226	0x3c0964f7	0.008385888
227	0xbbdc7138	-0.006727364
228	0xbbb293ef	-0.005449764
229	0xbb851971	-0.0040618707
230	0x3c4a1f62	0.012336584
231	0xbba4e691	-0.0050323685
232	0xbb516cce	-0.0031955722
233	0x3bf2b034	0.007406259
234	0xbc1cb4e5	-0.009564613
235	0xba1a4872	-0.0005885429
236	0xbc3bc3a8	-0.011460222
237	0xbc4b7360	-0.012417644
238	0xbb51b140	-0.0031996518
239	0x3a6e86c7	0.0009099063
240	0x3c2d35bc	0.010571893
241	0xbc5705dd	-0.0131239565
242	0xbb84b31d	-0.0040496723
243	0x3b488bdd	0.0030600943
244	0x3bace7db	0.0052766628
245	0x3dee7350	0.11643088
246	0xbe18083a	-0.14846888
247	0x3ec0a85f	0.37628457
248	0xbd642350	-0.05569774
249	0xbde56d68	-0.11202508
250	0x3dd247f0	0.10267627
251	0xbd4b13a8	-0.049579293
252	0x3de793e4	0.11307505
253	0x3eab2f0b	0.33434328
254	0xbe110584	-0.1416226
255	0x3ec47d4f	0.38376853

bias f4 [64]
0	0x3ee4730a	0.44619018
1	0x3ed94e7f	0.424427
2	0xbc311b09	-0.010809668
3	0xbc358181	-0.011078239
4	0xb9c88d06	-0.00038252043
5	0x3edcca04	0.43122876
6	0xbc596220	-0.013268024
7	0x3edcd512	0.4313131
8	0x3ee4251a	0.44559556
9	0x3edd9a5d	0.43281832
10	0x3eb3d4e0	0.35123348
11	0x3eda632d	0.4265379
12	0x3ba0bed2	0.00490556
13	0x3ee13ca8	0.4399159
14	0x3edd7657	0.4325435
15	0x3ed8b6df	0.4232702
16	0xbe9fc0b0	-0.31201696
17	0xbbe60185	-0.007019224
18	0x3ed8be5f	0.42332742
19	0x3ee63dd0	0.44969034
20	0xbdb107fa	-0.086440995
21	0xbb959f8f	-0.00456614
22	0x3ee0a1d4	0.43873465
23	0xbe890c41	-0.2676716
24	0x3ed9e82c	0.42559946
25	0x3edeb838	0.43499923
26	0xbb987ae3	-0.004653321
27	0x3ed72958	0.4202373
28	0x3ee57b20	0.448205
29	0xbe7eb2b4	-0.24872857
30	0x3edc9330	0.43081045
31	0x3ee2901b	0.4425057
32	0x3ee4fb44	0.4472295
33	0xbb6371dc	-0.0034705317
34	0x3ee5cb0a	0.4488147
35	0x3ede6775	0.43438306
36	0xbc55f7ac	-0.013059538
37	0x3ed912f0	0.4239726
38	0xbc038c52	-0.00802906
39	0x3ede2efd	0.43395224
40	0x3ee5f5ef	0.44914195
41	0x3f98c2fd	1.1934506
42	0x3edd7728	0.43254972
43	0x3ee4ebe9	0.44711235
44	0x3edd81b1	0.4326301
45	0x3ee1e3c7	0.44119093
46	0x3ede1df6	0.43382233
47	0xbba7cfed	-0.005121222
48	0x3edb01ec	0.42774904
49	0x3ee51bb3	0.44747695
50	0xbbf8cbe2	-0.007592664
51	0x3edf5e1b	0.43626484
52	0x3ee06f1f	0.4383478
53	0x3edec4fb	0.4350966
54	0x3edf692c	0.43634927
55	0x3eded470	0.43521452
56	0x3e86dff5	0.2634274
57	0x3ee2b0ea	0.442756
58	0x3edc7a86	0.43062228
59	0x3ee1dea6	0.4411518
60	0x3bddcd57	0.006768863
61	0x3ec1bea3	0.37840757
62	0x3edc1802	0.42987067
63	0x3eda88e3	0.4268256

weight f4 [32, 64]
0	0x3ebfb83e	0.37445253
1	0x3ec69e19	0.38792494
2	0x3aa268d1	0.0012390857
3	0x3c2aae0c	0.010417473
4	0x3c0a80f8	0.0084536
5	0x3ebd7280	0.3700142
6	0x3c120016	0.008911153
7	0x3ec1abc6	0.37826365
8	0x3ee020c1	0.4377499
9	0x3ec55d8f	0.38547942
10	0x3f194ea7	0.5988564
11	0x3ec38bd3	0.38192615
12	0xbc1ad269	-0.00944958
13	0x3ecbf9b2	0.3983894
14	0x3ed6f210	0.41981554
15	0x3ec87c33	0.39157256
16	0xbfb4446e	-1.4083383
17	0xbc0b4b78	-0.00850188
18	0x3ecdb0d6	0.40173978
19	0x3ed700ba	0.41992742
20	0xbfd5d2bd	-1.6704937
21	0xbc69e5a4	-0.014275942
22	0x3ecb7b6c	0.397426
23	0xbfb3801c	-1.4023471
24	0x3ece9685	0.40349212
25	0x3ecf187a	0.40448362
26	0x3ad7882c	0.0016443781
27	0x3ebe17ef	0.37127635
28	0x3ed73c91	0.42038396
29	0xbfd0dd8c	-1.6317611
30	0x3ec5d0b3	0.38635787
31	0x3ec0a014	0.3762213
32	0x3ec5a0ee	0.38599342
33	0x3bca68d7	0.0061770487
34	0x3ecc23f1	0.3987117
35	0x3ecd47a7	0.4009373
36	0x3b8dbadd	0.0043252544
37	0x3ec70930	0.38874197
38	0x3c01f265	0.0079313265
39	0x3ec1a109	0.37818173
40	0x3ecd5bf3	0.40109214
41	0x40144b9e	2.3171153
42	0x3ecb3d67	0.39695284
43	0x3ec97e8b	0.39354357
44	0x3ec6ba38	0.3881395
45	0x3ecf2552	0.4045816
46	0x3ec1263f	0.37724492
47	0x3b9c5012	0.0047702873
48	0x3ed64d64	0.4185592
49	0x3ec24f1e	0.37950987
50	0x3c13082e	0.008974118
51	0x3ef1a34e	0.47194904
52	0x3ee83740	0.45354652
53	0x3ebff902	0.37494665
54	0x3ec48ef0	0.38390303
55	0x3ece5961	0.40302566
56	0x4143bfd8	12.234337
57	0x3ed28f6c	0.41125047
58	0x3ebfae54	0.3743769
59	0x3ec56889	0.38556316
60	0xbc2ada1a	-0.010427976
61	0x3eff1b1a	0.49825364
62	0x3ec9ef27	0.3944027
63	0x3ec8f550	0.3924966
64	0xbbb89b4f	-0.0056337486
65	0x3bd5c708	0.0065239705
66	0xbaa423bc	-0.0012522857
67	0x3bbd00dc	0.0057679247
68	0xbaa7a429	-0.0012790012
69	0x3b743b3c	0.0037266752
70	0xbba530a2	-0.005041198
71	0xbc350bb6	-0.011050155
72	0x3b971698	0.0046108477
73	0xbbde0923	-0.0067759915
74	0x3be52946	0.0069934456
75	0xba36bfb4	-0.0006971315
76	0xbb9994fc	-0.00468695
77	0x3c11f832	0.008909272
78	0x3c0aa8be	0.008463083
79	0xbc06eb00	-0.008234739
80	0x3ba94e17	0.0051667797
81	0x3b582be7	0.0032985152
82	0xbc0b65f4	-0.008508194
83	0x3935a701	0.00017323719
84	0xbc1f1dc9	-0.009711691
85	0x39d4d1ff	0.0004059225
86	0xbc4ad658	-0.012380205
87	0x3c23e4cd	0.010003281
88	0x3b49c804	0.0030789385
89	0x3bebcda3	0.0071961447
90	0x3b121776	0.0022291816
91	0xbbe11edc	-0.006870134
92	0x3b5b58bb	0.0033469636
93	0x3bcbb623	0.0062167807
94	0x3b83666b	0.004010012
95	0xbb5f9271	-0.0034114385
96	0x3c2178ff	0.009855508
97	0xbbf05303	-0.0073341145
98	0xbc4e559a	-0.012593651
99	0x3aaa1135	0.0012975099
100	0x3c2a399a	0.01038971
101	0x391dee0b	0.00015061365
102	0xbb7cb0d4	-0.0038557546
103	0xbc404855	-0.011735995
104	0x3baa516e	0.0051976955
105	0xbc42f1f9	-0.011898511
106	0xbbce9c4b	-0.0063052527
107	0x3b83659b	0.004009915
108	0xbc0d9212	-0.008640783
109	0xbc220a19	-0.009890103
110	0xbc0036be	-0.007825552
111	0x3bb3f1c1	0.005491466
112	0xbbc08181	-0.005874813
113	0xbb8e0409	-0.004333977
114	0xbb43064b	-0.002975839
115	0x3b7bdada	0.0038430006
116	0x3c05222e	0.008125825
117	0xba6aa203	-0.0008950533
118	0xbb039868	-0.0020079855
119	0xbb73af6b	-0.0037183415
120	0x3b80c5fc	0.0039298516
121	0x3bbc7c9b	0.005752159
122	0x3a8609be	0.0010226292
123	0x3baf97f2	0.0053586895
124	0xbb6ce32d	-0.003614615
125	0xbb12615d	-0.0022335865
126	0xbc409056	-0.011753162
127	0x3b6316b1	0.0034650976
128	0x3ebd794c	0.37006605
129	0x3ec319e4	0.3810569
130	0xbc384ebf	-0.011249243
131	0x39298e94	0.0001617021
132	0x3b8cc218	0.0042955987
133	0x3ec32c72	0.38119847
134	0xbafb1424	-0.0019155783
135	0x3ec501f0	0.3847804
136	0x3ee6f295	0.4510695
137	0x3ec09b1f	0.37618348
138	0x3f1dc592	0.61629593
139	0x3eca1672	0.3947025
140	0x3c204d11	0.009783999
141	0x3ecb2531	0.39676812
142	0x3ed5989a	0.41717988
143	0x3ec7e01a	0.39038163
144	0xbfb3be30	-1.4042416
145	0x3c1720a0	0.009224087
146	0x3ec81f34	0.39086306
147	0x3ed7f88b	0.4218181
148	0xbfd4f17e	-1.6636198
149	0xbc397006	-0.011318212
150	0x3ec4082a	0.3828748
151	0xbfb32d82	-1.3998263
152	0x3ecd1e4e	0.40062183
153	0x3ece1348	0.40249085
154	0xbac9e837	-0.0015404288
155	0x3ec23f3c	0.3793887
156	0x3ed62277	0.4182317
157	0xbfcf399b	-1.6189455
158	0x3ec92eb6	0.3929345
159	0x3ec4f432	0.38467556
160	0x3eccafd8	0.39977908
161	0x3c19aa3d	0.009378967
162	0x3ec63a94	0.38716567
163	0x3ec8c573	0.39213142
164	0xbb6f4cd9	-0.003651431
165	0x3ec11b6f	0.37716243
166	0xbb611445	-0.0034344357
167	0x3ec13d0d	0.3774189
168	0x3ed269b0	0.41096258
169	0x40140fa3	2.3134544
170	0x3ec45d29	0.38352326
171	0x3ec7dcb5	0.39035574
172	0x3ec6a3b4	0.3879677
173	0x3ec8b6d5	0.3920199
174	0x3ec6f33b	0.38857445
175	0xbbd30bda	-0.006440622
176	0x3ed0978e	0.40740627
177	0x3ec5c2f6	0.38625306
178	0x3c1b380c	0.009473812
179	0x3eee5bcc	0.4655441
180	0x3eeae18c	0.45875204
181	0x3ebc874b	0.3682197
182	0x3ec4c7af	0.38433596
183	0x3ecb4160	0.39698315
184	0x4143b627	12.231971
185	0x3ed0edf0	0.40806532
186	0x3ebfeb7c	0.37484348
187	0x3ec47b7c	0.3837546
188	0xbbfc7113	-0.007703909
189	0x3effa573	0.49930915
190	0x3ec003a5	0.3750278
191	0x3ec70215	0.38868776
192	0xbc4df8de	-0.012571542
193	0xbc703469	-0.014660933
194	0x3ac0b185	0.0014701342
195	0xbb111dba	-0.0022142963
196	0x3b66efe1	0.0035238194
197	0xbbffb4fc	-0.0078035574
198	0x3c11e60e	0.008904947
199	0xbc807787	-0.015681995
200	0xbc779742	-0.015111746
201	0x3b993826	0.004675883
202	0xbc1132b5	-0.008862187
203	0xbb3c3661	-0.0028718936
204	0x3b894ff1	0.004190438
205	0xbb78a397	-0.0037939304
206	0xbc4ffc19	-0.012694382
207	0xbb92e5e4	-0.0044829715
208	0xbc69662e	-0.014245553
209	0x3c1ee97e	0.009699224
210	0xbac2da0f	-0.0014866012
211	0x3b778499	0.0037768243
212	0x3aca4676	0.0015432376
213	0x3b923a59	0.004462522
214	0xbacdaa7c	-0.0015691067
215	0xb98618a0	-0.0002557682
216	0xbc55eb5d	-0.013056603
217	0x3b6e086f	0.0036320945
218	0xbb21f97c	-0.0024715355
219	0x3b7bb612	0.0038408083
220	0xbbd5352e	-0.0065065837
221	0x3a9757bf	0.0011546536
222	0x3b46dfda	0.0030345828
223	0xbb3c9440	-0.0028774887
224	0xbbef0425	-0.0072941952
225	0x3b99ad62	0.0046898583
226	0xbc8ee34e	-0.017442372
227	0xbbc4090b	-0.0059825233
228	0xbb196abd	-0.0023409568
229	0xbc618948	-0.013765641
230	0xba7f9da4	-0.00097509683
231	0xbb2cdd49	-0.0026377013
232	0xbc8c983c	-0.017162435
233	0x3b2bca92	0.002621327
234	0x3afe6e8e	0.001941161
235	0x3bae8e73	0.00532704
236	0xbc2cd892	-0.010549681
237	0xbc5ccb9d	-0.01347628
238	0x3ad6f489	0.0016399781
239	0x3c310ebd	0.010806737
240	0xbc30b02a	-0.010784188
241	0xbc42b9af	-0.011885091
242	0xba5e6268	-0.00084832916
243	0x3bad3cec	0.0052868035
244	0xbbcc078b	-0.006226485
245	0xbc83effe	-0.016105648
246	0xbc2c557e	-0.01051843
247	0xbc4dd8d3	-0.012563902
248	0x3b3f2d0f	0.0029171144
249	0xbc631019	-0.013858818
250	0x3b4ed41d	0.0031559535
251	0xbaae649e	-0.0013305133
252	0xba868e48	-0.0010265792
253	0xbbdb7f8a	-0.0066985535
254	0x3a0c1779	0.0005344074
255	0xbc3eaf75	-0.011638512

bias f4 [32]
0	0x3ee6c63e	0.45073122
1	0x3c04a5b1	0.008096145
2	0x3ee6859c	0.4502381
3	0x39e21130	0.00043118885
4	0x3ee4e103	0.4470292
5	0x3e42e9e0	0.19034529
6	0xbc148384	-0.009064559
7	0x3ede481a	0.43414384
8	0xbb926c70	-0.004468493
9	0x3ee18f10	0.4405446
10	0xbb61d889	-0.003446134
11	0x3edf29ec	0.4358667
12	0x3ee1b0ac	0.44080102
13	0x3ee0cf12	0.43907982
14	0x3ee0ddcb	0.43919215
15	0xbc2ee3c8	-0.0106744245
16	0xbc19e175	-0.009392132
17	0xbc0a1df3	-0.008429992
18	0x3edcee5d	0.43150607
19	0x3f90fc36	1.1326969
20	0xbc2029da	-0.009775603
21	0x3edd7872	0.43255955
22	0x3ee7be9f	0.4526262
23	0xbc208e71	-0.009799586
24	0x3be269c9	0.006909583
25	0xbad7629a	-0.0016432584
26	0xbbaebdee	-0.0053327
27	0x3b343ca9	0.0027501977
28	0xbc88fd63	-0.016722387
29	0x3ee41968	0.44550633
30	0x3bd87fc7	0.006607029
31	0x3bfe91b2	0.007768833

weight f4 [2, 32]
0	0x405fb708	3.4955463
1	0xbc466c8c	-0.0121108405
2	0x406123a0	3.5177994
3	0xbbe035e5	-0.006842362
4	0x40609cee	3.5095782
5	0x408981bb	4.2970862
6	0xbc5c76ed	-0.0134560885
7	0x406270bc	3.5381308
8	0x3c156b21	0.00911978
9	0x4061e3a9	3.5295203
10	0x3b8a5a4d	0.0042221905
11	0x4060832a	3.5080056
12	0x406049bd	3.5045006
13	0x405fb9bf	3.495712
14	0x405fc064	3.4961176
15	0xb8bb4bd1	-8.930977e-05
16	0xba8b7bd0	-0.0010641757
17	0xbbf86a5a	-0.0075810375
18	0x4061293f	3.5181425
19	0x3fd9ce93	1.7016166
20	0xbb961f62	-0.004581378
21	0x4061e12e	3.5293689
22	0x4060d036	3.5127082
23	0x3c15c17b	0.009140368
24	0xbbcb31f7	-0.0062010246
25	0xbbd00b4a	-0.006349002
26	0xbb771e44	-0.0037707249
27	0x3ad2a11f	0.0016069746
28	0xb6a0acbb	-4.78848e-06
29	0x40612f77	3.518522
30	0xbce9011d	-0.028442914
31	0xbb9f9a55	-0.0048706927
32	0x40600cae	3.500774
33	0xba343fca	-0.00068759604
34	0x405fccc7	3.4968736
35	0x3bcb8586	0.0062109856
36	0x40601ba9	3.5016882
37	0x40898075	4.296931
38	0x3c520f94	0.012821097
39	0x4062a73b	3.541457
40	0xbc1064c6	-0.008813089
41	0x40615cb1	3.5212824
42	0xbbc4f307	-0.0060104164
43	0x4060b8a5	3.5112698
44	0x406040ea	3.503962
45	0x4060d4fe	3.513
46	0x40612f5f	3.5185163
47	0xb9fb20ce	-0.00047898892
48	0xb9051457	-0.00012691446
49	0xbc8de4d2	-0.017321024
50	0x4060c8d4	3.5122576
51	0x3fd9d289	1.7017375
52	0x3c3500e0	0.011047572
53	0x40617bf7	3.5231912
54	0x40608212	3.5079389
55	0xbc60e501	-0.013726474
56	0x3baf23d2	0.0053448463
57	0xbbf7be4e	-0.007560528
58	0xbb8a30ac	-0.004217228
59	0xbb5e7b10	-0.0033947863
60	0xbc0c05ba	-0.008546287
61	0x40616013	3.521489
62	0xbcdcbc3d	-0.026945228
63	0xbaefee90	-0.001830535

bias f4 [2]
0	0x3edb385c	0.42816436
1	0x3ed9edef	0.4256434
