ElegantRL/EntornoObservacionesAccionesMejorado/200ksteps_TD3_0/cri_target.pth (torch, 27573 bytes, 8 tensors)

state_avg f4 [48]
00000000: 0000 0000 0000 0000 0000 0000 0000 0000
00000010: 0000 0000 0000 0000 0000 0000 0000 0000
00000020: 0000 0000 0000 0000 0000 0000 0000 0000
00000030: 0000 0000 0000 0000 0000 0000 0000 0000
00000040: 0000 0000 0000 0000 0000 0000 0000 0000
00000050: 0000 0000 0000 0000 0000 0000 0000 0000
00000060: 0000 0000 0000 0000 0000 0000 0000 0000
00000070: 0000 0000 0000 0000 0000 0000 0000 0000
00000080: 0000 0000 0000 0000 0000 0000 0000 0000
00000090: 0000 0000 0000 0000 0000 0000 0000 0000
000000a0: 0000 0000 0000 0000 0000 0000 0000 0000
000000b0: 0000 0000 0000 0000 0000 0000 0000 0000
0.0 0.0 0.0 0.0 0.0 0.0 0.0 0.0
0.0 0.0 0.0 0.0 0.0 0.0 0.0 0.0
0.0 0.0 0.0 0.0 0.0 0.0 0.0 0.0
0.0 0.0 0.0 0.0 0.0 0.0 0.0 0.0
0.0 0.0 0.0 0.0 0.0 0.0 0.0 0.0
0.0 0.0 0.0 0.0 0.0 0.0 0.0 0.0

state_std f4 [48]
00000000: 0000 803f 0000 803f 0000 803f 0000 803f
00000010: 0000 803f 0000 803f 0000 803f 0000 803f
00000020: 0000 803f 0000 803f 0000 803f 0000 803f
00000030: 0000 803f 0000 803f 0000 803f 0000 803f
00000040: 0000 803f 0000 803f 0000 803f 0000 803f
00000050: 0000 803f 0000 803f 0000 803f 0000 803f
00000060: 0000 803f 0000 803f 0000 803f 0000 803f
00000070: 0000 803f 0000 803f 0000 803f 0000 803f
00000080: 0000 803f 0000 803f 0000 803f 0000 803f
00000090: 0000 803f 0000 803f 0000 803f 0000 803f
000000a0: 0000 803f 0000 803f 0000 803f 0000 803f
000000b0: 0000 803f 0000 803f 0000 803f 0000 803f
1.0 1.0 1.0 1.0 1.0 1.0 1.0 1.0
1.0 1.0 1.0 1.0 1.0 1.0 1.0 1.0
1.0 1.0 1.0 1.0 1.0 1.0 1.0 1.0
1.0 1.0 1.0 1.0 1.0 1.0 1.0 1.0
1.0 1.0 1.0 1.0 1.0 1.0 1.0 1.0
1.0 1.0 1.0 1.0 1.0 1.0 1.0 1.0

weight f4 [64, 49]
00000000: 481e ff3d de3f 15be 4d92 be3e 2ade 5cbd
00000010: 01bf cbbd 41eb d83d 390c 10bd 7343 e13d
00000020: cc22 a93e 7eaf 01be 3360 c23e 6ab5 54bd
00000030: 6e3d b5bc b481 b93d 92c8 c2bd cf7a d73d
00000040: 1ebe 623e e8b6 0ebe 8b7d c13e 76cd 9abd
00000050: f31d 6dbc 5b0e f4bc c409 233e c6fd dd3d
00000060: d6d6 443e 64c6 04be 986a bf3e ee63 bc3d
00000070: fa40 d3bc e84a 71bc a6df 083d 99f4 633e
00000080: 4e6c d43e 08b4 0fbe 1fc9 be3e 28fc 3f3e
00000090: f15d ab3d 1375 43bd 2471 d33c 5a99 983e
000000a0: 6ec5 18be 77ca 04be 410a c53e 582e 05bf
000000b0: e5c1 cbbd 240b 923e 408e 173f 8c54 983d
000000c0: 454f b13d 5a19 c73d 51df 07be 0b29 bd3e
000000d0: c054 89bd 5834 c2bd 46c4 b23d 01af b1bc
000000e0: 103e f73d f86e a73e 6fdd 0ebe f49b bd3e
000000f0: 91ad 55bd c79c 01bd 57aa 8f3d cc55 d9bd
00000100: e096 f13d 46cf 643e 3da5 0cbe fb4c bc3e
00000110: 6868 bfbd 0551 abbc 2aa7 85bc ac4a 183e
00000120: 336f ea3d 6cc9 383e e866 12be ceb4 c23e
00000130: 7f88 d43d 3fd4 fabc 66ab 1ebb 1692 1b3d
00000140: 5f53 683e 78d5 d83e 7e58 10be c508 c73e
00000150: e0c0 443e 1456 913d 4551 90bd 8a7d 823b
00000160: 0808 a13e d0b6 1ebe fcb3 04be 8ea8 bc3e
00000170: 0e1a 05bf 16a7 b8bd 88b7 983e 3724 1b3f
00000180: 2f70 b33d 386e ac3d b0b0 12bc fe74 00bc
00000190: 5150 923b cc02 abbb 2bb7 5a38 1f86 093b
000001a0: 1ebe 053c 704a f03b 7bec f53b fd13 0c3a
000001b0: e93b f33b 2eb3 c9bb 7a70 acbb 1d6d 08bb
000001c0: 1f36 fabb f62c 403c 2e0a 04bb 9186 7a3b
000001d0: 8e59 d6b9 c88f 3cb9 37aa e5bb ef11 7dba
000001e0: beb6 40bc c80b cebb 1ec5 253c 740c 4abc
000001f0: 28cd 0d3b 0b49 093b 6032 4ebc 0e4e 283b
00000200: 2a14 c83b 1404 1c3c 6245 213b 0065 283c
00000210: ecbc 013a ae2b a43b 7e63 7e3b ecd6 1ebc
00000220: 2127 3dbb aab1 17bc d161 273c 208c cd3b
00000230: 8ab9 b6bb 11af 1dbb df10 663b 24d3 3bbc
00000240: 1aa8 c239 9887 cd3b 5cf5 d73a 4616 05bb
00000250: 33f7 173c 76e2 a13b 10ed 4cbc 3eab e23b
00000260: a6cc 36bc e83b d73b 63f9 273c 20dd cc39
00000270: 8449 6dbb 0317 f8bb 4229 dabb 9096 54bb
00000280: 783e cdbb e97c 483c 00b1 d4bb f2fa 973b
00000290: f749 3abc 56de c03b ade4 293c 07dd 27bc
000002a0: 20a4 88bb 75c4 173b d4a5 5bbc 3bc3 15bc
000002b0: 66cb b03b 1f15 3e3c ab8f 9bbb bb72 76ba
000002c0: 045d 5dbc 0a25 5cbc 60e9 2d3c 8d5e 293c
000002d0: 86b0 50bb 08e2 c3bb 6a00 dbba 640c ad3b
000002e0: 8d97 5dbc f8ab 04bc 4fe9 a8bb fa6f d6bb
000002f0: f573 f939 0d5e 103c c073 063b 2668 50bc
00000300: 97d7 393c 5714 203c a997 593b faf7 b73b
00000310: f1eb 643b ced2 2b3c be76 52bc 2d86 10bc
00000320: 1bf1 17bb 9012 4dbb 1e3a 22bc aaed 61bc
00000330: 89ea 3abc 61d2 18bb 589a 333c 6cef 043c
00000340: 6032 4e3b 782a 0ebc f00b d5bb f23d d639
00000350: 21f7 5fbc 7a41 69ba 0e24 223b 1b1f 373c
00000360: b85b 86bb 0af7 473c fe92 42b9 c37b 1ebc
00000370: a73e 353c 1f02 363c 3c7c 2dbc 1032 06bc
00000380: e2eb b83b 505f 0ebc fd79 093c b192 dcbb
00000390: 30af b2bb b02d 85bb 133e 4a3c 7eff a4bb
000003a0: b98c 51bb d1d4 f23b 07cd 1cbc d65f 1aba
000003b0: 76e0 3bbc a892 4bbc 2bd1 51bb 5eab 6e3a
000003c0: 3650 2d3c 9026 57bc 5cc7 84bb 3aaa 483b
000003d0: 5402 ad3b dd56 f03d e840 18be bbd2 c03e
000003e0: ef16 62bd 6f0f e5bd 0208 d23d 99a0 4ebd
000003f0: dabc ea3d df9e ab3e ae3c 11be a7a7 c43e
0.124569476 -0.14575145 0.37220994 -0.05392281 -0.099485405 0.10591746 -0.035167906 0.10999193
0.3303436 -0.12664601 0.3796402 -0.051930822 -0.022124019 0.09057942 -0.09510912 0.10521471
0.22142836 -0.1393696 0.37791094 -0.0755872 -0.0144724725 -0.029792001 0.15921694 0.10839419
0.19222578 -0.12966305 0.37386012 0.091987476 -0.02578782 -0.014727332 0.033416413 0.22261275
0.4148888 -0.1403352 0.37262818 0.18748534 0.08367527 -0.047719073 0.025810786 0.29804498
-0.14919063 -0.12967859 0.38484386 -0.5202384 -0.09949092 0.28524125 0.5920143 0.07438001
0.086576976 0.09721632 -0.13268782 0.36945376 -0.06705618 -0.0948264 0.087288424 -0.021689894
0.12072384 0.3270185 -0.13951658 0.37033045 -0.05216748 -0.031643655 0.070149116 -0.106120676
0.11796355 0.22344694 -0.13734908 0.3677748 -0.09346086 -0.020912657 -0.016315062 0.14872235
0.11446991 0.18045586 -0.14297068 0.38028568 0.10377597 -0.030618785 -0.0024211048 0.037981115
0.22688054 0.42350364 -0.14096257 0.38873878 0.19214201 0.07096496 -0.07046751 0.0039822506
0.3145144 -0.15499425 -0.12959284 0.36847347 -0.5199288 -0.09016244 0.29827523 0.60602134
0.08761632 0.0841946 -0.008953258 -0.007840393 0.004465141 -0.0052188393 5.214584e-05 0.0020984483
0.008163003 0.0073330924 0.0075049973 0.00053435547 0.0074229133 -0.006155393 -0.0052624317 -0.002081699
-0.0076358463 0.0117294695 -0.002014767 0.003822718 -0.00040883984 -0.0001798264 -0.0070088166 -0.00096538564
-0.011762319 -0.0062880255 0.010117797 -0.012332071 0.0021637175 0.0020948078 -0.0125852525 0.002568129
0.0061059194 0.009522457 0.0024608006 0.0102779865 0.0004949111 0.00501009 0.0038816626 -0.009694796
-0.0028862434 -0.009258667 0.010216192 0.0062728077 -0.005576317 -0.0024060647 0.003510527 -0.011463914
0.0003712781 0.0062722676 0.0016476321 -0.0020307465 0.0092752455 0.0049403263 -0.012507692 0.0069173863
-0.01115719 0.0065684207 0.0102523295 0.00039074663 -0.0036207149 -0.0075711026 -0.0066577503 -0.0032438375
-0.0062635504 0.012236812 -0.0064908266 0.0046380693 -0.011370174 0.0058858795 0.010369462 -0.010245568
-0.004169956 0.002315787 -0.013406236 -0.009140785 0.0053953407 0.011601715 -0.004747351 -0.00094012514
-0.013510946 -0.013436565 0.010614723 0.010337484 -0.0031843497 -0.0059778728 -0.0016708497 0.005281018
-0.013524902 -0.008097641 -0.0051547657 -0.0065441104 0.00047579376 0.008811486 0.002051577 -0.012720143
0.0113429045 0.009770474 0.0033201969 0.005614278 0.003493067 0.0104872715 -0.012845693 -0.0088210525
-0.0023184482 -0.0031291582 -0.0099015515 -0.013789574 -0.011408457 -0.0023318755 0.010962091 0.008113723
0.0031463131 -0.0086771175 -0.006501667 0.00040863414 -0.01366976 -0.00088980014 0.0024740729 0.01117685
-0.004100289 0.012204895 -0.0001855604 -0.009673062 0.011062301 0.011108904 -0.010588702 -0.008190647
0.005643354 -0.008689716 0.008390901 -0.006731354 -0.005453013 -0.0040642843 0.012343901 -0.00503534
-0.0031974746 0.0074106236 -0.009570367 -0.00058889145 -0.01146709 -0.012425102 -0.0032015543 0.0009104515
0.010578206 -0.013131753 -0.004052086 0.003061904 0.0052798185 0.11735318 -0.1486851 0.37660775
-0.055197652 -0.11184584 0.102554336 -0.050446127 0.11461802 0.33519647 -0.14183304 0.3840916

bias f4 [64]
00000000: 718d e43e e566 d93e 4b36 31bc d29c 35bc
00000010: 63ab c8b9 c5e3 dc3e f882 59bc 73ee dc3e
00000020: da3f e43e bbb3 dd3e 35fc b33e 387c da3e
00000030: f7d6 a03b 8d56 e13e 508f dd3e 2ecf d83e
00000040: 8b8f 9fbe 8f24 e6bb 79d7 d83e 7058 e63e
00000050: b866 b0bd 23b6 95bb 8cbb e03e c8d3 88be
00000060: 0001 da3e e5d1 de3e 4792 98bb 1542 d73e
00000070: 7195 e53e 2039 7fbe 5fac dc3e 3eaa e23e
00000080: 1016 e53e 2894 63bb 43e5 e53e e580 de3e
00000090: 6018 56bc 682b d93e 92a0 03bc 7148 de3e
000000a0: 4410 e63e 2479 983f ec90 dd3e 4506 e53e
000000b0: ba9a dd3e ddfd e13e 3437 de3e 9fe9 a7bb
000000c0: 4f1b db3e 9636 e53e 08f2 f8bb 0a78 df3e
000000d0: 2689 e03e 46df de3e fc82 df3e eaed de3e
000000e0: 64df 863e b2ca e23e cb93 dc3e 95f8 e13e
000000f0: d1ee dd3b 6de8 c13e d830 dc3e 10a2 da3e
0.4463916 0.42461315 -0.010816167 -0.011084752 -0.00038274666 0.43142524 -0.013275854 0.43150672
0.44579965 0.43301186 0.35153356 0.42672896 0.0049084383 0.44011346 0.432734 0.42345566
-0.31164202 -0.007023401 0.42351893 0.44989347 -0.08613342 -0.0045688315 0.43893087 -0.26724076
0.42578888 0.43519512 -0.0046561095 0.42042604 0.44840577 -0.24924135 0.4310026 0.4427051
0.44743395 -0.003472576 0.44901475 0.43457714 -0.013067335 0.4241593 -0.008033888 0.43414643
0.44934285 1.1911969 0.4327463 0.44731346 0.4328211 0.44138995 0.43401492 -0.0051242854
0.42794272 0.44768208 -0.0075972117 0.4364627 0.43854636 0.4352972 0.4365462 0.4354089
0.2634231 0.4429527 0.43081507 0.44134966 0.006772854 0.3787264 0.43006015 0.4270177

weight f4 [32, 64]
00000000: 8af1 bf3e d9d9 c63e be81 a23a bec7 2a3c
00000010: fe95 0a3c 85ad bd3e aa16 123c dae5 c13e
00000020: 9660 e03e 4c99 c53e 6c7b 193f 0bc7 c33e
00000030: c5e9 1abc 5236 cc3e 1030 d73e d9b6 c83e
00000040: 6462 b4bf 7e60 0bbc 88ec cd3e 083e d73e
00000050: ebe1 d5bf 7609 6abc 5cb8 cb3e 109e b3bf
00000060: 00d3 ce3e 7655 cf3e e0a8 d73a d451 be3e
00000070: d879 d73e 3004 d1bf 8e0d c63e eeda c03e
00000080: 81dc c53e 1888 ca3b 8960 cc3e 2584 cd3e
00000090: acd0 8d3b ca43 c73e df05 023c f0db c13e
000000a0: 4a97 cd3e 2b0f 1440 9f79 cb3e 16ba c93e
000000b0: dcf4 c63e c462 cf3e 7060 c13e 3468 9c3b
000000c0: a08a d63e 808a c23e c21e 133c 10e6 f13e
000000d0: dd75 e83e b933 c03e 59ca c43e 8095 ce3e
000000e0: 3abd 4341 83cb d23e 64e8 bf3e eda2 c53e
000000f0: ccf3 2abc b669 ff3e 8b2a ca3e aa30 c93e
00000100: 57b7 b8bb bce7 d53b ae3c a4ba aa1d bd3b
00000110: dbbd a7ba a260 743b 8e49 a5bb f726 35bc
00000120: fc2d 973b 9f2a debb 544c e53b bedb 36ba
00000130: 59ac 99bb c60e 123c c4bd 0a3c 40ff 06bc
00000140: c967 a93b 9a4c 583b fa7a 0bbc 8ac2 3539
00000150: eb35 1fbc b2f2 d439 a0f5 4abc befd 233c
00000160: 65e6 493b 74f1 eb3b 0a2e 123b 2241 e1bb
00000170: 347a 5b3b 60d5 cb3b aa7a 833b b4b4 5fbb
00000180: ee91 213c 9a77 f0bb c874 4ebc e72a aa3a
00000190: 4c53 2a3c 2d06 1e39 fad6 7cbb ec65 40bc
000001a0: 206b aa3b 900f 43bc 90bb cebb da79 833b
000001b0: e0a7 0dbc 0623 22bc 384a 00bc 030d b43b
000001c0: 189f c0bb d819 8ebb e223 43bb ff00 7c3b
000001d0: 6e36 053c d4c5 6aba a8ac 03bb cbd4 73bb
000001e0: 7bd9 803b 6999 bc3b fe1d 863a 6cb2 af3b
000001f0: fe06 6dbb f177 12bb eead 40bc f638 633b
00000200: 4bb2 bd3e db54 c33e c76a 38bc 46a8 2939
00000210: 96d7 8c3b 3e68 c33e 493a fbba 983c c53e
00000220: 2a33 e73e 1ad6 c03e 1cf3 1d3f 0753 ca3e
00000230: 3565 203c d261 cb3e 98d6 d53e bb1a c83e
00000240: 21dc b3bf fd37 173c 205a c83e d735 d83e
00000250: b300 d5bf 0f8c 39bc 8e43 c43e 7d4b b3bf
00000260: cd5a cd3e e24f ce3e a106 caba e679 c23e
00000270: bb5f d63e e65f cfbf 966b c93e 932f c53e
00000280: 3eec cc3e 99c1 193c 6176 c63e 2401 c93e
00000290: 7071 6fbb 3b55 c13e 8a36 61bb f577 c13e
000002a0: caa5 d23e 2bd3 1340 d897 c43e 4418 c83e
000002b0: 53de c63e 03f3 c83e 382e c73e c52b d3bb
000002c0: fcd3 d03e 20ff c53e 694f 1b3c 859e ee3e
000002d0: ea20 eb3e 49c1 bc3e 4703 c53e 837d cb3e
000002e0: 95b3 4341 fe29 d13e 0026 c03e 1eb5 c43e
000002f0: 3897 fcbb 0df4 ff3e 033e c03e 6f3d c73e
00000300: 2018 4ebc 0059 70bc 1ccf c03a 8933 11bb
00000310: eb12 673b 0fdc ffbb 78fc 113c 108b 80bc
00000320: a3bc 77bc 894f 993b 8548 11bc 2f53 3cbb
00000330: f764 893b bcc9 78bb 041c 50bc 78fc 92bb
00000340: 008a 69bc a001 1f3c a6f7 c2ba fba9 773b
00000350: b865 ca3a ed50 923b b0c9 cdba e02c 86b9
00000360: 100c 56bc ce2c 6e3b 6e12 22bb 38dc 7b3b
00000370: e255 d5bb 1b6f 973a 38fe 463b 0eb1 3cbb
00000380: bc28 efbb c3c4 993b 1cf9 8ebc a226 c4bb
00000390: 1f82 19bb 8eab 61bc 9fc4 7fba c2f7 2cbb
000003a0: 51ad 8cbc 0ce5 2b3b 7f95 fe3a eca8 ae3b
000003b0: 0cf3 2cbc 17ed 5cbc 3c15 d73a 012a 313c
000003c0: 6bcb 30bc 46d7 42bc f183 5eba 6657 ad3b
000003d0: c826 ccbb 3e04 84bc f86f 2cbc 18f8 4dbc
000003e0: dd49 3f3b 5e32 63bc 58f3 4e3b 187f aeba
000003f0: 88a2 86ba 04a1 dbbb 7f2c 0c3a 43cc 3ebc
0.37488967 0.3883808 0.0012398285 0.010423599 0.0084586125 0.37046447 0.008916536 0.37870675
0.4382369 0.3859352 0.5995395 0.38237795 -0.009455149 0.39885193 0.42028856 0.39202002
-1.4092526 -0.008506892 0.40219522 0.42039514 -1.670957 -0.014284482 0.39789093 -1.4032612
0.40395355 0.4049489 0.0016453527 0.37171805 0.42085147 -1.6329403 0.38682216 0.3766703
0.38644794 0.0061807744 0.399174 0.4013988 0.004327854 0.38918906 0.00793597 0.37863111
0.40154487 2.3134258 0.39741227 0.39399785 0.38858688 0.4050504 0.37768888 0.004773164
0.41902637 0.37996292 0.008979501 0.47245836 0.45402423 0.3753946 0.3843563 0.40348434
12.233698 0.41170892 0.37481987 0.38600865 -0.010434102 0.4988534 0.39485583 0.3929494
-0.00563709 0.006527869 -0.0012530291 0.0057713585 -0.001279767 0.0037289043 -0.005044169 -0.011056653
0.004613636 -0.006779983 0.0069976244 -0.0006975493 -0.004689735 0.008914655 0.008468095 -0.008239567
0.005169843 0.0033004642 -0.008513207 0.00017333977 -0.009717445 0.00040616613 -0.012387663 0.010009227
0.0030807492 0.0072004143 0.0022305273 -0.0068742195 0.0033489587 0.0062205046 0.0040124254 -0.0034134807
0.0098614525 -0.0073384764 -0.012601085 0.0012982757 0.010395836 0.00015070355 -0.0038580284 -0.01174305
0.0052007586 -0.011905566 -0.0063089803 0.0040123286 -0.008645982 -0.009896046 -0.007830195 0.005494715
-0.0058783405 -0.004336577 -0.0029776026 0.0038452742 0.008130653 -0.000895587 -0.0020091925 -0.0037205692
0.0039321757 0.0057555926 0.0010232327 0.0053618457 -0.0036167498 -0.0022349323 -0.011760218 0.0034671403
0.3705009 0.38150677 -0.011255926 0.00016179783 0.004298161 0.38165468 -0.0019167151 0.38522792
0.45156223 0.37663347 0.6169908 0.3951647 0.009789755 0.39723068 0.41765285 0.39082894
-1.4051553 0.009229657 0.3913126 0.42228577 -1.6640838 -0.0113248965 0.3833279 -1.4007412
0.40108338 0.4029532 -0.0015413353 0.37983626 0.41869912 -1.6201141 0.39339894 0.3851286
0.40023988 0.009384536 0.3876219 0.39258683 -0.003653612 0.37760338 -0.0034364783 0.37786832
0.41142112 2.3097637 0.38397098 0.39081013 0.38841495 0.39247903 0.3890245 -0.0064444267
0.4078673 0.38671207 0.009479382 0.46605316 0.4592355 0.36866215 0.38479063 0.39744195
12.231343 0.4085235 0.37528992 0.3841943 -0.0077084564 0.49990883 0.3754731 0.38914058
-0.012578994 -0.014669657 0.0014710161 -0.0022155961 0.0035259079 -0.0078082155 0.008910291 -0.01569131
-0.015120658 0.004678671 -0.008867388 -0.0028736105 0.004192944 -0.003796204 -0.012701992 -0.004485663
-0.014254093 0.009704977 -0.001487483 0.0037790525 0.0015441692 0.0044652135 -0.0015700366 -0.00025591906
-0.013064399 0.0036342624 -0.0024730223 0.003843082 -0.006510482 0.0011553498 0.0030363929 -0.0028792056
-0.007298557 0.0046926453 -0.017452769 -0.0059860507 -0.0023423505 -0.013773812 -0.0009756777 -0.0026392792
-0.017172487 0.0026229052 0.0019423215 0.0053301957 -0.010555994 -0.013484261 0.0016409527 0.010813237
-0.010790686 -0.0118921455 -0.0008488289 0.0052899597 -0.006230209 -0.016115304 -0.010524742 -0.012571357
0.0029188313 -0.013866989 0.003157815 -0.0013313023 -0.0010271827 -0.006702544 0.00053472066 -0.0116453795

bias f4 [32]
00000000: 30df e63e f0b9 043c 8e9e e63e 7633 e239
00000010: f9f9 e43e 49f3 423e 189a 14bc 8a5f de3e
00000020: 0483 92bb 44a7 e13e cefa 61bb 1a42 df3e
00000030: dfc8 e13e 3de7 e03e f8f5 e03e 42fe 2ebc
00000040: d5f8 19bc f932 0abc bf05 dd3e 047b 903f
00000050: fe41 20bc d98f dd3e 93d7 e73e 95a6 20bc
00000060: 0e8c e23b 4e83 d7ba 68d8 aebb ea57 343b
00000070: 6912 89bc 5b32 e43e 7aa0 d83b a7b8 fe3b
0.45092154 0.008100972 0.45042843 0.0004314442 0.44721964 0.19038118 -0.009069942 0.43432266
-0.0044711847 0.44072926 -0.0034481767 0.4360512 0.44098565 0.4392642 0.4393766 -0.010680737
-0.009397705 -0.008435004 0.43168446 1.1287541 -0.009781359 0.4327381 0.45281658 -0.009805341
0.0069136685 -0.001644233 -0.005335856 0.0027518221 -0.016732411 0.44569668 0.006610927 0.007773477

weight f4 [2, 32]
00000000: 5cb6 5f40 ea8a 46bc e022 6140 2a58 e0bb
00000010: 409c 6040 367d 8940 6798 5cbc c86f 6240
00000020: b581 153c cce2 6140 536f 8a3b 6282 6040
00000030: f148 6040 10b9 5f40 a0bf 5f40 9f68 bbb8
00000040: d690 8bba 7f90 f8bb 7728 6140 fe49 d93f
00000050: f635 96bb 4fe0 6140 5ccf 6040 0fd8 153c
00000060: 3051 cbbb 352b d0bb aa43 77bb 0ac1 d23a
00000070: dfc4 a0b6 9c2e 6140 ee24 e9bc 77b2 9fbb
00000080: fd0b 6040 0e5b 34ba 01cc 5f40 c8a4 cb3b
00000090: ee1a 6040 fb7b 8940 7f2f 523c 56a6 6240
000000a0: 957a 10bc dd5b 6140 cb10 c5bb d7b7 6040
000000b0: 3040 6040 4ad4 6040 962e 6140 f446 fbb9
000000c0: 9628 05b9 a0fa 8dbc 17c8 6040 f04d d93f
000000d0: 241c 353c 1f7b 6140 3a81 6040 4607 61bc
000000e0: 4c3e af3b b3e3 f7bb b245 8abb aa9c 5ebb
000000f0: c01a 0cbc 455f 6140 b7dd dcbc 2713 f0ba
3.4955053 -0.012118081 3.5177536 -0.0068464475 3.5095367 4.2965345 -0.01346407 3.5380726
0.009125163 3.5294676 0.0042246967 3.507958 3.504452 3.4956703 3.4960709 -8.936342e-05
-0.0010648023 -0.0075855847 3.5180948 1.6975706 -0.0045840694 3.5293157 3.5126562 0.009145751
-0.0062047467 -0.006352807 -0.003772954 0.0016079259 -4.7912904e-06 3.5184698 -0.028459992 -0.0048735696
3.5007317 -0.0006880023 3.4968264 0.006214712 3.5016437 4.2963843 0.012828707 3.5414023
-0.008818288 3.521232 -0.006013965 3.5112207 3.5039177 3.512957 3.5184684 -0.00047927315
-0.00012698988 -0.017331421 3.5122125 1.697691 0.0110540725 3.5231397 3.5078874 -0.013734644
0.0053480025 -0.0075649857 -0.004219734 -0.003396789 -0.0085513 3.5214398 -0.02696119 -0.0018316255

bias f4 [2]
00000000: ab4f db3e 3205 da3e
0.4283422 0.4258209
