ElegantRL/EntornoObservacionesAccionesMejorado/2Msteps_PPO_0/actor__000000854016_61480.027.pt (torch, 27347 bytes, 7 tensors)

state_avg f4 [48]
0	0x00000000	0.0
1	0x00000000	0.0
2	0x00000000	0.0
3	0x00000000	0.0
4	0x00000000	0.0
5	0x00000000	0.0
6	0x00000000	0.0
7	0x00000000	0.0
8	0x00000000	0.0
9	0x00000000	0.0
10	0x00000000	0.0
11	0x00000000	0.0
12	0x00000000	0.0
13	0x00000000	0.0
14	0x00000000	0.0
15	0x00000000	0.0
16	0x00000000	0.0
17	0x00000000	0.0
18	0x00000000	0.0
19	0x00000000	0.0
20	0x00000000	0.0
21	0x00000000	0.0
22	0x00000000	0.0
23	0x00000000	0.0
24	0x00000000	0.0
25	0x00000000	0.0
26	0x00000000	0.0
27	0x00000000	0.0
28	0x00000000	0.0
29	0x00000000	0.0
30	0x00000000	0.0
31	0x00000000	0.0
32	0x00000000	0.0
33	0x00000000	0.0
34	0x00000000	0.0
35	0x00000000	0.0
36	0x00000000	0.0
37	0x00000000	0.0
38	0x00000000	0.0
39	0x00000000	0.0
40	0x00000000	0.0
41	0x00000000	0.0
42	0x00000000	0.0
43	0x00000000	0.0
44	0x00000000	0.0
45	0x00000000	0.0
46	0x00000000	0.0
47	0x00000000	0.0

state_std f4 [48]
0	0x3f800000	1.0
1	0x3f800000	1.0
2	0x3f800000	1.0
3	0x3f800000	1.0
4	0x3f800000	1.0
5	0x3f800000	1.0
6	0x3f800000	1.0
7	0x3f800000	1.0
8	0x3f800000	1.0
9	0x3f800000	1.0
10	0x3f800000	1.0
11	0x3f800000	1.0
12	0x3f800000	1.0
13	0x3f800000	1.0
14	0x3f800000	1.0
15	0x3f800000	1.0
16	0x3f800000	1.0
17	0x3f800000	1.0
18	0x3f800000	1.0
19	0x3f800000	1.0
20	0x3f800000	1.0
21	0x3f800000	1.0
22	0x3f800000	1.0
23	0x3f800000	1.0
24	0x3f800000	1.0
25	0x3f800000	1.0
26	0x3f800000	1.0
27	0x3f800000	1.0
28	0x3f800000	1.0
29	0x3f800000	1.0
30	0x3f800000	1.0
31	0x3f800000	1.0
32	0x3f800000	1.0
33	0x3f800000	1.0
34	0x3f800000	1.0
35	0x3f800000	1.0
36	0x3f800000	1.0
37	0x3f800000	1.0
38	0x3f800000	1.0
39	0x3f800000	1.0
40	0x3f800000	1.0
41	0x3f800000	1.0
42	0x3f800000	1.0
43	0x3f800000	1.0
44	0x3f800000	1.0
45	0x3f800000	1.0
46	0x3f800000	1.0
47	0x3f800000	1.0

weight f4 [64, 48]
0	0x3d0dcedb	0.0346211
1	0x3e8c34ef	0.27384135
2	0x3cb0dd9b	0.021590045
3	0xbc862279	-0.01637386
4	0xbd858dea	-0.065212086
5	0x3de47ba5	0.11156396
6	0x3e995daf	0.29954287
7	0x3d499286	0.049212
8	0xbd2e0411	-0.042484347
9	0x3e7b2eaa	0.2452952
10	0x3d9c3a43	0.076283
11	0xbd0366c3	-0.032080423
12	0xbe4bdda1	-0.19908763
13	0xbc930c93	-0.017950332
14	0x3e828ad1	0.25496534
15	0xbe6d97b5	-0.23202403
16	0x3d65f965	0.056146044
17	0x3e8f9dab	0.2804998
18	0x3d16cc95	0.0368162
19	0x3cc00240	0.023438573
20	0xbd96ebfa	-0.07369228
21	0x3e205bb1	0.15659977
22	0x3e86416b	0.26221785
23	0xbd4ad24d	-0.049516965
24	0xbc70ea03	-0.01470423
25	0x3e6a159c	0.22859806
26	0x3e4ffa42	0.2031031
27	0xbc8d9f1e	-0.017287787
28	0xbe461d86	-0.193472
29	0x3d1b7a06	0.037958167
30	0x3e3dc728	0.18533003
31	0xbd41fc79	-0.047359917
32	0xbda3a807	-0.07991033
33	0x3e2d3866	0.16916046
34	0x3d0deafa	0.03464792
35	0xbd3165e1	-0.04331005
36	0xbe5d5c24	-0.2161718
37	0x3e0efc73	0.13963489
38	0x3ea34550	0.3188882
39	0xbe1cbed0	-0.15307164
40	0x3cd93a9a	0.026517201
41	0x3e27967e	0.16366002
42	0x3e00cce6	0.12578163
43	0xbc85df16	-0.016341727
44	0xbe6207ad	-0.2207324
45	0x3cacc8fd	0.021091932
46	0x3e888a3c	0.26667964
47	0xbd4b1267	-0.049578097
48	0x3c7a53e3	0.015278789
49	0xbc05b068	-0.008159734
50	0x3dcb1fc4	0.09918168
51	0x3e47beb8	0.19506347
52	0x3e0e4f79	0.13897504
53	0x3e00a3db	0.12562506
54	0x3e4fe0b0	0.20300555
55	0xbdcd4216	-0.100223705
56	0x3d55ef09	0.052229915
57	0xbdafaefd	-0.08578298
58	0xbd26f416	-0.040760122
59	0x3b0efc66	0.0021817922
60	0x3e09b4d7	0.13447891
61	0x3e0e03a7	0.13868581
62	0xbd3556ff	-0.04427242
63	0xbdae0ffd	-0.08499143
64	0x3e039f4f	0.1285374
65	0xbc9062f8	-0.017625317
66	0x3d13963c	0.036031947
67	0x3debfd0d	0.11522875
68	0x3e28bf4a	0.16479221
69	0x3e6a897b	0.22904007
70	0xbe6c3bb0	-0.23069644
71	0xbd952f17	-0.07284372
72	0x3dc2e8ef	0.09517085
73	0x3da93a68	0.08263093
74	0x3dfcbf4d	0.12341175
75	0x3e280614	0.16408569
76	0x3df82a3c	0.121174306
77	0x3bc37664	0.005965041
78	0xbd9f2e39	-0.07772488
79	0xbe191432	-0.1494911
80	0xbd495fe5	-0.049163718
81	0x3db6203f	0.08892869
82	0x3de51bb2	0.11186923
83	0xbce8bc3e	-0.028410073
84	0x3def908a	0.116974905
85	0x3dadb1ca	0.08481176
86	0xbc06c343	-0.008225265
87	0xbdf69fd0	-0.120422006
88	0x3df4f0d6	0.11959998
89	0xbd8854e3	-0.06656816
90	0x3d906c18	0.07051867
91	0x3e0c3ec8	0.13695824
92	0x3e40c525	0.18825205
93	0x3e1a26fd	0.15053935
94	0xbe3d9b59	-0.18516292
95	0xbdbd6556	-0.09247844
96	0x3e05f1f5	0.1308058
97	0x3d67a2f1	0.056551877
98	0xbcea4615	-0.02859787
99	0x3d732f89	0.059371505
100	0x3e7a3e77	0.24437891
101	0x3e67cf26	0.22637615
102	0x3dbe593c	0.09294364
103	0x3c583474	0.0131961
104	0xbd5915f3	-0.052999448
105	0x3d05ea8a	0.032694377
106	0xbcd30415	-0.025758782
107	0x3c307e88	0.010772355
108	0x3e0450f4	0.12921506
109	0x3e28efaa	0.16497675
110	0x3bb2e8cb	0.00545988
111	0x3cd9177c	0.026500456
112	0x3cca9dea	0.024733502
113	0x3e050076	0.12988457
114	0x3e00496d	0.1252801
115	0x3d4d68d4	0.0501488
116	0x3dfdc54e	0.123911485
117	0x3e44f083	0.19232373
118	0xbdc0ab95	-0.09407727
119	0x3da3b98f	0.07994377
120	0x3def61d5	0.11688582
121	0x3d276333	0.040866088
122	0x3b088025	0.0020828333
123	0x3e35e2ce	0.177623
124	0x3d594a83	0.053049576
125	0x3dd0737c	0.10178277
126	0xbdffb6ff	-0.124860756
127	0xbd0db137	-0.034592833
128	0x3d0ce4b2	0.03439779
129	0xbd52e308	-0.051486045
130	0x3cfdce52	0.03098217
131	0x3e1fac17	0.15592991
132	0x3dadc36d	0.0848454
133	0x3e2c844b	0.16847341
134	0x3d4177f4	0.047233537
135	0x3cbaee5d	0.022818739
136	0x3dd30c32	0.103050604
137	0x3cd1178c	0.025523923
138	0x3d98b637	0.0745663
139	0x3e503a29	0.20334686
140	0x3e8958d3	0.2682558
141	0x3e768396	0.24073634
142	0xbbea0779	-0.007142004
143	0x3d9710a8	0.07376224
144	0xbdc12fd4	-0.094329506
145	0xbd4bed04	-0.049786583
146	0x3d926d09	0.07149703
147	0xba32715d	-0.00068070536
148	0xbd55cc69	-0.052196894
149	0xbda4cd38	-0.08046955
150	0xbdc941db	-0.09827014
151	0xbdb57f90	-0.08862221
152	0xbcae7ca8	-0.021299675
153	0x3d6be57c	0.0575919
154	0x3d6889d1	0.056772057
155	0xbdcf6611	-0.101268895
156	0x3d862603	0.06550219
157	0xbda848ec	-0.08217034
158	0xbcb5d872	-0.022197936
159	0xbd2e66ab	-0.04257838
160	0xbca5b193	-0.020226276
161	0xbca8e7b5	-0.020618299
162	0xbdc0fa19	-0.09422702
163	0xbdb9af25	-0.09066609
164	0xbc869ac1	-0.016431214
165	0x3ab1fdca	0.0013579663
166	0xbd436575	-0.04770418
167	0x3d220677	0.039556947
168	0xbdc18fe1	-0.09451271
169	0xbbe83834	-0.007086778
170	0x3dbd2597	0.09235685
171	0xbd2f6f8e	-0.042830996
172	0x3dc232b9	0.09482331
173	0x3d1bc184	0.038026348
174	0xbdc214bd	-0.09476612
175	0x3d88102a	0.06643708
176	0xbc468bf5	-0.012118329
177	0xbd3fff42	-0.046874292
178	0x3dabf5ab	0.08396467
179	0xbdadcaa6	-0.08485918
180	0x3c389ecc	0.011268329
181	0xbcb41b85	-0.021985779
182	0x3d999445	0.07498983
183	0x3cf023cd	0.029313946
184	0x3d4eace5	0.050457854
185	0x3d17e4a8	0.037083298
186	0xbccedce6	-0.025251817
187	0xbcb4e8f3	-0.022083735
188	0xbdb1387c	-0.08653352
189	0x3d690e81	0.056898598
190	0x3daabe42	0.0833707
191	0x3d9327be	0.071853146
192	0xbd43399b	-0.04766236
193	0x3d2eb8db	0.04265676
194	0xbd51368a	-0.051077403
195	0x3d66fc81	0.05639315
196	0x3d9f5e8e	0.07781707
197	0x3e357205	0.17719276
198	0xbd8c8f86	-0.068633124
199	0x3c5819bc	0.013189729
200	0x3bbfb81d	0.0058508054
201	0x3dd868bd	0.10566852
202	0xbd67267c	-0.056433186
203	0x3c30e311	0.010796324
204	0x3d9848cd	0.07435761
205	0x3e5a8913	0.21341352
206	0xbe164459	-0.1467451
207	0x3d044e19	0.032301042
208	0x3d9b21e7	0.07574826
209	0x3d5201a7	0.051271107
210	0x3cb590f8	0.022163853
211	0x3dd3f5d7	0.103496246
212	0x3e2c8f0d	0.16851445
213	0x3e250762	0.16116098
214	0xbe6b4ab0	-0.2297771
215	0x3d4a0113	0.04931743
216	0xbd418d5c	-0.04725395
217	0xbc8bc9dd	-0.01706403
218	0x3ddc9fd7	0.107726745
219	0x3cfe3913	0.031033074
220	0x3e2513c3	0.1612082
221	0x3e8e88b1	0.27838662
222	0xbe43a861	-0.191072
223	0x3cb9acc3	0.022665387
224	0xbd85e3ed	-0.06537614
225	0x3db84f75	0.0899953
226	0xbd545ec7	-0.0518482
227	0x3dba6fd0	0.09103358
228	0x3e0cf710	0.13766122
229	0x3e271cc3	0.16319565
230	0xbe2c7d5e	-0.16844699
231	0x3df22ef3	0.11825361
232	0x3da3a3a8	0.07990199
233	0x3e072f32	0.13201597
234	0x3db291a9	0.08719189
235	0x3d9184b7	0.071053915
236	0x3e7d7931	0.24753262
237	0x3dea6f6d	0.11447034
238	0xbe945dd3	-0.28977832
239	0x3e0aab07	0.13541804
240	0x3d92087c	0.071305245
241	0xbcc194e5	-0.023630569
242	0x3c322bc1	0.01087469
243	0x3dc34417	0.095344715
244	0x3e1049b7	0.1409062
245	0x3d0c5ace	0.034266286
246	0x3e263845	0.16232403
247	0xbdf867bf	-0.12129163
248	0x3b90e585	0.004421892
249	0xbdf64beb	-0.12026199
250	0xbc2e1b32	-0.010626601
251	0x3d9d88a2	0.07692076
252	0x3e24cfeb	0.1609494
253	0x3dcb4ab1	0.09926356
254	0xbd6f6377	-0.058444466
255	0xbe1c49ac	-0.15262479

bias f4 [64]
0	0x3e5d9126	0.21637401
1	0x3e1bd486	0.1521779
2	0xb84fae14	-4.951477e-05
3	0xbd289eab	-0.041166943
4	0x3df0627d	0.11737535
5	0xbc98bee3	-0.01864571
6	0x3b8e3852	0.00434021
7	0xbd00f097	-0.031479444
8	0x3d8fda22	0.070240274
9	0x3c13f981	0.009031654
10	0x3e58f315	0.21186478
11	0x3d4b4f4c	0.04963617
12	0x3c0b8e4d	0.008517814
13	0xbbfc8fe0	-0.007707581
14	0x3bd8cdd7	0.006616335
15	0xbd510a06	-0.05103495
16	0xbda94311	-0.08264745
17	0x3df71675	0.1206483
18	0xbd8b8125	-0.06811742
19	0x3d37787c	0.044792637
20	0x3d732547	0.059361722
21	0xbc75cf71	-0.015003071
22	0xbe2ffcdb	-0.171863
23	0x3c0ba64d	0.008523536
24	0xbd82247f	-0.06354617
25	0x3c3e0709	0.011598357
26	0xbd7b3dbb	-0.061338168
27	0x3d83bc7c	0.06432435
28	0xbdc8e21d	-0.09808753
29	0xbd2375b7	-0.039907183
30	0x3d3e8aa8	0.04651895
31	0xbc2b23eb	-0.010445575
32	0x3deff568	0.117167294
33	0xbdac0ce4	-0.08400896
34	0xbddbeb1d	-0.10738204
35	0x3d37defd	0.044890393
36	0xbd864e06	-0.065578505
37	0x3daa3b95	0.083121456
38	0xbd85b4cf	-0.06528627
39	0xbd9a322b	-0.075291
40	0xbdb4213f	-0.08795404
41	0x3bca2e35	0.006170059
42	0x3c810db4	0.015753604
43	0x3bff2c33	0.0077872514
44	0xbc91b078	-0.017784342
45	0xbd9a12ce	-0.07523118
46	0x3dea4389	0.114386626
47	0xbdc76161	-0.097353704
48	0x3d845bf5	0.06462852
49	0xbc51c975	-0.012804379
50	0xbe1cc28b	-0.15308587
51	0xbc7d61e4	-0.0154652335
52	0x3cccc435	0.024995903
53	0xbc8f543b	-0.017496219
54	0x3bcb0e32	0.0061967606
55	0xbe20ee0a	-0.15715805
56	0x3d682d51	0.056683842
57	0xbcaa8617	-0.020815892
58	0xbd6e7b57	-0.058223095
59	0x3d3e4098	0.04644832
60	0xbc86eaed	-0.016469443
61	0xbe09b7c8	-0.13449013
62	0x3b59e590	0.0033248402
63	0x3d926360	0.071478605

weight f4 [32, 64]
0	0x3cd6657b	0.026171437
1	0xbbeac98d	-0.00716514
2	0xbd3caacb	-0.04606132
3	0x3cc5fd97	0.024168773
4	0xbdb0295a	-0.08601637
5	0x3d9de9d3	0.07710614
6	0x3daaf5b8	0.083476484
7	0x3cf843be	0.03030574
8	0xbd0dbd34	-0.034604266
9	0xbdd23c23	-0.102653764
10	0x3c2193e7	0.009861923
11	0x3da436ab	0.080182396
12	0xbdc41acc	-0.095754236
13	0xbdd85aed	-0.10564218
14	0x3c14e95e	0.009088842
15	0xbd0ee9ad	-0.03489082
16	0xbdb95dfb	-0.090511285
17	0xbdb03a8e	-0.086049184
18	0xbb9f4bc8	-0.0048613288
19	0xbd81ec0a	-0.06343849
20	0x3d81bf3c	0.06335303
21	0x3c5232b5	0.012829472
22	0xbdb50126	-0.0883811
23	0xbda7dc8f	-0.08196365
24	0x3b475b60	0.0030419454
25	0xbc841c8a	-0.01612689
26	0xbd40dccf	-0.04708558
27	0x3ceab016	0.028648417
28	0xbc9d36cb	-0.019191166
29	0x3d488431	0.048954193
30	0x3c5c42a4	0.013443623
31	0xbd2ab727	-0.041678574
32	0xbe116a07	-0.14200602
33	0x3ced3141	0.02895415
34	0xbd921d7f	-0.07134532
35	0xbc68fa82	-0.014219882
36	0xba45e4f8	-0.00075490726
37	0xbd351f9f	-0.04421961
38	0x3d2cee38	0.04221937
39	0xbd91b846	-0.071152255
40	0xbcc47350	-0.023980767
41	0x389a7433	7.364936e-05
42	0x3d025ecf	0.031828698
43	0xbdc3f127	-0.095674805
44	0xbba42b0f	-0.005010016
45	0x3c715ab0	0.014731094
46	0xbd932898	-0.07185477
47	0xbc345d8e	-0.011008633
48	0xbccb32d8	-0.024804518
49	0x3d875e04	0.06609729
50	0xbd36fb7b	-0.044673424
51	0xbc872b45	-0.016500125
52	0xbd2202cf	-0.03955346
53	0xbcc8d3ae	-0.024515
54	0x3d2cf575	0.042226274
55	0xbdce10b5	-0.1006178
56	0x3d7beb63	0.06150378
57	0x3db280d2	0.08715977
58	0x3cc40405	0.023927698
59	0x3d88cffc	0.06680295
60	0xbd28f572	-0.0412497
61	0x3c8729eb	0.01649948
62	0x3c9d3590	0.01919058
63	0xbe3375f4	-0.17525464
64	0xbe7683bd	-0.24073692
65	0xbd201f9c	-0.039092645
66	0xbe0debd7	-0.13859497
67	0xbda55fea	-0.08074935
68	0xbe8133bc	-0.25234783
69	0x3c175e55	0.009238799
70	0xbd202d87	-0.03910592
71	0xbe8764e7	-0.2644417
72	0x3e833c35	0.25631872
73	0x3d90673f	0.07050943
74	0xbf0a774f	-0.540883
75	0x3d1ea60a	0.038732566
76	0xbd19c552	-0.037541695
77	0x3e99e2ad	0.30055752
78	0xbd99883c	-0.07496688
79	0xbd4ed759	-0.05049834
80	0x3d63d3eb	0.055622023
81	0x3dc5960c	0.0964776
82	0x3e1a3d28	0.15062392
83	0x3e0c1f66	0.13683853
84	0xbd4121ad	-0.047151256
85	0x3e394e96	0.18096384
86	0x3e04e673	0.12978534
87	0x3afd9f64	0.001934987
88	0x3e163b05	0.14670952
89	0xbd757004	-0.05992128
90	0x3e42d746	0.19027433
91	0x3d56c917	0.052437868
92	0x3e61e89a	0.22061387
93	0x3ef93b0c	0.48677862
94	0x3dafe4b0	0.085885406
95	0xbc15734f	-0.00912173
96	0xbd6c9221	-0.057756547
97	0x3e9e85fe	0.30961603
98	0x3e551032	0.2080696
99	0x3db83d43	0.0899606
100	0x3e94f816	0.29095525
101	0x3ebbb5e4	0.3666221
102	0x3db3490d	0.08754168
103	0xbb843d7c	-0.00403565
104	0x3e127418	0.14302099
105	0x3e8ca0fa	0.27466565
106	0x3d392299	0.04519901
107	0x3e00c784	0.12576109
108	0x3e21f4b4	0.15816003
109	0x3d1b27bb	0.037879687
110	0xbc819ae2	-0.015820924
111	0x3e119c15	0.14219697
112	0x3e2c1325	0.16804178
113	0xbd30823e	-0.04309296
114	0x3e8dd12d	0.2769865
115	0xbd03af70	-0.032149732
116	0xbd615ec4	-0.055022016
117	0xbd869fc7	-0.06573444
118	0xbd13a80e	-0.03604894
119	0xbe11ba2c	-0.14231175
120	0xbe8bd394	-0.2730986
121	0xbe0fce08	-0.14043438
122	0xbd23c325	-0.039981026
123	0x3d032b83	0.032023918
124	0x3eb1bc0a	0.34713775
125	0x3d5d7f55	0.05407651
126	0x3bccb2b7	0.0062468904
127	0x3dd66e4f	0.104702584
128	0xbd0928bc	-0.033486113
129	0xbdea376d	-0.11436353
130	0xbe8c8d8e	-0.27451748
131	0xbd660bdc	-0.056163654
132	0xbe9d78ae	-0.30756134
133	0xbdcb047e	-0.09912966
134	0xbd8cb70b	-0.0687085
135	0xbe8537e4	-0.26019204
136	0x3d8aaba0	0.06771016
137	0xbd8959ef	-0.067066066
138	0xbe6d7d44	-0.23192316
139	0xbe1391a2	-0.14411023
140	0xbe126adf	-0.1429858
141	0xbd06f8a9	-0.032951985
142	0xbd81ff0d	-0.06347475
143	0xbdbe6dd0	-0.09298289
144	0x3bbf78a5	0.0058432394
145	0x3dc34912	0.095354214
146	0xbd5bf8e5	-0.05370416
147	0x3e2cf02b	0.16888492
148	0xbd922e89	-0.07137782
149	0xbcc3161c	-0.023814254
150	0x3e2bd3a0	0.16779947
151	0xbcf8f575	-0.03039048
152	0x3eb25e2d	0.34837475
153	0xbd6aa7e1	-0.057289008
154	0x3e03f90d	0.12887974
155	0x3dde0975	0.108416475
156	0x3c28c082	0.010299804
157	0x3bdabddd	0.0066754655
158	0x3c4393cd	0.011937094
159	0x3d25f772	0.040519185
160	0xbe748a2b	-0.23880832
161	0x3ced9c1a	0.0290051
162	0x3d0b96fc	0.034079537
163	0x3e54ceb3	0.20781974
164	0x3d181020	0.037124753
165	0x3e88e63e	0.2673816
166	0xbdf53bab	-0.119742714
167	0xbdd5193f	-0.10405206
168	0x3dfe1c94	0.124077946
169	0x3e3eccd6	0.18632826
170	0xbd1f863f	-0.038946386
171	0x3c639c56	0.013892254
172	0x3e380dac	0.17973965
173	0x3e70c2c7	0.23511802
174	0xbdc07b69	-0.093985386
175	0x3e52b3a6	0.20576343
176	0xbd9d09d1	-0.07667888
177	0x3b535112	0.0032244367
178	0x3e573f9b	0.21020357
179	0xbe45cd61	-0.19316627
180	0x3dab0c7f	0.08351993
181	0xbc791772	-0.015203344
182	0xbd0061f8	-0.03134343
183	0xbea91266	-0.3302185
184	0xbd7c4d17	-0.061596956
185	0xbe04d996	-0.12973627
186	0xbce4b6d1	-0.027919205
187	0x3c6242a6	0.013809836
188	0x3e0f25c3	0.13979249
189	0xba57b33f	-0.0008228309
190	0x3df39cee	0.11895166
191	0x3e1f41d0	0.15552449
192	0xbd89f5e5	-0.06736354
193	0xbdcb12cf	-0.09915697
194	0x3cc9c9ec	0.024632417
195	0x3d8e3d50	0.06945288
196	0xbd167d89	-0.036740813
197	0xbdf2ddd4	-0.118587166
198	0xbdcf20f5	-0.10113708
199	0xbd4775f3	-0.04869647
200	0x3d0abbc5	0.033870477
201	0xbda10548	-0.078623354
202	0x3d14b29a	0.03630314
203	0xbd29d6bc	-0.041464552
204	0x3d787d5c	0.060666427
205	0xbd94ee6c	-0.07272038
206	0xbce0b004	-0.02742768
207	0xbcc7283c	-0.024311177
208	0xbd7ed1a4	-0.062211648
209	0xbbbe0fd0	-0.005800225
210	0xbc299d87	-0.010352499
211	0x3d40da68	0.04708329
212	0xbd941daa	-0.072322205
213	0xbc910f98	-0.017707631
214	0xbcc35957	-0.023846311
215	0x3dc0c17d	0.09411905
216	0xbda9cefd	-0.08291433
217	0x3cddf3c3	0.027093774
218	0x3c93a6cf	0.018023876
219	0x3d76dcba	0.060269095
220	0xbc5c3067	-0.013439274
221	0x3caf95e1	0.021433773
222	0xbcc37ea7	-0.023864103
223	0x3ceebfc2	0.029144172
224	0xbd592bba	-0.053020217
225	0xbdb9ca96	-0.09071843
226	0xbdcfbbd7	-0.101432495
227	0xbcf234dd	-0.029566223
228	0xbd659a29	-0.05605522
229	0x3c4535b2	0.012036728
230	0xbd0151ac	-0.03157203
231	0xbd81612c	-0.06317362
232	0xbca6469e	-0.020297345
233	0xbd037107	-0.032090213
234	0x3d8dd80f	0.069259755
235	0xbd8632f5	-0.06552688
236	0xbc855d2f	-0.016279785
237	0xbd3f1765	-0.04665317
238	0xbc107600	-0.008817196
239	0xbb0579ef	-0.0020366868
240	0xbcc71d1c	-0.024305873
241	0x3d5ea630	0.054357708
242	0xbcc50c76	-0.024053793
243	0xbd2e25f1	-0.042516652
244	0x3c407973	0.011747706
245	0x3da800b0	0.08203256
246	0x3d89ba10	0.06724942
247	0xbbc80fae	-0.006105385
248	0xbd5679ed	-0.05236237
249	0x3cf7ff63	0.030273145
250	0x3d2d89ea	0.042367853
251	0xbb4d9fda	-0.0031375797
252	0x3d08c6fb	0.033392888
253	0x3d92a1d8	0.071597755
254	0xbd6b6dcb	-0.057477754
255	0xbb90ec91	-0.004422732

bias f4 [32]
0	0x3d08bb0b	0.033381503
1	0xbb86a68f	-0.004109211
2	0x3c47051e	0.012147216
3	0xbbdb18ec	-0.0066863205
4	0x3e0b161e	0.13582656
5	0x3da0fd2c	0.07860789
6	0x3d1c861e	0.03821384
7	0x3d9e6505	0.07734112
8	0x3e0a26e2	0.13491395
9	0x3c915e21	0.01774508
10	0x3c3ec1ff	0.011642932
11	0x3a90cb20	0.0011046864
12	0x3df10717	0.117689304
13	0x3e29fe95	0.16601022
14	0xbdbf4a90	-0.093403935
15	0x3e0590d5	0.1304353
16	0x3d98a343	0.07453015
17	0x3e81308a	0.25232345
18	0x3dc18aea	0.09450324
19	0x3e022608	0.1270982
20	0x3d406654	0.046972588
21	0xbb8c257a	-0.0042769285
22	0x3e3807c7	0.17971717
23	0x3e022f81	0.12713434
24	0x3c4b16ff	0.012395619
25	0xbd2742c4	-0.040835157
26	0x3de0158d	0.109416105
27	0xbd21202c	-0.039337322
28	0xbd729606	-0.059225105
29	0x3d6ac296	0.057314478
30	0x3de221d3	0.11041608
31	0xbd97b3a0	-0.074073076

weight f4 [1, 32]
0	0xbd0f1c8c	-0.034939334
1	0xbe93bfc7	-0.28857252
2	0xbea33e4d	-0.3188347
3	0x3c460650	0.012086466
4	0x3dcd148e	0.10013686
5	0x3d20f752	0.039298363
6	0x3e068a5c	0.13138717
7	0xbd9c5b01	-0.07634545
8	0x3dd0d674	0.10197154
9	0x3e001dfb	0.12511437
10	0xbb2aa0b8	-0.0026035737
11	0xbeaf1712	-0.3419729
12	0x3df4e699	0.119580455
13	0xbe9e94da	-0.3097294
14	0xbdffa17e	-0.12481974
15	0x3e1f02fd	0.15528484
16	0x3e1a976f	0.1509683
17	0xbec612eb	-0.38686308
18	0xbe48dc8c	-0.19615382
19	0x3dc76682	0.09736349
20	0xbd517a5d	-0.051142085
21	0xbe4a53e0	-0.19758558
22	0x3e0044ad	0.12526198
23	0xbeaedb56	-0.34151715
24	0xbdab04d5	-0.08350531
25	0xbd4efc7b	-0.050533753
26	0x3e2d9b2b	0.16953723
27	0xbcba6969	-0.022755342
28	0xbcdcdc0f	-0.0269604
29	0xbecd675c	-0.4011792
30	0x3e665f76	0.22497353
31	0xbe2b1030	-0.16705394
