ElegantRL/EntornoObservacionesAccionesMejorado/2Msteps_PPO_0/actor__000001466368_67690.070.pt (torch, 27347 bytes, 7 tensors)

state_avg f4 [48]
0.0 0.0 0.0 0.0 0.0 0.0 0.0 0.0
0.0 0.0 0.0 0.0 0.0 0.0 0.0 0.0
0.0 0.0 0.0 0.0 0.0 0.0 0.0 0.0
0.0 0.0 0.0 0.0 0.0 0.0 0.0 0.0
0.0 0.0 0.0 0.0 0.0 0.0 0.0 0.0
0.0 0.0 0.0 0.0 0.0 0.0 0.0 0.0
00000000: 0000 0000 0000 0000 0000 0000 0000 0000
00000010: 0000 0000 0000 0000 0000 0000 0000 0000
00000020: 0000 0000 0000 0000 0000 0000 0000 0000
00000030: 0000 0000 0000 0000 0000 0000 0000 0000
00000040: 0000 0000 0000 0000 0000 0000 0000 0000
00000050: 0000 0000 0000 0000 0000 0000 0000 0000
00000060: 0000 0000 0000 0000 0000 0000 0000 0000
00000070: 0000 0000 0000 0000 0000 0000 0000 0000
00000080: 0000 0000 0000 0000 0000 0000 0000 0000
00000090: 0000 0000 0000 0000 0000 0000 0000 0000
000000a0: 0000 0000 0000 0000 0000 0000 0000 0000
000000b0: 0000 0000 0000 0000 0000 0000 0000 0000

state_std f4 [48]
1.0 1.0 1.0 1.0 1.0 1.0 1.0 1.0
1.0 1.0 1.0 1.0 1.0 1.0 1.0 1.0
1.0 1.0 1.0 1.0 1.0 1.0 1.0 1.0
1.0 1.0 1.0 1.0 1.0 1.0 1.0 1.0
1.0 1.0 1.0 1.0 1.0 1.0 1.0 1.0
1.0 1.0 1.0 1.0 1.0 1.0 1.0 1.0
00000000: 0000 803f 0000 803f 0000 803f 0000 803f
00000010: 0000 803f 0000 803f 0000 803f 0000 803f
00000020: 0000 803f 0000 803f 0000 803f 0000 803f
00000030: 0000 803f 0000 803f 0000 803f 0000 803f
00000040: 0000 803f 0000 803f 0000 803f 0000 803f
00000050: 0000 803f 0000 803f 0000 803f 0000 803f
00000060: 0000 803f 0000 803f 0000 803f 0000 803f
00000070: 0000 803f 0000 803f 0000 803f 0000 803f
00000080: 0000 803f 0000 803f 0000 803f 0000 803f
00000090: 0000 803f 0000 803f 0000 803f 0000 803f
000000a0: 0000 803f 0000 803f 0000 803f 0000 803f
000000b0: 0000 803f 0000 803f 0000 803f 0000 803f

weight f4 [64, 48]
0.12214324 0.14018025 0.24121629 0.14266837 0.030267846 0.27086383 0.13231188 0.25863627
0.007872057 0.11744931 0.28472963 0.0734183 -0.08192156 0.11666648 0.20616381 -0.08759687
0.13238901 0.14546154 0.25336906 0.17539755 0.04285812 0.29657772 0.24338157 0.1718717
0.047734823 0.10416423 0.38575003 0.094705366 -0.04909587 0.1711869 0.26599872 0.11192618
0.008242699 0.05685248 0.25164184 0.092143774 -0.057941392 0.25495732 0.47735995 0.08566717
0.11116305 0.05247495 0.32415122 0.14326541 -0.04229534 0.19111858 0.3409033 0.2091513
-0.0015813946 0.006427207 0.06842258 0.15698151 0.12006217 0.14070214 -0.06207537 0.05008577
-0.013054885 -0.055364866 -0.04297731 -0.027082644 0.11189472 0.15205833 -0.18185069 -0.013984719
0.08337277 -0.0011065111 0.018151293 0.09938287 0.15020064 0.25614947 -0.28341442 0.061130278
0.028176194 0.07870262 0.08770361 0.10362868 0.11199143 0.044251606 -0.0050759674 -0.06983158
-0.06433871 0.08371814 0.07852433 -0.021727374 0.116259195 0.11094395 0.14412887 0.016801907
0.07560095 -0.04006782 0.0456025 0.11786647 0.1814372 0.1877643 -0.035442308 0.047434196
0.116427705 0.049209636 -0.0067560477 0.08543404 0.22228022 0.24457322 -0.18069634 0.18283156
-0.08420566 0.030217692 -0.0044962764 -0.0031397014 0.12220211 0.18527606 -0.1536099 0.0820038
0.023802347 0.10758386 0.11574336 0.078936264 0.13682576 0.24545124 -0.18134715 0.22074275
0.056597393 0.036722176 0.017667107 0.12564954 0.07237795 0.1285578 -0.044250343 0.028034592
0.01900211 -0.036795598 0.04067063 0.14830884 0.10632983 0.19322953 0.16069846 0.1611084
0.07724681 0.024509955 0.07536711 0.19531277 0.2606585 0.28681985 0.0803694 0.20480564
-0.07509349 -0.039631408 0.056918588 -0.00054186414 -0.041551065 -0.064053036 -0.078227416 -0.07055216
-0.016955737 0.045844108 0.045194782 -0.08061904 0.05214325 -0.065412275 -0.01767171 -0.033894815
-0.016101731 -0.016412722 -0.07501259 -0.07217663 -0.013080777 0.0010809726 -0.03797261 0.031491134
-0.07523813 -0.0056415643 0.07351453 -0.034095425 0.07548333 0.030273113 -0.07543818 0.052892763
-0.009646926 -0.03731742 0.066842966 -0.06755331 0.008969773 -0.017502218 0.059695937 0.023334399
0.040168427 0.029522188 -0.020102525 -0.017580584 -0.06888119 0.045295604 0.06636216 0.057201028
-0.070760705 0.07884388 -0.08465995 0.016153064 0.019039003 0.14513597 -0.27730724 0.1098591
-0.042113677 0.12899391 -0.08892937 -0.028861878 0.021513496 0.20464091 -0.39401343 0.093699604
0.034332205 0.08569951 -0.026360404 0.079039745 0.11212489 0.20055142 -0.45203912 0.16401407
-0.08561889 0.031302605 0.04174885 -0.022307677 0.10560144 0.25022036 -0.2626099 0.07756344
-0.07126974 0.11652339 -0.08527522 0.066413336 0.102462016 0.16448401 -0.19110385 0.24085481
0.03736223 0.14997378 0.025402512 0.04405274 0.19693938 0.14830586 -0.25643104 0.2378055
0.07835923 -0.0030756 0.04565577 0.12492082 0.17163166 0.08668015 -0.070697196 0.050074086
-0.023923293 -0.07999518 0.028540349 0.06197265 0.17641246 0.12659934 -0.13275069 -0.07920373
00000000: 3c26 fa3d 698b 0f3e 6701 773e a817 123e
00000010: 46f4 f73c aaae 8a3e c47c 073e f96b 843e
00000020: cdf9 003c 4489 f03d 15c8 913e 555c 963d
00000030: 7ec6 a7bd d6ee ee3d 9b1c 533e fd65 b3bd
00000040: fc90 073e dff3 143e 97b9 813e 6a9b 333e
00000050: ff8b 2f3d 09d9 973e 0539 793e 23ff 2f3e
00000060: 9785 433d 0e54 d53d 0781 c53e e3f4 c13d
00000070: c018 49bd 9e4b 2f3e fc30 883e 8e39 e53d
00000080: 630c 073c 25de 683d 33d7 803e e0b5 bc3d
00000090: f453 6dbd c489 823e 8668 f43e 4572 af3d
000000a0: 74a9 e33d f9ef 563d 26f7 a53e 2bb4 123e
000000b0: e13d 2dbd 97b4 433e e18a ae3e c22b 563e
000000c0: cc46 cfba 529b d23b 2321 8c3d c3bf 203e
000000d0: 28e3 f53d 3914 103e be42 7ebd bd26 4d3d
000000e0: 28e4 55bc 45c6 62bd fa08 30bd 6cdc ddbc
000000f0: 0f29 e53d 2eb5 1b3e 1137 3abe 2a20 65bc
00000100: 58bf aa3d 5a08 91ba 05b2 943c 3f89 cb3d
00000110: 32ce 193e 0626 833e b21b 91be be63 7a3d
00000120: c3d1 e63c d72e a13d f39d b33d 463b d43d
00000130: c35b e53d 2c41 353d 4d54 a6bb dc03 8fbd
00000140: 03c4 83bd 6b74 ab3d 5dd1 a03d 9bfd b1bc
00000150: 4d19 ee3d 9536 e33d 8596 133e 27a4 893c
00000160: acd4 9a3d 281e 24bd b0c9 3a3d fa63 f13d
00000170: acca 393e 4945 403e f42b 11bd 5c4a 423d
00000180: a671 ee3d 0b90 493d d661 ddbb 0bf8 ae3d
00000190: 6d9d 633e 6771 7a3e 7608 39be 3238 3b3e
000001a0: 0474 acbd 188b f73c 8055 93bb 73c3 4dbb
000001b0: 1a45 fa3d 02b9 3d3e ea4b 1dbe 9cf1 a73d
000001c0: 24fd c23c ed54 dc3d db0a ed3d 56a9 a13d
000001d0: 0d1c 0c3e 9257 7b3e 11b3 39be 630a 623e
000001e0: abd2 673d fe69 163d 9cba 903c 46aa 003e
000001f0: e43a 943d a8a4 033e d93f 35bd cda8 e53c
00000200: 50aa 9b3c fbb6 16bd 3f96 263d 46de 173e
00000210: 74c3 d93d f6dd 453e 238e 243e 9af9 243e
00000220: 9333 9e3d 1ac9 c83c 125a 9a3d 1200 483e
00000230: 0875 853e 0dda 923e b698 a43d 92b8 513e
00000240: 9eca 99bd 8b54 22bd 7723 693d e30b 0eba
00000250: 7331 2abd 3d2e 83bd b235 a0bd a77d 90bd
00000260: c2e6 8abc 08c7 3b3d 2a1e 393d 981b a5bd
00000270: 2994 553d dff6 85bd 43c4 90bc 4ad5 0abd
00000280: c7e7 83bc f973 86bc 33a0 99bd 57d1 93bd
00000290: c150 56bc 6caf 8d3a 2b89 1bbd d9fc 003d
000002a0: 7316 9abd dfdc b8bb c98e 963d a5a7 0bbd
000002b0: 0197 9a3d 52ff f73c 557f 9abd 15a6 583d
000002c0: 240e 1ebc 27da 18bd f7e4 883d 6459 8abd
000002d0: f4f5 123c d060 8fbc ba83 743d c827 bf3c
000002e0: a687 243d 84d8 f13c 0dae a4bc 2805 90bc
000002f0: 9511 8dbd e287 393d e2e8 873d a04b 6a3d
00000300: fdea 90bd e678 a13d 3262 adbd 6e53 843c
00000310: aff7 9b3c 869e 143e 37fb 8dbe cffd e03d
00000320: 647f 2cbd fb16 043e 9a20 b6bd bf6f ecbc
00000330: 123d b03c 638d 513e 21bc c9be 94e5 bf3d
00000340: ed9f 0c3d 3a83 af3d c6f1 d7bc 97df a13d
00000350: bca1 e53d 5a5d 4d3e ac71 e7be 4ef3 273e
00000360: f558 afbd 2937 003d d800 2b3d 97be b6bc
00000370: 9145 d83d e21c 803e ce74 86be 95d9 9e3d
00000380: dff5 91bd d1a3 ee3d c6a4 aebd b703 883d
00000390: 9bd7 d13d 7f6e 283e bab0 43be a5a2 763e
000003a0: 2309 193d ba92 193e ee18 d03c a570 343d
000003b0: 7aaa 493e 7edd 173e ee4a 83be 4983 733e
000003c0: ce7a a03d 0190 49bb 8b01 3b3d 7dd6 ff3d
000003d0: 36c0 2f3e 5d85 b13d b1c9 90bd 7c1a 4d3d
000003e0: c8fa c3bc 83d4 a3bd 73cd e93c 09d7 7d3d
000003f0: 78a5 343e 42a3 013e ccef 07be 9135 a2bd

bias f4 [64]
0.26569617 0.08699172 -0.009248974 -0.03277056 0.024987502 0.00729481 0.003455126 -0.09101237
0.049167015 0.007189793 0.20932628 0.039511085 0.0140996175 -0.029455211 0.005266909 -0.040622104
-0.06578818 0.17394285 -0.05363017 0.035652984 0.04725654 0.05978328 -0.13680974 0.006785214
-0.05058909 0.009231883 -0.042936016 0.051208183 -0.062048987 -0.02416579 0.028224872 -0.008315103
0.02686519 -0.0944276 -0.11028732 0.035731737 -0.0031261004 0.09906821 -0.038917154 -0.059936874
-0.070017606 0.0015027926 0.012540921 -0.06387054 -0.008686297 -0.05988902 0.09173794 -0.07749897
0.04325296 0.013837573 -0.12187446 0.019470258 0.00021948044 -0.013031173 0.004932676 -0.1531438
0.037185058 -0.016568627 -0.034799635 -0.030122794 -0.04652294 -0.10706125 0.002646866 0.05690398
00000000: 5409 883e b728 b23d 0289 17bc 6c3a 06bd
00000010: 97b2 cc3c 4d09 ef3b 656f 623b b264 babd
00000020: 5a63 493d 5b98 eb3b a159 563e 60d6 213d
00000030: 1502 673c 0e4c f1bc 0996 ac3b 5d63 26bd
00000040: f4bb 86bd 131e 323e 4fab 5bbd dd08 123d
00000050: 1390 413d 50df 743d da17 0cbe 8056 de3b
00000060: 8136 4fbd 5341 173c addd 2fbd acbf 513d
00000070: 1427 7ebd 56f7 c5bc d937 e73c 123c 08bc
00000080: 6314 dc3c 4263 c1bd 52de e1bd 715b 123d
00000090: 43df 4cbb 46e4 ca3d 9867 1fbd 5e80 75bd
000000a0: 6465 8fbd 5af9 c43a 6f78 4d3c 8fce 82bd
000000b0: f850 0ebc 304e 75bd 1ae1 bb3d c8b7 9ebd
000000c0: 042a 313d fdb6 623c 5199 f9bd 1780 9f3c
000000d0: 5524 6639 b380 55bc 49a2 a13b bad1 1cbe
000000e0: 5c4f 183d eeba 87bc 108a 0ebd 14c4 f6bc
000000f0: d78e 3ebd ee42 dbbd 0b77 2d3b 2614 693d

weight f4 [32, 64]
0.013044191 -0.005703289 -0.044454005 0.019239888 -0.076251715 0.061382346 0.06644871 0.016338658
-0.03533585 -0.08171397 6.0008442e-05 0.063819736 -0.07621827 -0.09187861 0.0072351485 -0.0277739
-0.07205192 -0.07627792 -0.0038697966 -0.050502952 0.05043458 0.0024240701 -0.07035926 -0.06524942
0.0024215581 -0.01283816 -0.045254014 0.022803633 -0.023062283 0.038969934 0.0107015325 -0.033175543
-0.12082641 0.015273141 -0.05679994 -0.01132017 -0.00838524 -0.035202876 0.033609726 -0.05664744
-0.01908874 5.8630496e-05 0.025339698 -0.08394258 -0.0039876085 0.011725735 -0.057202324 -0.008763704
-0.027531376 0.04483097 -0.035559293 -0.013136434 -0.03148841 -0.02727914 0.033615198 -0.08009853
0.048959766 0.0693822 0.019045997 0.04539649 -0.032835763 0.013135912 0.015277653 -0.13951248
-0.5176255 0.0017154883 -0.106086865 -0.06428038 -0.22601992 0.048165206 -0.031131994 -0.2196046
0.31895885 0.056130882 -0.8087977 0.030833028 0.009731998 0.3005376 -0.05967758 -0.04020082
0.044277485 0.08202781 0.119907275 0.1089355 -0.037536096 -0.3004093 0.10331257 0.0015403125
0.11679553 -0.047699742 0.27856258 0.041740403 0.13015045 0.39280424 0.15873933 -0.007261232
-0.05736253 0.23734683 0.15012473 0.071608305 0.21807437 0.45325407 0.11943176 -0.0032126363
0.11385854 0.34791678 0.03598034 0.1776406 0.42342764 0.030155785 0.03450689 0.11320847
0.19500028 -0.1456259 0.22050977 0.011258596 -0.030974118 -0.027881248 -0.028697567 -0.2894814
-0.21740192 -0.1117921 0.011305208 0.04802925 0.31344965 0.043044936 0.00497278 0.083344765
-0.1960292 -0.09229955 -0.22834401 -0.04470806 -0.25170794 -0.08313945 -0.054703422 -0.17336707
0.05837357 -0.053388085 -0.18895452 -0.11472242 -0.12178544 0.016980357 -0.050531954 -0.07401401
0.004651667 0.055364367 -0.04275052 0.13444477 -0.056825154 -0.0400281 0.13358282 -0.024192227
0.2773173 -0.04560114 0.106068484 0.0862996 0.010732968 -0.002768155 0.009483735 0.0322576
-0.2064757 0.01198388 0.019983117 0.16544384 0.029554663 0.21964796 -0.09657535 -0.08283363
0.09876666 0.1760046 -0.031003337 0.0082838135 0.14606301 0.18715261 -0.07762693 0.16379489
-0.10851292 -0.023152912 0.16731685 -0.15760247 0.066484265 -0.018378187 -0.024950821 -0.26286018
-0.049033925 -0.103273876 -0.02596827 0.099921 0.11509269 -0.00065495475 0.09469419 0.123802826
-0.05362497 -0.078929864 0.019608429 0.055289496 -0.029250287 -0.094402894 -0.08051396 -0.03876508
0.026962752 -0.06259586 0.028899172 -0.033005044 0.0482933 -0.05788884 -0.02183382 -0.019353082
-0.049521472 -0.00461679 -0.008240514 0.037482433 -0.057573035 -0.014097227 -0.018981742 0.07492735
-0.06599845 0.021566479 0.014348312 0.047975097 -0.010698094 0.017062223 -0.018995788 0.02320075
-0.04220775 -0.0722188 -0.08074671 -0.023535585 -0.044621315 0.009582062 -0.025133697 -0.050291058
-0.016159475 -0.025547354 0.055137753 -0.052163202 -0.012958712 -0.037138138 -0.007019187 -0.0016211924
-0.019348865 0.043271463 -0.019148313 -0.033845805 0.009352358 0.06530372 0.053534094 -0.004860202
-0.04168109 0.024098188 0.033727635 -0.0024976975 0.026582448 0.056998476 -0.045752298 -0.0035209514
00000000: 4db7 553c a8e2 babb 6715 36bd f89c 9d3c
00000010: dc29 9cbd 0e6c 7b3d 4316 883d a6d8 853c
00000020: 53bc 10bd a759 a7bd 93b1 7b38 ecb3 823d
00000030: 5318 9cbd da2a bcbd d314 ed3b 1786 e3bc
00000040: f58f 93bd 9937 9cbd 6a9c 7dbb 2fdc 4ebd
00000050: 7d94 4e3d 26dd 1e3b 8418 90bd 7da1 85bd
00000060: 01b3 1e3b 2557 52bc 465c 39bd afce ba3c
00000070: 1ded bcbc f09e 1f3d 7b55 2f3c 14e3 07bd
00000080: d673 f7bd 323c 7a3c 0ea7 68bd 3c78 39bc
00000090: 3f62 09bc e430 10bd 5aaa 093d 2507 68bd
000000a0: fd5f 9cbc 04ea 7538 3395 cf3c 16ea abbd
000000b0: 7caa 82bb 4c1d 403c fc4c 6abd a495 0fbc
000000c0: 7b89 e1bc aea0 373d 9fa6 11bd 333a 57bc
000000d0: fef9 00bd 8178 dfbc 17b0 093d b30a a4bd
000000e0: 098a 483d 4118 8e3d 5a06 9c3c abf1 393d
000000f0: cb7e 06bd 0238 573c 1f4f 7a3c 5cdc 0ebe
00000100: 1b83 04bf 3cda e03a 1244 d9bd 6fa5 83bd
00000110: c471 67be e148 453d 8608 ffbc 07e0 60be
00000120: 934e a33e 7fe9 653d 5e0d 4fbf 8c95 fc3c
00000130: f572 1f3c 10e0 993e 7a70 74bd 9da9 24bd
00000140: 4f5c 353d 32fe a73d f291 f53d 9319 df3d
00000150: 73bf 19bd 3fcf 99be 8a95 d33d 50e4 c93a
00000160: 7f32 ef3d ce60 43bd c19f 8e3e fcf7 2a3d
00000170: 2946 053e a31d c93e 908c 223e a1ef edbb
00000180: f9f4 6abd 0c0b 733e 4cba 193e 60a7 923d
00000190: e34e 5f3e eb10 e83e a398 f43d 188b 52bb
000001a0: ab2e e93d 2622 b23e 1f60 133d 6be7 353e
000001b0: 82cb d83e 4409 f73c 1957 0d3d d8d9 e73d
000001c0: 27ae 473e f51e 15be 50cd 613e f975 383c
000001d0: 6fbd fdbc 3767 e4bc 2917 ebbc e836 94be
000001e0: 9c9e 5ebe 42f3 e4bd 7b39 393c 52ba 443d
000001f0: 797c a03e e34f 303d b4f2 a23b a9b0 aa3d
00000200: e1bb 48be 8c07 bdbd 03d3 69be cc1f 37bd
00000210: dddf 80be 0445 aabd b210 60bd 2387 31be
00000220: 2019 6f3d 77ad 5abd 4b7d 41be 97f3 eabd
00000230: a56a f9bd 641a 8b3c 98fa 4ebd a894 97bd
00000240: 036d 983b bfc5 623d 2b1b 2fbd e4ab 093e
00000250: 7ec1 68bd 81f4 23bd efc9 083e c72e c6bc
00000260: 88fc 8d3e 43c8 3abd 6f3a d93d d8bd b03d
00000270: 55d9 2f3c ef69 35bb ab61 1b3c 8c20 043d
00000280: 5e6e 53be 0958 443c a2b3 a33c 1c6a 293e
00000290: 9f1c f23c 65eb 603e 4cc9 c5bd aea4 a9bd
000002a0: 2d46 ca3d 8d3a 343e b6fa fdbc d5b8 073c
000002b0: 8b91 153e efa4 3f3e defa 9ebd d9b9 273e
000002c0: 063c debd 2dab bdbc 1c55 2b3e 8b62 21be
000002d0: e728 883d da8d 96bc aa65 ccbc 9c95 86be
000002e0: ccd7 48bd 4181 d3bd 69bb d4bc 62a3 cc3d
000002f0: b7b5 eb3d 45b1 2bba 07ef c13d 568c fd3d
00000300: dba5 5bbd fba5 a1bd dba1 a03c 3d77 623d
00000310: 4c9e efbc 4e56 c1bd 81e4 a4bd 22c8 1ebd
00000320: fde0 dc3c 4232 80bd f5bd ec3c 4c30 07bd
00000330: 32cf 453d d91c 6dbd d7dc b2bc 5b8a 9ebc
00000340: 07d7 4abd 7148 97bb 3903 07bc 2e87 193d
00000350: b4d1 6bbd 0ef8 66bc 997f 9bbc 8373 993d
00000360: 322a 87bd 2fac b03c 2f15 6b3c 8981 443d
00000370: 0f47 2fbc 13c6 8b3c 0e9d 9bbc 800f be3c
00000380: 09e2 2cbd 73e7 93bd 885e a5bd b3cd c0bc
00000390: d7c4 36bd 15fe 1c3c 2fe5 cdbc fffd 4dbd
000003a0: e060 84bc af48 d1bc 20d8 613d 15a9 55bd
000003b0: c750 54bc 291e 18bd 3501 e6bb 317e d4ba
000003c0: 8381 9ebc 6b3d 313d ecdc 9cbc e6a1 0abd
000003d0: a23a 193c f5bd 853d 9146 5b3d 5442 9fbb
000003e0: cab9 2abd 9069 c53c fd25 0a3d 69b0 23bb
000003f0: 6fc3 d93c 3c77 693d c366 3bbd c3bf 66bb

bias f4 [32]
0.018790271 0.031925928 0.01205357 -0.005322703 0.13753824 0.06258339 0.06568259 0.061568048
0.11110955 0.04877529 0.0024698721 -0.065828 0.12741838 0.114833325 -0.0743554 0.14277907
0.0971525 0.18228728 0.06729131 0.12896529 0.039607685 -0.0022785563 0.17653811 0.056595188
0.009867031 -0.03250915 0.12722799 -0.03131861 -0.04714608 0.17678611 0.12760372 -0.058971126
00000000: 0eee 993c c3c4 023d 567c 453c 126a aebb
00000010: d3d6 0c3e b82b 803d 9884 863d c72e 7c3d
00000020: 678d e33d 99c8 473d 94dd 213b d5d0 86bd
00000030: f779 023e bc2d eb3d a547 98bd ad34 123e
00000040: e4f7 c63d 84a9 3a3e 07d0 893d 7a0f 043e
00000050: ab3b 223d d553 15bb 68c6 343e 5bd0 673d
00000060: 54a9 213c 5128 05bd 0e48 023e f147 00bd
00000070: 3f1c 41bd 6b07 353e 8daa 023e b58b 71bd

weight f4 [1, 32]
-0.020030722 -0.26969323 -0.33618236 0.009621597 0.11874422 0.03128719 0.13669512 -0.06078115
0.11225609 0.12863518 0.0015625354 -0.2816403 0.1326704 -0.31811646 -0.09936009 0.1589927
0.15495582 -0.30477408 -0.14824975 0.11149124 -0.19141643 -0.21345566 0.13482425 -0.29644802
-0.06647231 -0.040229145 0.17688748 -0.018115705 -0.021460908 -0.6278014 0.22265981 -0.13298006
00000000: 7817 a4bc 3b15 8abe 1820 acbe e7a3 1d3c
00000010: 2b30 f33d ff26 003d cef9 0b3e a8f5 78bd
00000020: 85e6 e53d f1b8 033e fdcd cc3a 2833 90be
00000030: c0da 073e 29e0 a2be 4e7d cbbd fbce 223e
00000040: bdac 1e3e 590b 9cbe c8ce 17be 8555 e43d
00000050: ab02 44be 1f94 5abe 5e0f 0a3e 09c8 97be
00000060: a222 88bd 51c7 24bd fe21 353e 6367 94bc
00000070: c9ce afbc 98b7 20bf ef00 643e ed2b 08be
