ElegantRL/EntornoObservacionesAccionesMejorado/2Msteps_PPO_0/actor__000000028672_47365.270.pt (torch, 27347 bytes, 7 tensors)

state_avg f4 [48]
00000000: 0000 0000 0000 0000 0000 0000 0000 0000
00000010: 0000 0000 0000 0000 0000 0000 0000 0000
00000020: 0000 0000 0000 0000 0000 0000 0000 0000
00000030: 0000 0000 0000 0000 0000 0000 0000 0000
00000040: 0000 0000 0000 0000 0000 0000 0000 0000
00000050: 0000 0000 0000 0000 0000 0000 0000 0000
00000060: 0000 0000 0000 0000 0000 0000 0000 0000
00000070: 0000 0000 0000 0000 0000 0000 0000 0000
00000080: 0000 0000 0000 0000 0000 0000 0000 0000
00000090: 0000 0000 0000 0000 0000 0000 0000 0000
000000a0: 0000 0000 0000 0000 0000 0000 0000 0000
000000b0: 0000 0000 0000 0000 0000 0000 0000 0000
0.0 0.0 0.0 0.0 0.0 0.0 0.0 0.0
0.0 0.0 0.0 0.0 0.0 0.0 0.0 0.0
0.0 0.0 0.0 0.0 0.0 0.0 0.0 0.0
0.0 0.0 0.0 0.0 0.0 0.0 0.0 0.0
0.0 0.0 0.0 0.0 0.0 0.0 0.0 0.0
0.0 0.0 0.0 0.0 0.0 0.0 0.0 0.0

state_std f4 [48]
00000000: 0000 803f 0000 803f 0000 803f 0000 803f
00000010: 0000 803f 0000 803f 0000 803f 0000 803f
00000020: 0000 803f 0000 803f 0000 803f 0000 803f
00000030: 0000 803f 0000 803f 0000 803f 0000 803f
00000040: 0000 803f 0000 803f 0000 803f 0000 803f
00000050: 0000 803f 0000 803f 0000 803f 0000 803f
00000060: 0000 803f 0000 803f 0000 803f 0000 803f
00000070: 0000 803f 0000 803f 0000 803f 0000 803f
00000080: 0000 803f 0000 803f 0000 803f 0000 803f
00000090: 0000 803f 0000 803f 0000 803f 0000 803f
000000a0: 0000 803f 0000 803f 0000 803f 0000 803f
000000b0: 0000 803f 0000 803f 0000 803f 0000 803f
1.0 1.0 1.0 1.0 1.0 1.0 1.0 1.0
1.0 1.0 1.0 1.0 1.0 1.0 1.0 1.0
1.0 1.0 1.0 1.0 1.0 1.0 1.0 1.0
1.0 1.0 1.0 1.0 1.0 1.0 1.0 1.0
1.0 1.0 1.0 1.0 1.0 1.0 1.0 1.0
1.0 1.0 1.0 1.0 1.0 1.0 1.0 1.0

weight f4 [64, 48]
00000000: 3940 d1bb 9643 903d 63b1 f9bd 6e38 e3bd
00000010: bdbd 7dbd 73b6 043d 7aa1 ffba afbc d93d
00000020: 6a58 92bc 0c84 013d 88bb 42bd 17db 09bd
00000030: 19eb 12be 90b0 ccbd 507b 67bd 30fc c2ba
00000040: b108 523d fdd6 a23d 083e cfbd 1870 8abd
00000050: 34ad 373d 1280 e83d 078c eabc e85b cd3d
00000060: 4dbc e6bc 7f7d 123c fed5 ff3d fd30 0dbe
00000070: ec49 c6bd 41ec 27bd a742 59bd 1528 ef3d
00000080: fd04 c8bd a542 93bd a94d d5bd 334c 0ebe
00000090: f188 b8bd 6c15 f23d 065b 883d 5192 803d
000000a0: 41ae 1a3b 7891 a2bd d9fe a13c df63 0dbe
000000b0: f80c e4bd 8279 9cbd c4c5 b63d 722b 9e3d
000000c0: b026 91bd c111 ac3c 8297 ac3d 9e11 113e
000000d0: 9b6b 803d c29a 063d 3e6d c53d ef2d 13be
000000e0: 465f a73c 872d adbd c228 d9bd 4948 92bd
000000f0: f0cd 953d f562 9c3d ee1d bfbd 274c 34bc
00000100: 6a87 973d dc3f 053c 1485 d2ba 546e 213d
00000110: 28f9 cc3d bbb8 253e c00f 0cbe e070 cbbd
00000120: 673a 493d d3f1 133e 1d0d f03d 3eec 043e
00000130: 9cb1 263d 6ae0 d0bd bed9 22bc 7816 12be
00000140: 3a81 0dbe d5b5 1c3e 99eb cf3d 40a8 07be
00000150: 1ea0 263d c787 ad3b 6dcc 14bd cde3 e3bd
00000160: cf76 5f3d 1950 6fbd da83 393d 26a2 b13d
00000170: 4584 f63d e027 b93d 87e3 2cbe eb02 05be
00000180: c601 cd3d 378d a03d 7aa9 bfbd 72cc 4ebd
00000190: e257 453e 9353 143e 9935 fbbc 5c80 f0bc
000001a0: 23e0 dcbd b129 3c3d bcc1 b7bd 1db6 98bd
000001b0: 9cad 553d 9a4b 993d c818 3cbd 2ca3 bf3d
000001c0: e531 67bd 405b 363e 9de8 ec3d 6a98 98bd
000001d0: 5fcf dc3c 143a 823d 8814 bc3b f094 313d
000001e0: 9fb0 b13d e0b6 693d 526f 54bd 2c4c f53d
000001f0: a49a 95bd da93 b4bc 3083 73bd 0715 79bd
00000200: d54e 81bc a95e 8cbd 44d0 4dbc 3794 b73d
00000210: 9731 d7bc 750a 863d 462b 963d ce8c f23b
00000220: ce04 263d 4c37 143d 2559 3f3d 6386 183e
00000230: d999 523e 6670 253e 554f de3d e92f 803c
00000240: ff59 03be 89a9 8abd 2225 c73d eba9 72ba
00000250: ce5c 91bd 3a1e e0bd 0cd8 08be bcd7 f6bd
00000260: aa48 edbc ae63 a03d b81e 9e3d 6d03 0dbe
00000270: 5e6c b63d fad9 e4bd cb50 f7bc eb2a 6dbd
00000280: 3858 e1bc 80b2 e5bc 3c35 03be 0085 fcbd
00000290: 000e b7bc b90e f23a 01dd 84bd 045b 5c3d
000002a0: b79b 03be 80e6 1dbc ca9c 003e 0294 6ebd
000002b0: 220b 043e a8d3 533d 9ef6 03be 000e b93d
000002c0: 69fe 86bc d089 82bd 54dd e93d d457 ecbd
000002d0: 4f12 7b3c 74ef f4bc 16da d03d 3848 233d
000002e0: a684 8c3d 4a91 4e3d 0ea5 0cbd 2e09 f6bc
000002f0: c505 f1bd c279 9e3d 2934 e83d 3820 c83d
00000300: d53e 2cbd 23a4 623d 9e32 53bd 7424 a4bc
00000310: 7df4 41bc f95d ef3d 1161 a7bd bf95 153d
00000320: 758d 843d 3567 103e d405 71bd 910d 18bd
00000330: f95c 17bc a5b5 2d3e eb0b 7fbd 1ecf 233e
00000340: e02c e53d 8e4f 893d c9c7 443d 727d 143d
00000350: 5e21 c13d df3e 2f3d a5bf 16bd 12b0 743d
00000360: 7123 51bd 470c d4bc 495d 283e 246c 4abd
00000370: 6c4f 8c3d 0fb7 623e b021 ad3a 80aa 3e3d
00000380: e8d3 74bd 8928 f53d 187f 57bd 86aa 0d3d
00000390: 4170 0d3d 03d0 8e3d e57c 43bd 9c2a 303e
000003a0: 4666 af3d 7f1d 353e 34bc 0b3e 9eb9 55bc
000003b0: 6158 1b3e fde0 19bc 3dc6 c7bd 857c d53d
000003c0: 84fd 1f3d 3901 933d 2d39 d3bc 8fd8 283c
000003d0: 4a7f 9b3d 65c6 d1bd 7daa 2e3e 5b58 4cbe
000003e0: 27f4 f3bb 6d43 74bd 3661 61bd 292d e93c
000003f0: 238e f73d a80f 06bc 69d5 e0bc a260 0dbe
-0.0063858298 0.07044141 -0.12192037 -0.110947475 -0.061948527 0.03240056 -0.001950308 0.10631692
-0.017864425 0.03162007 -0.047542125 -0.033656206 -0.14347495 -0.09994614 -0.056514084 -0.0014876183
0.05127782 0.07951162 -0.101192534 -0.067596614 0.044842914 0.113525525 -0.028631223 0.10027295
-0.02816596 0.008941053 0.12491988 -0.13788219 -0.09682068 -0.040996794 -0.05304208 0.11677567
-0.097665764 -0.07190446 -0.10415203 -0.13896255 -0.090104945 0.11820492 0.06657986 0.06277908
0.0023602399 -0.07937902 0.019774841 -0.13807629 -0.11135286 -0.07640363 0.089244395 0.0772313
-0.07087457 0.02100456 0.08427335 0.14166877 0.06270524 0.032862432 0.09639977 -0.14372991
0.020431172 -0.08455949 -0.10603477 -0.071426935 0.0731467 0.07636062 -0.093318805 -0.011004484
0.07398875 0.008132901 -0.0016061389 0.039411858 0.1000846 0.1618375 -0.13677883 -0.099336386
0.049127962 0.14447717 0.11721251 0.12980744 0.040696725 -0.101990536 -0.009939609 -0.14266384
-0.13818827 0.15303738 0.101523586 -0.13247776 0.040680043 0.005295727 -0.036327768 -0.11127434
0.054556664 -0.058425996 0.04529176 0.086735055 0.12036947 0.09040809 -0.1688367 -0.12989394
0.10010104 0.078394346 -0.09358497 -0.050487943 0.19271806 0.14485006 -0.030665206 -0.029358082
-0.10784938 0.045938198 -0.08972499 -0.0745661 0.05216752 0.07485123 -0.04592207 0.093572944
-0.056444068 0.17808247 0.11567805 -0.07450946 0.026954351 0.06358734 0.005739752 0.04335493
0.08676266 0.05705917 -0.051863976 0.11977419 -0.07304886 -0.022043157 -0.059451282 -0.06081107
-0.01578466 -0.068539925 -0.012561861 0.089638166 -0.026268763 0.06544963 0.073324725 0.007402039
0.040531926 0.036185548 0.046715874 0.14895014 0.205665 0.16156158 0.10854975 0.015647845
-0.128273 -0.067706175 0.097238794 -0.0009256887 -0.07097779 -0.10943265 -0.13363665 -0.12052867
-0.028965313 0.078315124 0.07720703 -0.13770838 0.08907388 -0.11174388 -0.030189892 -0.057902258
-0.027507886 -0.028039217 -0.12813276 -0.12330055 -0.022345543 0.0018467522 -0.06487466 0.053797737
-0.12852369 -0.009637475 0.1255981 -0.05824662 0.12894872 0.051715523 -0.12887046 0.090358734
-0.016478734 -0.06373942 0.11419168 -0.115401894 0.015324189 -0.029899336 0.101978466 0.039863795
0.06861238 0.050431527 -0.034337096 -0.030033674 -0.117686786 0.07738067 0.11338074 0.0977177
-0.04205211 0.055332314 -0.051561944 -0.020036913 -0.011838076 0.11687846 -0.08172811 0.036519762
0.06472293 0.1410187 -0.05884345 -0.037122313 -0.009238475 0.16963823 -0.062267225 0.15996978
0.111902 0.06704627 0.048042092 0.036252446 0.094301924 0.042784568 -0.03680386 0.059738226
-0.05105919 -0.02588476 0.16441835 -0.049419537 0.06851086 0.22140144 0.0013208892 0.04654932
-0.059772402 0.11970622 -0.05261144 0.034586452 0.03453088 0.06973269 -0.04772653 0.17203754
0.08564429 0.17687033 0.13646013 -0.013044743 0.15170433 -0.00939202 -0.09754608 0.10424141
0.03906013 0.071779676 -0.0257841 0.010305538 0.07592638 -0.10242919 0.17057224 -0.1995558
-0.0074448767 -0.059634615 -0.05502435 0.028463917 0.12087657 -0.008182444 -0.027445512 -0.13806394

bias f4 [64]
00000000: dff2 033e 9a57 f13d a6b7 97bd e64e 65bd
00000010: 4989 123e 5cc2 5fbd 3ed4 ef3c 7b76 0abd
00000020: d2bd 3e3d d8a7 953d 4b76 443d 1b94 b83d
00000030: 635e 45bc a467 bd3d 6848 273d 49c5 eebb
00000040: 142f e6bd aec5 273e c26a b5bc a8c6 f33d
00000050: 1d54 a53d c2d8 e23c c370 e5bd 36eb 3d3c
00000060: 355e 9abd b905 b73c adf8 60bd 5c28 b33d
00000070: 0e9e fabd 2b4f eebc c9c9 613d c9be 68bc
00000080: ee28 0f3e d235 3cbd eb86 ebbd e241 aa3d
00000090: 2e5a 163d 8774 a13d e5db b6bd d0e9 9cbd
000000a0: 4690 82bd c877 8d3c ac7f af3c b0da 94bd
000000b0: a06b ad3b b6d0 f5bc 9253 0e3e 6b33 46bd
000000c0: 818c 333e b31a 98bd 8955 80bd 0d9d 95bd
000000d0: 9a8b c03d 0d81 bcbd 54f0 183d 2bc2 75bd
000000e0: 7d77 4a3e 2360 8bbb fa9a d9bd f5ac 4d3d
000000f0: 303d cfbb fc81 e9bd f8be ab3c 2b0e e63d
0.12885617 0.11784287 -0.07408075 -0.055983447 0.14310183 -0.054628715 0.02927601 -0.033804398
0.046567746 0.07307404 0.047964375 0.09012624 -0.012046429 0.092482835 0.040840536 -0.007286702
-0.11239448 0.16384003 -0.022145633 0.11903125 0.08072684 0.027691249 -0.11203148 0.011591723
-0.075375 0.022341596 -0.054924656 0.08747932 -0.12237178 -0.029090485 0.055124078 -0.014205643
0.13980457 -0.045949765 -0.11500343 0.083133474 0.036707096 0.07883554 -0.0892866 -0.07661784
-0.06375174 0.01726903 0.021423183 -0.07268274 0.005292371 -0.030006748 0.13899067 -0.04838888
0.17534067 -0.074269675 -0.062663145 -0.07305346 0.09401627 -0.09204302 0.03733857 -0.059999626
0.19772144 -0.0042534037 -0.106252626 0.050213773 -0.006324433 -0.11401746 0.020965084 0.11233171

weight f4 [32, 64]
00000000: dbc2 113d d4bf e3bb 7909 0dbd 809f 063d
00000010: 3e63 68bd 362d e63d c06a ce3d cd80 613d
00000020: d867 52bd 947b ffbd fb19 b0bd 3b4f df3d
00000030: 223d fdbd dda4 01be de3d 7fbc 7c23 063d
00000040: 8816 fcbd 3116 f8bd fe5d 96bb 57ee 29bd
00000050: 1b71 b03d 6e46 d83c 63f5 edbd 3446 e4bd
00000060: f6f2 ad3d a8a9 b3bc 4555 78bd 2c93 1f3d
00000070: facd d5bc f941 723d afbe 913c 792a 68bd
00000080: 1897 d0bd 59c9 833d 54d1 a9bd 52da a4bc
00000090: 5450 1b3c 7ddb 99bd d380 793d 52c0 d4bd
000000a0: c1cb cf3c 83de 463c 084f 313d 953c 05be
000000b0: 8c08 883a e345 363d a422 b5bd b790 c63c
000000c0: 5d98 a7ba d12a bc3d f9cf f3bc d2ea 83bc
000000d0: 1c56 5cbd 124e f0bc a3df 9b3c c4dd f8bd
000000e0: 4ae6 a83d 98c7 a93d ead8 113d c693 ab3d
000000f0: 2a54 3abd c059 9d3c 8d91 f23a 9d9a b2bd
00000100: 9b53 38bd 2a15 7ebd b4f4 b7bd f2e7 e0bd
00000110: 732c 2abe efb1 20bd e603 1abd 94e4 10be
00000120: e52c 633d ae32 063e 4647 a13d 1839 7f3d
00000130: 501c eebd f749 d8bc 53ab c1bd 7119 a1bc
00000140: 8eea 9a3d a72e 2b3d 13bb ab3d 823a bb3d
00000150: 4f50 83bd 8703 083e 969c ca3d 0573 2c3b
00000160: 13b7 d0bd 22df a6bd 6e2b 893d 3006 923d
00000170: feed 093e 7fdd ff3d fd7f 373c c93c 4bbc
00000180: 1fbf 5e3d ab08 9abb 8103 de3d 5687 07bc
00000190: b545 2f3d 1f19 bf3d edb4 373d b371 37bd
000001a0: f9a1 193d 6bdc 42bd b3c5 7b3d a57b f23d
000001b0: ee3a b03d 91e9 c0bd bf68 acbd a65c 1c3e
000001c0: c67a d63c 85d1 8c3d 44ed b93d 405e a3bd
000001d0: 0865 4abc 7177 3abe 2a5c 59b9 a2ae 973d
000001e0: 69bd d7bd 91b3 fdbd 204d c1bd 7e14 43bd
000001f0: b0ec b93d 8068 6cbd b384 9abd b03c 89bd
00000200: 1bd8 e73d b2a1 893c 0d69 30be 3e67 9cbd
00000210: 9c33 43be a971 fdbc 02db a9bd 2a14 06bd
00000220: d736 9c3a c98f a8bd a50a 14be ca2c 48be
00000230: adec dbbd 057d ac3c 64d3 f2bd f403 6abd
00000240: db2e 023c 8c8f ec3d cc48 5ebd 8f1f 063e
00000250: 15d1 c6bd d561 8bbd a109 643d 9548 29bd
00000260: d481 603d a38d 9fbd a480 f83d b9f5 163e
00000270: d221 ac3c 6dd2 cb3d 97f3 6b3d 4bb8 613d
00000280: a4ba 00be 9177 d73c c5f3 85bd 2758 f63d
00000290: cae2 3f3c 267f 2d3c 65c3 cbbd 9637 d2bd
000002a0: 746d 563d 53a3 f83d 4cef 58bd 88b5 203d
000002b0: 2bf0 223e 68a8 143e a2a7 00bd 53d0 2b3e
000002c0: 4975 933d 05b5 b23d 814a 233c e7d7 22be
000002d0: a8f6 a83d d9de 293c 1492 8abc e9b6 05be
000002e0: 1bd7 773c 1a28 03be a564 433d a82d 723d
000002f0: 847a 6e3d 44e6 5dbd 1b6d 943d 3245 0bbd
00000300: a89a bbbd 5fdf febd 3141 8b3d 6c6f c13d
00000310: 321f ddbc 50df 15be cc4e 02be 1ffa f0bc
00000320: fcf4 803d 6806 b5bd 1077 563d 1edf 55bd
00000330: 857c c83d 9f01 96bd e90e dabc bc0a 98bc
00000340: 4643 adbd 0424 243c 1ffd 833a 97f3 9a3d
00000350: f16a c9bd b047 dcbb 2539 84bc 7f0e 033e
00000360: 6826 63bd 16e7 163d 35ef 253d ded9 a73d
00000370: bfa0 96bc cdb3 513d de77 76bc cd55 223d
00000380: 3a2b 7dbd 5a66 c8bd e017 febd 6fb0 24bd
00000390: f177 74bd 3c59 d53c e9ed d3bc 641f a0bd
000003a0: 880a 04bc 35ec b8bc ffe5 c03d 099b b6bd
000003b0: ffe4 c5bb 248c 33bd a999 873b d8be 7e3c
000003c0: f47e 2cbc 3baa c43d 5e10 c0bc c8d9 2dbd
000003d0: 35dd 823c 7cd8 033e dca3 cb3d 1d96 583c
000003e0: 70d1 9fbd 5952 443d b252 9b3d ac32 433c
000003f0: 459a 743d cfe4 ee3d 4b61 84bd 6fa9 533b
0.03558622 -0.006950358 -0.034432862 0.032866955 -0.05673527 0.11239092 0.10078955 0.055054475
-0.051368564 -0.124747425 -0.085987054 0.10903784 -0.12365176 -0.12660547 -0.015578715 0.032748684
-0.12308985 -0.12113608 -0.0045888415 -0.041487064 0.08615323 0.026400771 -0.116190694 -0.11146203
0.08493607 -0.021931484 -0.060628194 0.038958713 -0.026099194 0.059144948 0.01779112 -0.05668113
-0.10185069 0.064348884 -0.08291879 -0.020123634 0.009479601 -0.07512567 0.060913872 -0.10388245
0.025365712 0.012138012 0.04328826 -0.13011391 0.0010378524 0.044500243 -0.08844498 0.024238927
-0.0012786497 0.09187854 -0.029762255 -0.016103182 -0.053793058 -0.029334102 0.019027537 -0.121516734
0.08247049 0.082900226 0.035607256 0.08377795 -0.04549042 0.019207835 0.0018506512 -0.087208964
-0.045001607 -0.062031902 -0.0898222 -0.1098174 -0.16618519 -0.03923219 -0.037601374 -0.14149696
0.055462737 0.1310527 0.078749225 0.06231031 -0.11626494 -0.026402457 -0.094565056 -0.019665452
0.07564269 0.041792538 0.08385291 0.09142019 -0.06411802 0.13282596 0.09893148 0.0026313674
-0.10191169 -0.08148028 0.06697737 0.071300864 0.13469693 0.12493419 0.011199948 -0.012404629
0.054381486 -0.0047007403 0.10840512 -0.008272013 0.042791087 0.09330963 0.04485028 -0.044786166
0.037507985 -0.04757349 0.061467838 0.118399896 0.0860499 -0.09419549 -0.08418416 0.15269718
0.02618159 0.068759 0.09078458 -0.07976961 -0.012353189 -0.18209626 -0.00020729066 0.074063554
-0.10534174 -0.12387765 -0.094385386 -0.047626965 0.09078348 -0.057716846 -0.075448416 -0.06701028
0.11320516 0.016800735 -0.17227574 -0.076368794 -0.19062656 -0.030937986 -0.082937256 -0.032734074
0.0011918199 -0.0823055 -0.14457186 -0.19548336 -0.10738502 0.021055708 -0.11856726 -0.057132676
0.0079457415 0.11550817 -0.054268643 0.13097976 -0.09707848 -0.06805769 0.055673245 -0.041328985
0.054811314 -0.07790687 0.12133911 0.14742173 0.02101222 0.09952245 0.057605352 0.055107396
-0.12571198 0.02630213 -0.06540636 0.120285325 0.011711786 0.010589397 -0.09949378 -0.102645084
0.052350476 0.121405266 -0.052962586 0.03923562 0.1591193 0.14517367 -0.031409867 0.16778688
0.07200105 0.08725933 0.009966494 -0.15902673 0.08250171 0.010368072 -0.016915359 -0.13058056
0.015126969 -0.12808266 0.047703404 0.059125572 0.05822231 -0.054174677 0.07247373 -0.034001537
-0.09160358 -0.124449484 0.06799544 0.0944508 -0.026992414 -0.14635968 -0.12725371 -0.029416142
0.06296727 -0.088391125 0.05235964 -0.052214734 0.09789375 -0.07324528 -0.026618438 -0.018559806
-0.08460097 0.010018352 0.0010069943 0.07565992 -0.098348506 -0.006722413 -0.01614053 0.12798499
-0.05545655 0.036841474 0.04051133 0.08195852 -0.018387197 0.051196862 -0.015043227 0.039632607
-0.061808802 -0.09785147 -0.124068975 -0.040207323 -0.059684698 0.026043527 -0.02587028 -0.07818487
-0.0080591515 -0.02257357 0.09418868 -0.08916289 -0.0060392614 -0.04383482 0.0041381908 0.01554843
-0.010528315 0.096027814 -0.023445304 -0.04244402 0.01597462 0.12875551 0.09943363 0.013219384
-0.07803619 0.047930095 0.07584132 0.011913937 0.059717435 0.116647355 -0.0646387 0.0032297035

bias f4 [32]
00000000: 509d 843d 9d4f 35bd 16db 963d d785 023c
00000010: b023 fd3d bd5d f83d bc65 45bd fed5 fe3d
00000020: 186f f63d baaa 8cbd 5982 f93c 9b5e e5bd
00000030: e90f 753d 1139 ad3c 03ff c8bd 661c 913d
00000040: f917 143b ff6e f93d 6c99 003e 96e2 2e3d
00000050: 3b27 a13d 1f43 023d 0fd1 143e 48c7 b5bb
00000060: 785b 453d 291a ccbc 61dc e03c 04d0 18bd
00000070: c4b3 82bd 3d9d 9c3d e39f 853d 2d21 42bd
0.064753175 -0.04426538 0.07366006 0.00796648 0.123603225 0.12127254 -0.048192725 0.124431595
0.12032908 -0.06868501 0.030457662 -0.11199685 0.059829626 0.021145375 -0.098142646 0.07085495
0.0022597297 0.12179374 0.12558526 0.042696558 0.07868811 0.031802293 0.14532875 -0.005547438
0.048182935 -0.024914818 0.027448835 -0.037307754 -0.06381944 0.07647178 0.065246366 -0.04739492

weight f4 [1, 32]
00000000: 4928 abbc a0ea 82bd ae98 8cbd cf2e 8e3c
00000010: f717 963d 6182 a73d f32d 913d c020 a0bd
00000020: 544a 803d 2548 583d 37de 3bbc c93c 44bd
00000030: 37bc 8d3d bc10 90bd 9216 45bd 3c9d 8a3d
00000040: 45be e93d 0283 9bbd 35a6 7bbd 6a93 df3b
00000050: c846 67bd e8cd 23bd e4b9 4f3d d79a 8ebd
00000060: 53ab 11bd 7b68 18bd 31bc a03d c4f5 32bc
00000070: b9a1 27bd 48de efbd a6e3 d03c 1812 55bd
-0.020893233 -0.063924074 -0.06865059 0.017356304 0.0732879 0.08179165 0.07088842 -0.078187466
0.06264177 0.052803177 -0.011466554 -0.04790953 0.06920665 -0.07034442 -0.048117228 0.06768271
0.11413244 -0.07593347 -0.061437804 0.006822993 -0.056463987 -0.03999129 0.05071439 -0.06963127
-0.035563778 -0.037209015 0.07848395 -0.010922853 -0.040925715 -0.11712319 0.025499176 -0.05201921
