ElegantRL/EntornoObservacionesAccionesMejorado/2Msteps_PPO_0/actor__000000135168_58497.684.pt (torch, 27347 bytes, 7 tensors)

state_avg f4 [48]
0	0x00000000	0.0
1	0x00000000	0.0
2	0x00000000	0.0
3	0x00000000	0.0
4	0x00000000	0.0
5	0x00000000	0.0
6	0x00000000	0.0
7	0x00000000	0.0
8	0x00000000	0.0
9	0x00000000	0.0
10	0x00000000	0.0
11	0x00000000	0.0
12	0x00000000	0.0
13	0x00000000	0.0
14	0x00000000	0.0
15	0x00000000	0.0
16	0x00000000	0.0
17	0x00000000	0.0
18	0x00000000	0.0
19	0x00000000	0.0
20	0x00000000	0.0
21	0x00000000	0.0
22	0x00000000	0.0
23	0x00000000	0.0
24	0x00000000	0.0
25	0x00000000	0.0
26	0x00000000	0.0
27	0x00000000	0.0
28	0x00000000	0.0
29	0x00000000	0.0
30	0x00000000	0.0
31	0x00000000	0.0
32	0x00000000	0.0
33	0x00000000	0.0
34	0x00000000	0.0
35	0x00000000	0.0
36	0x00000000	0.0
37	0x00000000	0.0
38	0x00000000	0.0
39	0x00000000	0.0
40	0x00000000	0.0
41	0x00000000	0.0
42	0x00000000	0.0
43	0x00000000	0.0
44	0x00000000	0.0
45	0x00000000	0.0
46	0x00000000	0.0
47	0x00000000	0.0

state_std f4 [48]
0	0x3f800000	1.0
1	0x3f800000	1.0
2	0x3f800000	1.0
3	0x3f800000	1.0
4	0x3f800000	1.0
5	0x3f800000	1.0
6	0x3f800000	1.0
7	0x3f800000	1.0
8	0x3f800000	1.0
9	0x3f800000	1.0
10	0x3f800000	1.0
11	0x3f800000	1.0
12	0x3f800000	1.0
13	0x3f800000	1.0
14	0x3f800000	1.0
15	0x3f800000	1.0
16	0x3f800000	1.0
17	0x3f800000	1.0
18	0x3f800000	1.0
19	0x3f800000	1.0
20	0x3f800000	1.0
21	0x3f800000	1.0
22	0x3f800000	1.0
23	0x3f800000	1.0
24	0x3f800000	1.0
25	0x3f800000	1.0
26	0x3f800000	1.0
27	0x3f800000	1.0
28	0x3f800000	1.0
29	0x3f800000	1.0
30	0x3f800000	1.0
31	0x3f800000	1.0
32	0x3f800000	1.0
33	0x3f800000	1.0
34	0x3f800000	1.0
35	0x3f800000	1.0
36	0x3f800000	1.0
37	0x3f800000	1.0
38	0x3f800000	1.0
39	0x3f800000	1.0
40	0x3f800000	1.0
41	0x3f800000	1.0
42	0x3f800000	1.0
43	0x3f800000	1.0
44	0x3f800000	1.0
45	0x3f800000	1.0
46	0x3f800000	1.0
47	0x3f800000	1.0

weight f4 [64, 48]
0	0xbc8adc4c	-0.016950749
1	0x3d8da7c0	0.069167614
2	0xbe061331	-0.13093258
3	0xbdef1773	-0.116743945
4	0xbdae54e6	-0.08512287
5	0x3cc05284	0.023476847
6	0x3c0f3818	0.008741401
7	0x3da10810	0.07862866
8	0xbcd7cb51	-0.026342066
9	0x3d02805d	0.031860698
10	0xbd737237	-0.059435096
11	0xbd24a3b8	-0.040195197
12	0xbe2552eb	-0.16144912
13	0xbdd1cd17	-0.10244196
14	0xbd5656cd	-0.052328873
15	0xbcb0ff7b	-0.021606198
16	0x3d282bfb	0.041057568
17	0x3d9f86da	0.07789393
18	0xbde35736	-0.111006185
19	0xbd931823	-0.07182338
20	0x3cb281a1	0.021790328
21	0x3dd45904	0.10368541
22	0xbd01f802	-0.03173066
23	0x3d9f5bb7	0.07781165
24	0xbd122145	-0.03567626
25	0x3c24e92f	0.010065361
26	0x3dd9b7e4	0.106307775
27	0xbe0efd96	-0.13963923
28	0xbde71b71	-0.11284531
29	0xbd38c1f1	-0.045106832
30	0xbd612c2d	-0.05497377
31	0x3dbea06e	0.09307943
32	0xbdd031c2	-0.101657405
33	0xbd8a86f2	-0.0676402
34	0xbde925e8	-0.11384183
35	0xbe100977	-0.1406611
36	0xbdd8fdc7	-0.10595279
37	0x3ddb8f56	0.107206985
38	0x3d7b765a	0.061392166
39	0x3d30bf9a	0.043151475
40	0xbbc6f34f	-0.006071485
41	0xbd993b54	-0.07482019
42	0x3bac5cf3	0.005260104
43	0xbe0fc1fa	-0.1403884
44	0xbdfa68d0	-0.12227023
45	0xbda468f2	-0.08027829
46	0x3da6caf5	0.0814418
47	0x3d64b526	0.05583682
48	0xbdfbd3f1	-0.12296284
49	0xba88e391	-0.0010443797
50	0x3dd570d6	0.10421912
51	0x3e3a2f52	0.18182114
52	0x3db99ca5	0.09063081
53	0x3d9bccb3	0.07607403
54	0x3deb9218	0.115024745
55	0xbdf443da	-0.11927004
56	0xbd147b25	-0.036250252
57	0xbdd1ec85	-0.10250191
58	0xbda12592	-0.07868494
59	0xbd0d69a1	-0.034524564
60	0x3dd18367	0.10230141
61	0x3dda1dab	0.1065019
62	0xbdc94f0c	-0.0982953
63	0xbc1bdfbe	-0.0095137935
64	0x3cc0990f	0.023510484
65	0xbc5bcc0c	-0.013415348
66	0x3cb19bb2	0.021680687
67	0x3dac5256	0.08414142
68	0x3e09b670	0.134485
69	0x3e47f267	0.19526063
70	0xbe31546f	-0.17317365
71	0xbd919a62	-0.07109524
72	0xbc82ae33	-0.015952205
73	0x3df0e76c	0.1176289
74	0x3e0b234b	0.13587682
75	0x3e1f9339	0.15583505
76	0x3d969842	0.073532596
77	0xbda076c0	-0.0783515
78	0xba777cd1	-0.00094409013
79	0xbe1710d8	-0.14752519
80	0xbe493fb4	-0.19653207
81	0x3e00e019	0.12585486
82	0x3df765a7	0.120799355
83	0xbdc4aa44	-0.09602788
84	0x3d900b43	0.07033398
85	0x3c5671a3	0.013088617
86	0x3d426487	0.04745915
87	0xbde037ab	-0.10948118
88	0xbbc23fc2	-0.0059280107
89	0xbd9e7c63	-0.07738569
90	0x3d88b6a7	0.06675463
91	0x3de80a65	0.113301076
92	0x3e1780d2	0.14795235
93	0x3dbff77a	0.09373374
94	0xbdd199d7	-0.10234421
95	0xbdfe4948	-0.12416321
96	0x3d59cf43	0.053176176
97	0x3db3a5b2	0.08771838
98	0xbd88d942	-0.06682064
99	0xbbacea2b	-0.0052769384
100	0x3e4f685f	0.20254658
101	0x3e4768b2	0.19473532
102	0x3d5c2b11	0.05375201
103	0xbc488cc2	-0.0122405905
104	0xbe116083	-0.14196973
105	0x3d67877b	0.05652569
106	0xbd813ff6	-0.06311028
107	0xbcf779a8	-0.030209377
108	0x3d9506fe	0.07276724
109	0x3df4f5c6	0.1196094
110	0x3c41de89	0.011832842
111	0x3dd6a670	0.10480964
112	0xbdb35241	-0.08755923
113	0x3e3bee97	0.18352734
114	0x3e0985f0	0.1343
115	0xbc95be86	-0.018279325
116	0x3d6506fe	0.05591487
117	0x3defbd12	0.11705984
118	0x3d378ba6	0.044810914
119	0x3d9cb4a3	0.07651641
120	0x3d28866a	0.041143812
121	0x3d89a685	0.06721214
122	0xbcdae77e	-0.026721712
123	0x3e27191d	0.16318174
124	0xbd2161d3	-0.039399933
125	0x3cb52b0a	0.02211525
126	0xbbb17b07	-0.0054162773
127	0xbd1f855c	-0.03894554
128	0xbd74afee	-0.059738092
129	0xbd5b2343	-0.053500425
130	0x3c3510fa	0.011051411
131	0x3e0362f0	0.1283071
132	0x3b9d16c8	0.0047939755
133	0x3dbed568	0.09318048
134	0x3e2ff1a0	0.17182016
135	0x3cc6a0fc	0.024246685
136	0xbad2f36b	-0.0016094273
137	0x3d412404	0.047153488
138	0x3d8b4f39	0.0680222
139	0x3e3d8f2b	0.18511645
140	0x3e6b7500	0.2299385
141	0x3e3a2aba	0.18180361
142	0x3e424808	0.1897279
143	0x3d22939c	0.039691553
144	0xbdfc8148	-0.12329346
145	0xbd854542	-0.065073505
146	0x3dbf640d	0.09345255
147	0xba6938f3	-0.0008896731
148	0xbd8bb717	-0.06822031
149	0xbdd76779	-0.10517783
150	0xbe038502	-0.12843707
151	0xbded3cfd	-0.11583898
152	0xbce40c99	-0.027838038
153	0x3d9a28c0	0.07527304
154	0x3d97f688	0.07420069
155	0xbe0786fa	-0.13235083
156	0x3daf557b	0.08561226
157	0xbddbf4ac	-0.10740027
158	0xbcedb100	-0.029015064
159	0xbd63ef80	-0.055648327
160	0xbcd89331	-0.026437374
161	0xbcdcc394	-0.026948728
162	0xbdfc3c00	-0.123161316
163	0xbdf2b1cf	-0.118503205
164	0xbcafee23	-0.021475857
165	0x3ae8a2e5	0.0017748742
166	0xbd7f64a6	-0.062351845
167	0x3d53c6ff	0.05170345
168	0xbdfcfd23	-0.123529695
169	0xbc17c020	-0.009262115
170	0x3df73812	0.120712414
171	0xbd654e15	-0.055982668
172	0x3dfdd10c	0.12393388
173	0x3d4b97c4	0.04970528
174	0xbdfda998	-0.12385863
175	0x3db1da92	0.08684267
176	0xbc81bec1	-0.015838029
177	0xbd7af886	-0.061272167
178	0x3de0c621	0.1097529
179	0xbde3250b	-0.1109105
180	0x3c714e3f	0.014728128
181	0xbceb690d	-0.028736616
182	0x3dc8baaf	0.09801232
183	0x3d1cec33	0.038311195
184	0x3d870ec6	0.06594615
185	0x3d468997	0.04847106
186	0xbd072dfb	-0.033002835
187	0xbcec770a	-0.028865356
188	0xbde7a537	-0.11310809
189	0x3d984ea2	0.07436873
190	0x3ddf2b55	0.10896937
191	0x3dc0547c	0.09391114
192	0xbd744691	-0.05963761
193	0x3d8b1fdc	0.06793186
194	0xbd5bd010	-0.05366522
195	0x3c4bc5ec	0.012437325
196	0xbc7b1746	-0.015325373
197	0x3e238334	0.15968019
198	0xbc556e26	-0.01302675
199	0x3cd35e86	0.025801908
200	0x3d3cb178	0.046067685
201	0x3e19e4ec	0.15028733
202	0xbd787b85	-0.060664672
203	0xbc22284d	-0.009897304
204	0xbbdb80c3	-0.006698699
205	0x3e4ce33e	0.20008561
206	0xbd089d3f	-0.033353087
207	0x3e117ae5	0.14207037
208	0x3dc8c445	0.098030604
209	0x3da22e77	0.07919019
210	0x3d2c4b08	0.042063743
211	0x3d965633	0.0734066
212	0x3dd21ddc	0.102596015
213	0x3db55344	0.08853772
214	0xbd218248	-0.039430887
215	0x3d8e6cc9	0.06954343
216	0xbd86b04a	-0.06576593
217	0xbc25e85f	-0.010126202
218	0x3e1d9afb	0.15391152
219	0xbc83c5f2	-0.016085599
220	0x3da5aa9d	0.080891825
221	0x3e7f0dbb	0.24907582
222	0x3cb7ce4c	0.022437237
223	0x3d33a0e0	0.043854594
224	0xbd9e0d91	-0.07717431
225	0x3e04ea58	0.1298002
226	0xbd5ff334	-0.054675296
227	0x3d72cf25	0.05927958
228	0x3d47be84	0.048765674
229	0x3db2f39c	0.08737871
230	0x3d4ee79d	0.050513852
231	0x3e262ba4	0.16227585
232	0x3d89f52f	0.06736218
233	0x3e3d2d97	0.18474422
234	0x3e0217d2	0.12704399
235	0x3c73488a	0.014848838
236	0x3e29369d	0.1652474
237	0x3c422877	0.011850468
238	0xbc81f8dd	-0.015865738
239	0x3dd68e68	0.104763806
240	0xba084a69	-0.0005199076
241	0x3d183f88	0.037169963
242	0xbbec7d2b	-0.0072170696
243	0x3d2a3aee	0.041560106
244	0x3dcbe26f	0.09955298
245	0xbd89c388	-0.06726748
246	0x3e24f599	0.16109313
247	0xbe3f5bc2	-0.18687347
248	0xbd4392d1	-0.047747437
249	0xbdb68b3c	-0.089132756
250	0xbd10abd9	-0.035320137
251	0x3d463677	0.048391785
252	0x3e1360a8	0.1439234
253	0x3c8613e6	0.01636691
254	0xbd8ea3d8	-0.069648445
255	0xbe14a894	-0.14517432

bias f4 [64]
0	0x3df6302f	0.12020909
1	0x3e29260c	0.1651842
2	0xbcd6819e	-0.026184853
3	0xbd5c6466	-0.053806685
4	0x3e297a9c	0.16550678
5	0xbc8d600a	-0.017257709
6	0x3c26cc43	0.010180536
7	0xbc6b4bda	-0.014361346
8	0x3ddace97	0.10683935
9	0x3d7e3339	0.06206057
10	0x3db3fc3a	0.08788343
11	0x3d853fe7	0.06506329
12	0x3d18c478	0.037296742
13	0x3d22873c	0.03967975
14	0x3c8d5b22	0.01725537
15	0xbccbc307	-0.02487327
16	0xbddd3a9e	-0.10802196
17	0x3e4b7654	0.19869357
18	0x3bb453d2	0.005503156
19	0x3dcc3b4c	0.099722475
20	0x3d9ee7b9	0.07759041
21	0x3dabe338	0.08392948
22	0xbe000846	-0.12503156
23	0x3c36862f	0.01114039
24	0xbda67d28	-0.081293404
25	0x3c785cc4	0.015158836
26	0xbd343c7f	-0.044003006
27	0x3dac2df1	0.084072
28	0xbe16858b	-0.1469938
29	0xbd083b39	-0.033259604
30	0x3dd05b84	0.10173705
31	0xbc5fb2e1	-0.013653488
32	0x3e1c5de6	0.15270194
33	0xbdb0be03	-0.08629992
34	0xbe0113e5	-0.12605245
35	0x3d7e873e	0.062140696
36	0x3c8b8a9e	0.017033871
37	0x3dad57de	0.08464025
38	0xbd0c85b3	-0.034307193
39	0xbdc358ea	-0.095384434
40	0xbdc571ed	-0.0964087
41	0xbc4e5779	-0.012594097
42	0x3ca8adb6	0.020590644
43	0xbd81eab6	-0.06343596
44	0xbbbdacbe	-0.0057884147
45	0xbd42fc99	-0.047604177
46	0x3e2f7609	0.1713487
47	0xbd61198b	-0.054956
48	0x3dd74da0	0.10512853
49	0xbbdd120c	-0.006746536
50	0xbd5aad88	-0.05338815
51	0xbcc824c1	-0.024431588
52	0x3dc4ffce	0.09619103
53	0xbd408dc0	-0.047010183
54	0x3c85bcf1	0.016325446
55	0xbd21973f	-0.03945088
56	0x3e353ba7	0.17698537
57	0xbcb33899	-0.021877574
58	0xbd606030	-0.05477923
59	0x3db17e46	0.08666663
60	0xbd176eab	-0.036970776
61	0xbde696cb	-0.1125923
62	0x3d37ae83	0.04484416
63	0x3e1f2e6d	0.15545054

weight f4 [32, 64]
0	0x3d0c197f	0.034204002
1	0x368bc959	4.1659628e-06
2	0xbd567a23	-0.052362572
3	0x3d01637e	0.031589024
4	0xbddbce61	-0.10732723
5	0x3de18c3f	0.11013078
6	0x3ddf7546	0.1091104
7	0x3d223df5	0.039609868
8	0xbd11c745	-0.03559043
9	0xbe001eaf	-0.12511705
10	0x3c533438	0.012890868
11	0x3dd6a1e2	0.104800954
12	0xbdedaac6	-0.11604838
13	0xbe0d6127	-0.13806592
14	0x3c42a1a7	0.011879361
15	0xbd3ac643	-0.045599233
16	0xbdf247d9	-0.1183011
17	0xbdd2fad9	-0.10301752
18	0x3b3b9624	0.0028623426
19	0xbda9d332	-0.082922354
20	0x3da9980c	0.08280954
21	0x3cd70874	0.026249148
22	0xbde0decd	-0.10979996
23	0xbddb6778	-0.107130945
24	0x3c60bcec	0.0137169175
25	0xbcacab8c	-0.021077894
26	0xbd563c46	-0.052303575
27	0x3d195ef8	0.037444085
28	0xbccd7ddc	-0.025084428
29	0x3d830691	0.06397737
30	0x3cdcd173	0.026955342
31	0xbd5f21dc	-0.05447565
32	0xbe341a67	-0.17588197
33	0x3d1b011f	0.037842866
34	0xbdbef334	-0.09323731
35	0xbc984198	-0.018585965
36	0xba420118	-0.00074006757
37	0xbd6cbee4	-0.057799235
38	0x3d847776	0.06468098
39	0xbdbe7b17	-0.09300821
40	0xbd0063db	-0.03134523
41	0x38c9ddca	9.625738e-05
42	0x3d2a6ab1	0.041605655
43	0xbe000e3a	-0.12505427
44	0x3b1a5d9a	0.0023554326
45	0x3c9db940	0.019253373
46	0xbdad410f	-0.084596746
47	0xbbebb48c	-0.0071931537
48	0xbd04cc3d	-0.03242134
49	0x3dc40cd4	0.09572759
50	0xbd6f2acd	-0.058390427
51	0xbc48ee89	-0.012263902
52	0xbd53c251	-0.051698986
53	0xbcb7a98a	-0.02241971
54	0x3d621126	0.055192135
55	0xbdfcbd5d	-0.12340806
56	0x3da4a12d	0.08038554
57	0x3de94d46	0.11391692
58	0x3d25c180	0.04046774
59	0x3dc6ba8a	0.09703548
60	0xbd3abb7d	-0.04558896
61	0x3cfac329	0.030610638
62	0x3ccd7c45	0.02508367
63	0xbe6a8f72	-0.22906283
64	0xbd31255a	-0.04324851
65	0xbdecd7c5	-0.11564592
66	0xbe3bbef7	-0.18334566
67	0xbdd82805	-0.10554508
68	0xbe7918cc	-0.24325866
69	0xbcfb9945	-0.030712733
70	0xbd513d88	-0.05108407
71	0xbe5ebeba	-0.21752444
72	0x3dcfe687	0.101513915
73	0x3e07edbc	0.13274282
74	0xbc61e185	-0.013786678
75	0x3d8c2334	0.06842652
76	0xbdc4a2e9	-0.09601385
77	0xbd14f11a	-0.036362745
78	0xbdbab9b2	-0.0911745
79	0xbd40505c	-0.046951637
80	0x3d94e57a	0.07270332
81	0x3d86a939	0.065752454
82	0x3d7c15ec	0.061544344
83	0x3e3f911d	0.187077
84	0xbd7c6f07	-0.06162932
85	0x3e10dc43	0.14146523
86	0x3e017819	0.1264347
87	0x3b25bd4d	0.0025289834
88	0x3da3c386	0.079962775
89	0xbda062da	-0.078313544
90	0x3dae072d	0.084974624
91	0x3d8c5988	0.06853014
92	0x3d690211	0.056886736
93	0x3e1e6163	0.15466838
94	0x3c6720e1	0.01410696
95	0xbc435668	-0.011922456
96	0xbd2c8b47	-0.042125013
97	0x3be8c155	0.007103125
98	0x3e00145d	0.12507768
99	0x3de223a3	0.110419534
100	0x3d5dfcd6	0.0541962
101	0x3ddf3784	0.10899261
102	0x3d57dfe5	0.052703757
103	0xbd4e5d66	-0.05038204
104	0x3d89619e	0.06708072
105	0xbd156371	-0.036471788
106	0x3d71fa51	0.05907661
107	0x3d5e8e75	0.054335076
108	0x3dd1e9d1	0.10249675
109	0xbd2d031c	-0.042239293
110	0xbd7e274c	-0.062049195
111	0x3e33339b	0.17500155
112	0xbac21cb6	-0.0014809582
113	0x3dc00444	0.093758136
114	0x3e20163c	0.15633482
115	0xbd99a77c	-0.07502648
116	0xbd18b799	-0.037284467
117	0xbe244b52	-0.16044357
118	0xbd41b5c5	-0.04729249
119	0xbda280fe	-0.079347596
120	0xbe07d988	-0.13266575
121	0xbe1f2834	-0.1554268
122	0xbda81027	-0.08206206
123	0xbd1173f5	-0.035510976
124	0x3dc7705d	0.097382285
125	0xbc86e15a	-0.016464878
126	0xbc0c0ed0	-0.008548453
127	0x3dfc5d2d	0.12322459
128	0x3dded153	0.10879769
129	0xb960359d	-0.00021382277
130	0xbe565a80	-0.2093296
131	0xbd965387	-0.0734015
132	0xbe8163f8	-0.25271583
133	0xbb07d9ad	-0.002072911
134	0xbdb75c45	-0.08953146
135	0xbdc02c6e	-0.09383474
136	0x3dba374a	0.09092577
137	0xbd96dcdb	-0.073663436
138	0xbe7789af	-0.24173616
139	0xbe2ecbf4	-0.1706999
140	0xbd876adc	-0.06612179
141	0x3c2d8373	0.010590422
142	0xbdc77dcb	-0.0974079
143	0xbdc6ac30	-0.09700811
144	0x3bfa463f	0.0076377685
145	0x3e2c80c1	0.1684599
146	0xbd0f0b67	-0.034922983
147	0x3e6504a2	0.22365049
148	0xbdbf144f	-0.093300454
149	0xbc604e27	-0.013690508
150	0x3dbe6940	0.092974186
151	0xbd22b236	-0.039720736
152	0x3e87e0f3	0.2653881
153	0xbd99599d	-0.074877955
154	0x3e16ba7e	0.14719579
155	0x3e11193b	0.14169781
156	0xbc59f74f	-0.013303592
157	0x3e0a8620	0.13527727
158	0x3db2b3cd	0.087257005
159	0x3d58eee6	0.052962206
160	0xbe321f80	-0.17394829
161	0x3d1edc04	0.038784042
162	0xbd18d7dd	-0.03731524
163	0x3e76d537	0.24104773
164	0x3cbdcfcd	0.023170376
165	0x3d8cadda	0.06869097
166	0xbd4e72d9	-0.050402496
167	0xbda29097	-0.079377346
168	0x3d8909a1	0.0669129
169	0x3e12b697	0.14327465
170	0xbd508024	-0.050903454
171	0x3d3a6029	0.04550186
172	0x3e312811	0.1730044
173	0x3e3767f2	0.17910746
174	0x3b88af19	0.004171264
175	0x3e4ad488	0.19807637
176	0x3da64a1e	0.081196055
177	0x3df565fb	0.11982342
178	0x3e115ba9	0.14195122
179	0xbe0452fd	-0.12922283
180	0x3d6d3921	0.05791581
181	0x3d99b642	0.07505466
182	0xbd40e661	-0.047094706
183	0xbe7b9652	-0.24569061
184	0xbc2ff2ef	-0.010739072
185	0xbe1a20c9	-0.15051569
186	0x3d904e63	0.07046201
187	0x3db56ab5	0.088582434
188	0x3d896895	0.067094006
189	0xbbe6ce49	-0.007043634
190	0x3e11fd7e	0.14256856
191	0x3e2a24c9	0.16615595
192	0xbdb45039	-0.08804364
193	0xbe04b76a	-0.12960592
194	0x3d03dfb8	0.032195777
195	0x3db9e8a7	0.09077578
196	0xbd44b340	-0.04802251
197	0xbe1eb89a	-0.15500107
198	0xbe075a37	-0.13218008
199	0xbd8254bf	-0.0636382
200	0x3d3550bc	0.044266447
201	0xbdd27abb	-0.10277315
202	0x3d4259e3	0.047449004
203	0xbd5dfb08	-0.05419448
204	0x3da263c6	0.079291865
205	0xbdc2a845	-0.09504751
206	0xbd12d3a1	-0.035846356
207	0xbd0222ed	-0.03177159
208	0xbda68226	-0.081302926
209	0xbbf86864	-0.0075808037
210	0xbc5db07d	-0.013530848
211	0x3d7c1320	0.061541677
212	0xbdc196bb	-0.09452578
213	0xbcbd9c31	-0.023145767
214	0xbcff54b2	-0.031168316
215	0x3dfbf2ff	0.12302207
216	0xbdddf0f1	-0.108369716
217	0x3d110b19	0.035410974
218	0x3cc0fafc	0.023557179
219	0x3da14e9c	0.07876322
220	0xbc8fe531	-0.017565342
221	0x3ce580cf	0.028015522
222	0xbcff85cc	-0.031191729
223	0x3d1c02a3	0.038088452
224	0xbd8dec5b	-0.06929847
225	0xbdf2d5a4	-0.11857155
226	0xbe07bdf6	-0.13256058
227	0xbd1e4928	-0.038643986
228	0xbd960a41	-0.073261745
229	0x3c80e35b	0.015733412
230	0xbd29076e	-0.04126685
231	0xbda91be4	-0.08257273
232	0xbcd956d0	-0.026530653
233	0xbd2bcb44	-0.041941896
234	0x3db96676	0.09052746
235	0xbdaf6667	-0.085644536
236	0xbcae4ed9	-0.021277832
237	0xbd79c575	-0.060979325
238	0xbc3cd138	-0.011524491
239	0xbb2e7474	-0.0026619704
240	0xbd021bcb	-0.031764787
241	0x3d917f4a	0.071043566
242	0xbd00c89d	-0.03144132
243	0xbd639b30	-0.05556792
244	0x3c7b961b	0.015355612
245	0x3ddb968c	0.10722074
246	0x3db402a8	0.08789569
247	0xbc02b8e4	-0.007978652
248	0xbd8c26a3	-0.06843307
249	0x3d221062	0.039566405
250	0x3d62d146	0.05537536
251	0xbb865fe6	-0.0041007875
252	0x3d32c78f	0.043647345
253	0x3dbfa76c	0.09358105
254	0xbd99dab1	-0.07512415
255	0xbbbd6de6	-0.005780923

bias f4 [32]
0	0x3d571693	0.052511763
1	0xbd0c05a5	-0.03418507
2	0x3dabf756	0.08396785
3	0xbc0f2f34	-0.008739281
4	0x3e19aa1c	0.15006298
5	0x3de58803	0.11207583
6	0xbc33d94f	-0.010977103
7	0x3dcf03d4	0.10108152
8	0x3e10aef7	0.14129244
9	0xbd17aa1f	-0.037027474
10	0x3c79545b	0.015217866
11	0xbdb278fc	-0.08714482
12	0x3dc2242e	0.09479557
13	0xbc723eab	-0.014785449
14	0xbdc04de3	-0.09389856
15	0x3dd4fc7c	0.1039972
16	0x3cebefbf	0.028800843
17	0x3dfa30ba	0.12216325
18	0x3dfd8f01	0.123807915
19	0x3ded4bbc	0.11586711
20	0x3d7b7d72	0.06139893
21	0x3d4ce27b	0.050020676
22	0x3e2c6d91	0.16838671
23	0x3c561b43	0.013068023
24	0x3d7fd2b4	0.0624568
25	0xbd3bbce7	-0.04583445
26	0x3d892eb8	0.06698364
27	0xbd517334	-0.051135257
28	0xbd9e893e	-0.077410206
29	0x3dcd4c3f	0.100243084
30	0x3d6b3685	0.05742504
31	0xbd56e253	-0.052461933

weight f4 [1, 32]
0	0xbd3f4ee5	-0.0467061
1	0xbe00fb9b	-0.1259598
2	0xbe1c6416	-0.15272555
3	0x3c816914	0.015797175
4	0x3dc87d0f	0.09789478
5	0x3d80f12f	0.06296002
6	0x3de0f8c2	0.10984947
7	0xbdcc6242	-0.09979679
8	0x3da4c33e	0.08045052
9	0x3dbdedf7	0.09273904
10	0xbb5f03f3	-0.0034029454
11	0xbdb60ca5	-0.088891305
12	0x3dd7a18d	0.1052886
13	0xbdc4ff9c	-0.09619066
14	0xbe33f1a4	-0.17572647
15	0x3dffa8b9	0.12483353
16	0x3e18cd9a	0.14922181
17	0xbe1f997d	-0.15585895
18	0xbe0e17ec	-0.13876313
19	0x3d86ec02	0.06587984
20	0xbd88e404	-0.066841155
21	0xbe021e32	-0.12706831
22	0x3dd7e0b5	0.10540906
23	0xbe1f1b7f	-0.15537833
24	0xbde4369d	-0.11143229
25	0xbd888326	-0.066656396
26	0x3e17a7f9	0.1481017
27	0xbcf419c2	-0.029797439
28	0xbd1054f8	-0.035237283
29	0xbe85a229	-0.2610028
30	0x3d87984f	0.066208474
31	0xbe0543f6	-0.13014206
