ElegantRL/EntornoObservacionesAccionesMejorado/2Msteps_PPO_0/actor__000000055296_49883.199.pt (torch, 27347 bytes, 7 tensors)

state_avg f4 [48]
0.0 0.0 0.0 0.0 0.0 0.0 0.0 0.0
0.0 0.0 0.0 0.0 0.0 0.0 0.0 0.0
0.0 0.0 0.0 0.0 0.0 0.0 0.0 0.0
0.0 0.0 0.0 0.0 0.0 0.0 0.0 0.0
0.0 0.0 0.0 0.0 0.0 0.0 0.0 0.0
0.0 0.0 0.0 0.0 0.0 0.0 0.0 0.0
00000000: 0000 0000 0000 0000 0000 0000 0000 0000
00000010: 0000 0000 0000 0000 0000 0000 0000 0000
00000020: 0000 0000 0000 0000 0000 0000 0000 0000
00000030: 0000 0000 0000 0000 0000 0000 0000 0000
00000040: 0000 0000 0000 0000 0000 0000 0000 0000
00000050: 0000 0000 0000 0000 0000 0000 0000 0000
00000060: 0000 0000 0000 0000 0000 0000 0000 0000
00000070: 0000 0000 0000 0000 0000 0000 0000 0000
00000080: 0000 0000 0000 0000 0000 0000 0000 0000
00000090: 0000 0000 0000 0000 0000 0000 0000 0000
000000a0: 0000 0000 0000 0000 0000 0000 0000 0000
000000b0: 0000 0000 0000 0000 0000 0000 0000 0000

state_std f4 [48]
1.0 1.0 1.0 1.0 1.0 1.0 1.0 1.0
1.0 1.0 1.0 1.0 1.0 1.0 1.0 1.0
1.0 1.0 1.0 1.0 1.0 1.0 1.0 1.0
1.0 1.0 1.0 1.0 1.0 1.0 1.0 1.0
1.0 1.0 1.0 1.0 1.0 1.0 1.0 1.0
1.0 1.0 1.0 1.0 1.0 1.0 1.0 1.0
00000000: 0000 803f 0000 803f 0000 803f 0000 803f
00000010: 0000 803f 0000 803f 0000 803f 0000 803f
00000020: 0000 803f 0000 803f 0000 803f 0000 803f
00000030: 0000 803f 0000 803f 0000 803f 0000 803f
00000040: 0000 803f 0000 803f 0000 803f 0000 803f
00000050: 0000 803f 0000 803f 0000 803f 0000 803f
00000060: 0000 803f 0000 803f 0000 803f 0000 803f
00000070: 0000 803f 0000 803f 0000 803f 0000 803f
00000080: 0000 803f 0000 803f 0000 803f 0000 803f
00000090: 0000 803f 0000 803f 0000 803f 0000 803f
000000a0: 0000 803f 0000 803f 0000 803f 0000 803f
000000b0: 0000 803f 0000 803f 0000 803f 0000 803f

weight f4 [64, 48]
-0.0063224332 0.069747135 -0.1207165 -0.10985647 -0.061339565 0.032078218 -0.0019309896 0.10527395
-0.017689064 0.031310126 -0.04707101 -0.033321466 -0.14205277 -0.09895432 -0.055956185 -0.001472896
0.05076951 0.078719154 -0.10020071 -0.066927135 0.044396594 0.112409726 -0.028348062 0.09928113
-0.027887011 0.008853069 0.12368149 -0.13652956 -0.09586382 -0.040588796 -0.052521374 0.115623884
-0.09669874 -0.071187615 -0.10312584 -0.137574 -0.089212306 0.11703953 0.06592296 0.062159188
0.002336994 -0.0785907 0.019579945 -0.13671674 -0.11025957 -0.075654805 0.08836281 0.07646264
-0.07120682 0.019575946 0.0932167 0.15970065 0.06985397 0.058736987 0.15534727 -0.1274449
0.018502584 -0.084945984 -0.09521325 -0.0558129 0.08229362 0.10236105 -0.040685903 3.504024e-05
0.07501016 0.0068314523 0.008184553 0.058235854 0.11267418 0.18727544 -0.110704266 -0.0821734
0.046576425 0.14183044 0.12583038 0.147987 0.05480418 -0.07978224 0.0057341945 -0.13105242
-0.13713223 0.15030287 0.11029632 -0.1053373 0.05657762 0.028183075 -0.0031409645 -0.090791486
0.053412188 -0.059070684 0.0546196 0.10603873 0.13683668 0.10809552 -0.161711 -0.11683647
0.046964657 0.11247797 -0.123714775 -0.060351882 0.16395938 0.13999297 0.029155312 -0.034045007
-0.15735517 0.08034175 -0.11989164 -0.08514227 0.027456393 0.071835436 0.015170157 0.08850578
-0.1052668 0.21118228 0.08348368 -0.07969124 0.005314991 0.062188964 0.04826707 0.04253107
0.0324958 0.091351785 -0.08240438 0.11268046 -0.09366273 -0.03023921 -0.03167163 -0.06757773
-0.068145156 -0.033007044 -0.043490265 0.08593822 -0.046720203 0.055473406 0.102837615 0.003460973
-0.013321525 0.07068574 0.01520241 0.14134616 0.18309657 0.1485087 0.10974579 0.008405949
-0.12700348 -0.067036696 0.09627177 -0.0009165841 -0.07028352 -0.108350925 -0.13230518 -0.11933848
-0.028680164 0.07754646 0.07643837 -0.13636197 0.08819704 -0.1106419 -0.029892346 -0.05733196
-0.027235135 -0.027761428 -0.12686864 -0.12208557 -0.022124192 0.001828543 -0.06422997 0.053264633
-0.12724453 -0.009541392 0.124358326 -0.057673734 0.12765935 0.051207215 -0.12758109 0.089466095
-0.016317563 -0.06311953 0.11306628 -0.1142613 0.015172317 -0.029603574 0.100968875 0.039467067
0.0679429 0.049935617 -0.034002356 -0.029736128 -0.116521396 0.07661201 0.11226494 0.09675068
-0.064200856 0.07015351 -0.06618005 -0.015914097 -0.023297753 0.12956315 -0.026522985 0.03503617
0.04241986 0.1549953 -0.07338976 -0.03464292 -0.017684849 0.18448795 -0.0137254335 0.15633635
0.09086994 0.081752256 0.03244061 0.042038824 0.08831541 0.059491985 -0.015520684 0.061796397
-0.0735532 -0.010262301 0.1476685 -0.04340893 0.063765585 0.2283873 0.017042374 0.04489188
-0.07988766 0.13389166 -0.06721925 0.04536399 0.03229703 0.07990244 -0.040434718 0.17792416
0.06231374 0.19049358 0.119986586 -0.007271781 0.14904025 -0.003460336 -0.11615993 0.10282302
0.03258466 0.051721558 -0.022657832 0.0077242358 0.07749719 -0.10348955 0.2142925 -0.21384922
-0.016323114 -0.0783956 -0.051609177 0.018360782 0.12195836 -0.013168962 0.0005632554 -0.16035952
00000000: 6a2c cfbb 96d7 8e3d 363a f7bd 6efc e0bd
00000010: 323f 7bbd 7364 033d 4219 fdba de99 d73d
00000020: a8e8 90bc 0c3f 003d 88cd 40bd 177c 08bd
00000030: 4876 11be 90a8 cabd 5032 65bd 300e c1ba
00000040: b1f3 4f3d 8237 a13d 0836 cdbd 1811 89bd
00000050: 34d9 353d 1237 e63d 323a e8bc e853 cb3d
00000060: 4d73 e4bc 760c 113c b94c fd3d 68ce 0bbe
00000070: 4054 c4bd 7040 26bd a720 57bd 37cc ec3d
00000080: fd09 c6bd d0ca 91bd a433 d3bd 33e0 0cbe
00000090: f1b4 b6bd 6cb2 ef3d 9e02 873d a29a 7e3d
000000a0: 4128 193b 29f4 a0bd 1f66 a03c 79ff 0bbe
000000b0: c5cf e1bd e8f0 9abd 90f7 b43d 7298 9c3d
000000c0: e2d4 91bd bc5d a03c 66e8 be3d 9188 233e
000000d0: 990f 8f3d 3296 703d 5b13 1f3e ea80 02be
000000e0: bb92 973c 29f8 adbd 2aff c2bd 119c 64bd
000000f0: 8f89 a83d aca2 d13d 43a6 26bd 2cf8 1238
00000100: ed9e 993d 60da df3b 8118 063c b888 6e3d
00000110: b8c1 e63d 22c5 3f3e ebb8 e2bd 874a a8bd
00000120: ecc6 3e3d 003c 113e aed9 003e e789 173e
00000130: 597a 603d df64 a3bd e9e5 bb3b 9b32 06be
00000140: 646c 0cbe ffe8 193e 09e3 e13d 15bb d7bd
00000150: efbd 673d 31e0 e63c a4d8 4dbb e3f0 b9bd
00000160: bdc6 5a3d 1af4 71bd cdb8 5f3d d52a d93d
00000170: ea1e 0c3e 2f61 dd3d 9297 25be f647 efbd
00000180: 035e 403d da5a e63d 2c5e fdbd 8933 77bd
00000190: f8e4 273e 515a 0f3e 1fd7 ee3c c772 0bbd
000001a0: b721 21be 378a a43d c089 f5bd 125f aebd
000001b0: 3bec e03c 751e 933d 408c 783c 8542 b53d
000001c0: 1f96 d7bd 2b40 583e 7ef9 aa3d 2935 a3bd
000001d0: 6029 ae3b dbb9 7e3d b1b3 453d 0f35 2e3d
000001e0: 511a 053d a516 bb3d a1c3 a8bd 03c5 e63d
000001f0: 3fd2 bfbd 38b8 f7bc 1cba 01bd 3166 8abd
00000200: b08f 8bbd 6532 07bd d922 32bd 6100 b03d
00000210: af5d 3fbd 1538 633d 879c d23d 7ed1 623b
00000220: 8742 5abc afc3 903d 8713 793c 0cbd 103e
00000230: ab7d 3b3e aa12 183e 67c2 e03d 1bb9 093c
00000240: 330d 02be 894a 89bd 222a c53d eb46 70ba
00000250: cef0 8fbd 17e7 ddbd 027b 07be bc67 f4bd
00000260: aaf2 eabc aed0 9e3d b88b 9c3d 79a2 0bbe
00000270: a6a0 b43d 3898 e2bd cbe0 f4bc ebd4 6abd
00000280: 381c dfbc ef6b e3bc dae9 01be 0008 fabd
00000290: cb3d b5bc b9ab ef3a 018b 83bd 042c 5a3d
000002a0: 644c 02be 8053 1cbc 94af fe3d 4b3b 6cbd
000002b0: 22b9 023e a8be 513d 9ea4 02be 003a b73d
000002c0: 69ac 85bc d044 81bd 4b8f e73d d401 eabd
000002d0: 4f95 783c 3283 f2bc c5c8 ce3d 38a8 213d
000002e0: a625 8b3d 4a89 4c3d 0e46 0bbd 2e99 f3bc
000002f0: c5a2 eebd c2e6 9c3d 29eb e53d 3825 c63d
00000300: bd7b 83bd a5ac 8f3d 6889 87bd 485e 82bc
00000310: eeda bebc 34ac 043e bb46 d9bc 1682 0f3d
00000320: 72c0 2d3d 17b7 1e3e 5f4d 96bd bce5 0dbd
00000330: d1df 90bc 69ea 3c3e a4e0 60bc a316 203e
00000340: 051a ba3d ba6d a73d 72e0 043d e730 2c3d
00000350: b6de b43d dead 733d 784a 7ebc 381e 7d3d
00000360: 0fa3 96bd 3623 28bc 6936 173e 90cd 31bd
00000370: 8897 823d 5cde 693e 739c 8b3c 8ce0 373d
00000380: 249c a3bd e51a 093e 3faa 89bd 97cf 393d
00000390: e449 043d e4a3 a33d e09e 25bd c031 363e
000003a0: b13c 7f3d c010 433e 87bb f53d 1f48 eebb
000003b0: 029e 183e cec6 62bb 42e5 edbd e094 d23d
000003c0: 7e77 053d fcd9 533d eb9c b9bc 961b fd3b
000003d0: d9b6 9e3d 54f2 d3bd 7e6f 5b3e 4afb 5abe
000003e0: 0db8 85bc df8d a0bd 2564 53bd 5a69 963c
000003f0: 4ec5 f93d a1c2 57bc 6ea7 133a 4935 24be

bias f4 [64]
0.1275668 0.14002654 -0.08905936 -0.055429976 0.13850388 -0.049735006 0.03647889 -0.033430252
0.04801613 0.089393616 0.038214047 0.06856136 0.010129232 0.10728242 0.050784696 -0.012286524
-0.11127868 0.1799535 -0.016503941 0.10791068 0.07993338 0.04768677 -0.106391065 0.011477044
-0.072856605 0.022120353 -0.04419921 0.08661148 -0.1149028 -0.020403575 0.0737225 -0.014066168
0.11078414 -0.038769204 -0.10961771 0.07781069 0.04346065 0.069067635 -0.068284936 -0.059219323
-0.05849465 0.025180792 0.021212421 -0.049462233 0.010892446 -0.022689218 0.14555308 -0.04683683
0.16999996 -0.056983456 -0.07539857 -0.05955798 0.08736129 -0.077787854 0.047483034 -0.0804004
0.21582602 0.016676392 -0.081831954 0.058337633 0.0006891176 -0.12903598 0.03649564 0.1080957
00000000: dfa0 023e 1e63 0f3e c164 b6bd 8b0a 63bd
00000010: f6d3 0d3e efb6 4bbd e36a 153d 29ee 08bd
00000020: 90ac 443d 0014 b73d 5586 1c3d e669 8c3d
00000030: 14f5 253c e3b6 db3d 9d03 503d 6b4d 49bc
00000040: 14e6 e3bd bb45 383e 4633 87bc 4600 dd3d
00000050: 1db4 a33d 3453 433d 8fe3 d9bd 360a 3c3c
00000060: d835 95bd be35 b53c 3b0a 35bd 5c61 b13d
00000070: 2952 ebbd 6625 a7bc d2fb 963d c975 66bc
00000080: cce2 e23d 75cc 1ebd 407f e0bd 365b 9f3d
00000090: cb03 323d 5573 8d3d f9d8 8bbd f68f 72bd
000000a0: 1698 6fbd f347 ce3c acc5 ad3c e998 4abd
000000b0: 3b76 323c bdde b9bc de0b 153e fad7 3fbd
000000c0: 7814 2e3e 7c67 69bd 916a 9abd 12f3 73bd
000000d0: 7aea b23d 3d4f 9fbd 927d 423d f7a8 a4bd
000000e0: 7f01 5d3e ee9c 883c 8397 a7bd 71f3 6e3d
000000f0: e6a5 343a 0222 04be 747c 153d 4761 dd3d

weight f4 [32, 64]
0.03523908 -0.00688217 -0.034096055 0.032544613 -0.05617737 0.11127512 0.099797726 0.054508973
-0.050860256 -0.12351249 -0.085144006 0.10796508 -0.12243678 -0.12536569 -0.015424643 0.032426342
-0.12187487 -0.11994589 -0.0045438996 -0.041077938 0.08531018 0.026140418 -0.1150501 -0.11036631
0.08409302 -0.021714523 -0.060033035 0.038574383 -0.02584119 0.058562253 0.017617552 -0.05612323
-0.10084421 0.06370596 -0.08210054 -0.01992527 0.009386618 -0.074381806 0.060312882 -0.10286267
0.025116459 0.012017495 0.04286207 -0.12882455 0.0010276793 0.04406284 -0.087577134 0.023998845
-0.0012659755 0.09096891 -0.029469348 -0.015942011 -0.053259954 -0.029043173 0.01884157 -0.1203211
0.08165224 0.08208197 0.03526012 0.08295887 -0.0450441 0.01901718 0.001832442 -0.08634112
-0.044555288 -0.064815186 -0.09728836 -0.108726926 -0.16075817 -0.04891287 -0.053726718 -0.13815765
0.060898628 0.15135522 0.07168859 0.07047078 -0.11431801 -0.01902801 -0.100525886 -0.0055983798
0.074898824 0.047535356 0.08323123 0.107144274 -0.063483976 0.13679379 0.11674543 0.0026053798
-0.03408339 -0.08067984 0.07981153 0.07060483 0.12505345 0.15006375 -0.022224545 -0.012282228
0.044937044 0.008429127 0.12740605 -0.0027992295 0.06048187 0.0948392 0.040519614 -0.043126583
0.057804883 -0.031590004 0.060860347 0.10536246 0.10383582 -0.06619238 -0.087844804 0.17323151
0.04023894 0.071825854 0.10087038 -0.0969099 -0.013141873 -0.19005753 -0.05874296 0.061978333
-0.11499903 -0.16272077 -0.10080235 -0.052180637 0.10065779 -0.032902494 -0.06286468 -0.057216566
0.11208936 0.025854258 -0.1571054 -0.07562109 -0.16974483 -0.038697176 -0.09509275 -0.015302449
0.01610592 -0.06689338 -0.13739651 -0.17589499 -0.10139647 0.03644699 -0.1226611 -0.01762485
0.0078682555 0.13531314 -0.044810414 0.14126058 -0.096115 -0.05834171 0.07073493 -0.04091986
0.15185322 -0.07713821 0.13033761 0.14598359 0.036664248 0.12128107 0.03308648 0.054561894
-0.105992146 0.036516976 -0.05176964 0.12610115 0.023854742 0.030745225 -0.09549282 -0.102741584
0.06861069 0.14913216 -0.05244188 0.048900496 0.17365378 0.16384634 -0.03917289 0.18412973
0.08787514 0.083192624 0.036809757 -0.16694856 0.08168346 0.020501528 -0.080207594 -0.1503266
0.014372339 -0.1731377 0.043553807 0.061768215 0.06328565 -0.03244435 0.08244109 -0.016917458
-0.09070138 -0.11665735 0.04648834 0.09351492 -0.037781384 -0.14348376 -0.12912981 -0.05340023
0.05400413 -0.10037405 0.051786836 -0.05583138 0.09700639 -0.09540115 -0.029219043 -0.03273448
-0.08375792 0.004023429 -0.0017891029 0.06412114 -0.09738148 -0.012186757 -0.02657949 0.12672655
-0.11129791 0.03648194 0.03146964 0.08114359 -0.01809582 0.03237906 -0.019493377 0.039240226
-0.07138599 -0.12182346 -0.13541009 -0.039810594 -0.07116237 0.016208762 -0.029062456 -0.078660175
-0.027249197 -0.043208867 0.0932597 -0.08823026 -0.018745437 -0.062773004 -0.0012032512 0.0017791628
-0.032727405 0.08821555 -0.032391 -0.04191846 0.01581822 0.12459993 0.09699424 0.013089207
-0.060092278 0.04675901 0.07052943 0.006444695 0.04857457 0.106052525 -0.072086975 0.0031979908
00000000: db56 103d d483 e1bb 4ea8 0bbd 804d 053d
00000010: 3e1a 66bd 36e4 e33d c062 cc3d cd44 5f3d
00000020: d852 50bd 1ef4 fcbd fb5f aebd cc1c dd3d
00000030: 22c0 fabd dd5f 00be a4b7 7cbc 7cd1 043d
00000040: 8899 f9bd 31a6 f5bd fee4 94bb 5741 28bd
00000050: 1bb7 ae3d 6e24 d63c 639f ebbd bb07 e2bd
00000060: f638 ac3d a8e2 b1bc 33e5 75bd 2c00 1e3d
00000070: e7b0 d3bc f9de 6f3d af52 903c 79e1 65bd
00000080: 6987 cebd 4578 823d 5424 a8bd 523a a3bc
00000090: 54ca 193c 7d55 98bd a40a 773d aaa9 d2bd
000000a0: 08c1 cd3c 07e5 443c 2390 2f3d 95ea 03be
000000b0: 32b3 863a 3d7b 343d a45b b3bd 3a99 c43c
000000c0: 17ef a5ba e84d ba3d b469 f1bc d298 82bc
000000d0: 1c27 5abd f3eb edbc a359 9a3c e96a f6bd
000000e0: 4a39 a73d 981a a83d ea6c 103d 57e6 a93d
000000f0: 2a80 38bd ebc9 9b3c 8d2e f03a 9dd3 b0bd
00000100: 9b7f 36bd d3bd 84bd 1f3f c7bd 39ac debd
00000110: ca9d 24be dd58 48bd 8c10 5cbd 3379 0dbe
00000120: d770 793d ddfc 1a3e 78d1 923d fc52 903d
00000130: 901f eabd a1e0 9bbc 84e0 cdbd 9d72 b7bb
00000140: 8e64 993d 6fb4 423d 2375 aa3d 756e db3d
00000150: e303 82bd ac13 0c3e 3a18 ef3d 05bf 2a3b
00000160: 069b 0bbd 793b a5bd 3a74 a33d 4499 903d
00000170: 030e 003e 50aa 193e 4010 b6bc 663b 49bc
00000180: e80f 383d 521a 0a3c bb76 023e 4773 37bb
00000190: d6bb 773d 0e3b c23d e5f7 253d 80a5 30bd
000001a0: d0c4 6c3d 8564 01bd b348 793d 46c8 d73d
000001b0: e0a7 d43d df8f 87bd fae7 b3bd 9a63 313e
000001c0: 96d1 243d 6f19 933d 2195 ce3d b378 c6bd
000001d0: 0351 57bc 719e 42be 759c 70bd fedc 7d3d
000001e0: 9d84 ebbd 46a0 26be 7671 cebd 5dbb 55bd
000001f0: ac25 ce3d c4c4 06bd 33bf 80bd eb5b 6abd
00000200: 1b8f e53d 4fcc d33c 3de0 20be 3bdf 9abd
00000210: 97d1 2dbe ee80 1ebd fdbf c2bd 20b7 7abc
00000220: 90f0 833c 65ff 88bd acb1 0cbe d11d 34be
00000230: f4a8 cfbd 7049 153d be35 fbbd fd61 90bc
00000240: dbe9 003c 878f 0a3e 208b 37bd 9da6 103e
00000250: f1d7 c4bd b8f7 6ebd 7add 903d 959b 27bd
00000260: 697f 1b3e a3fa 9dbd 3977 053e b97c 153e
00000270: 402d 163d 3662 f83d b085 073d 4b7c 5f3d
00000280: 6912 d9bd d392 153d 670c 54bd a920 013e
00000290: 056b c33c 69dd fb3c bd91 c3bd 2e6a d2bd
000002a0: c383 8c3d 1ab6 183e 4ccd 56bd e34b 483d
000002b0: 4cd2 313e 56c7 273e c173 20bd 818c 3c3e
000002c0: e2f7 b33d e560 aa3d d4c5 163d 90f4 2abe
000002d0: a849 a73d d2f2 a73c e143 a4bd 37ef 19be
000002e0: f579 6b3c 024b 31be 7a65 323d ab00 7d3d
000002f0: e89b 813d 5ee4 04bd e0d6 a83d 7b96 8abc
00000300: a5c1 b9bd 0cea eebd 8f6a 3e3d c084 bf3d
00000310: a7c0 1abd 68ed 12be 9b3a 04be 33ba 5abd
00000320: 6f33 5d3d e990 cdbd 6f1e 543d 72af 64bd
00000330: 49ab c63d ae61 c3bd c65c efbc 9714 06bd
00000340: 4689 abbd f8d6 833b 5580 eaba f251 833d
00000350: f16f c7bd f7aa 47bc 3bbd d9bc 9bc4 013e
00000360: 29f0 e3bd 166e 153d 4fe6 003d 9c2e a63d
00000370: af3d 94bc e89f 043d 93b0 9fbc 5cba 203d
00000380: d132 92bd 947e f9bd f1a8 0abe 6f10 23bd
00000390: 94bd 91bd 3dc8 843c 6314 eebc 9618 a1bd
000003a0: b539 dfbc c8fb 30bd f1fe be3d 11b2 b4bd
000003b0: 0890 99bc 228f 80bd 69b6 9dba cc32 e93a
000003c0: 2c0d 06bd 5baa b43d 6dac 04bd b1b2 2bbd
000003d0: 3695 813c 402e ff3d eba4 c63d 1d74 563c
000003e0: 5223 76bd 6086 3f3d bc71 903d 052e d33b
000003f0: 21f6 463d 1132 d93d 56a2 93bd 6295 513b

bias f4 [32]
0.06410849 -0.027206685 0.09075348 -0.00025619182 0.13390331 0.120081894 -0.03570112 0.10876643
0.12968105 -0.065161765 0.023985023 -0.09470788 0.05746704 0.014288871 -0.10917877 0.077203326
0.015437009 0.13731425 0.14093159 0.042275034 0.07563791 0.055199828 0.16250741 0.017395845
0.065878116 -0.01030022 0.023466537 -0.03693582 -0.077853516 0.07765264 0.076210804 -0.044003386
00000000: 504b 833d 8ee0 debc f6dc b93d 7c51 86b9
00000010: f31d 093e 7fed f53d 563b 12bd efc0 de3d
00000020: 1ccb 043e 8873 85bd 3d7c c43c 34f6 c1bd
00000030: 8f62 6b3d de1b 6a3c 1e99 dfbd c71c 9e3d
00000040: 82eb 7c3c 1b9c 0c3e 5f50 103e 9628 2d3d
00000050: 0ce8 9a3d 3719 623d 5868 263e bb81 8e3c
00000060: 1beb 863d 41c2 28bc e53c c03c 044a 17bd
00000070: aa71 9fbd 5908 9f3d 6914 9c3d e53c 34bd

weight f4 [1, 32]
-0.02068867 -0.08035604 -0.08319265 0.016579872 0.09504296 0.080981776 0.0946696 -0.10266816
0.078493014 0.074906304 -0.0085997265 -0.06186693 0.08764174 -0.09250294 -0.033288717 0.09056444
0.13914639 -0.093653165 -0.0849418 0.0067557613 -0.078202695 -0.07530649 0.07910542 -0.107948564
-0.057721358 -0.05238373 0.09868767 -0.010814372 -0.036345452 -0.13992766 0.04436678 -0.06377896
00000000: 497b a9bc b591 a4bd e860 aabd 83d2 873c
00000010: e2a5 c23d c6d9 a53d 23e2 c13d af43 d2bd
00000020: f2c0 a03d 7a68 993d dee5 0cbc 2e68 7dbd
00000030: 837d b33d 2e72 bdbd c059 08bd d979 b93d
00000040: 647c 0e3e 3bcd bfbd f7f5 adbd 6f5f dd3b
00000050: bc28 a0bd 4a3a 9abd 0602 a23d 2314 ddbd
00000060: 3b6d 6cbd 5290 56bd c31c ca3d c42e 31bc
00000070: f8de 14bd 3249 0fbe f1b9 353d 8b9e 82bd
