ElegantRL/EntornoObservacionesAccionesMejorado/2Msteps_PPO_0/cri_target.pth (torch, 27189 bytes, 7 tensors)

state_avg f4 [48]
00000000: 0000 0000 0000 0000 0000 0000 0000 0000
00000010: 0000 0000 0000 0000 0000 0000 0000 0000
00000020: 0000 0000 0000 0000 0000 0000 0000 0000
00000030: 0000 0000 0000 0000 0000 0000 0000 0000
00000040: 0000 0000 0000 0000 0000 0000 0000 0000
00000050: 0000 0000 0000 0000 0000 0000 0000 0000
00000060: 0000 0000 0000 0000 0000 0000 0000 0000
00000070: 0000 0000 0000 0000 0000 0000 0000 0000
00000080: 0000 0000 0000 0000 0000 0000 0000 0000
00000090: 0000 0000 0000 0000 0000 0000 0000 0000
000000a0: 0000 0000 0000 0000 0000 0000 0000 0000
000000b0: 0000 0000 0000 0000 0000 0000 0000 0000
0.0 0.0 0.0 0.0 0.0 0.0 0.0 0.0
0.0 0.0 0.0 0.0 0.0 0.0 0.0 0.0
0.0 0.0 0.0 0.0 0.0 0.0 0.0 0.0
0.0 0.0 0.0 0.0 0.0 0.0 0.0 0.0
0.0 0.0 0.0 0.0 0.0 0.0 0.0 0.0
0.0 0.0 0.0 0.0 0.0 0.0 0.0 0.0

state_std f4 [48]
00000000: 0000 803f 0000 803f 0000 803f 0000 803f
00000010: 0000 803f 0000 803f 0000 803f 0000 803f
00000020: 0000 803f 0000 803f 0000 803f 0000 803f
00000030: 0000 803f 0000 803f 0000 803f 0000 803f
00000040: 0000 803f 0000 803f 0000 803f 0000 803f
00000050: 0000 803f 0000 803f 0000 803f 0000 803f
00000060: 0000 803f 0000 803f 0000 803f 0000 803f
00000070: 0000 803f 0000 803f 0000 803f 0000 803f
00000080: 0000 803f 0000 803f 0000 803f 0000 803f
00000090: 0000 803f 0000 803f 0000 803f 0000 803f
000000a0: 0000 803f 0000 803f 0000 803f 0000 803f
000000b0: 0000 803f 0000 803f 0000 803f 0000 803f
1.0 1.0 1.0 1.0 1.0 1.0 1.0 1.0
1.0 1.0 1.0 1.0 1.0 1.0 1.0 1.0
1.0 1.0 1.0 1.0 1.0 1.0 1.0 1.0
1.0 1.0 1.0 1.0 1.0 1.0 1.0 1.0
1.0 1.0 1.0 1.0 1.0 1.0 1.0 1.0
1.0 1.0 1.0 1.0 1.0 1.0 1.0 1.0

weight f4 [64, 48]
00000000: 9668 f23c 27a4 43bd da25 763e 0d51 cd3b
00000010: a585 b13e fd3d 6b3d 3675 d7bc ebad 843c
00000020: 0868 a2bd 270b 543d 062e 8e3e 5342 19bd
00000030: 10d8 a43e 9efb 1f3c 0c33 163d fb68 50bb
00000040: 7680 46be 06f5 6dbc 1010 893e bfa8 f03d
00000050: 01a5 553e b4f3 54bc 0085 413c be56 993d
00000060: fd92 8cbe 03d3 123d 993b 7d3e aa2d f93d
00000070: b3bb 7c3d d4eb 4b3d dfed a3bd 8a1d 033d
00000080: aa06 ebbe 0bfe a0bc 3716 783e e64d 613e
00000090: e395 39bd f02a 523e 1f11 4bbc a925 333d
000000a0: 8e7a 61bf 138d 123d 6126 9c3e a72e a0be
000000b0: bff7 d1be 81ec fd3d 81ed a6be 0dbf a2be
000000c0: 4347 11be 679f 3fbe a5dc 793e d596 2bbe
000000d0: 3555 7f3e f3c0 923d 46a1 31bb 9503 b9bc
000000e0: 3726 abbd 5c1c 10be 9e39 553e 0139 4dbe
000000f0: 114c 793e 0548 4cbc 7aa7 4cbd cf33 ac3c
00000100: 1415 7bbe ba80 0ebe 015a 613e 0374 e8bd
00000110: 2462 e63d 410e 173c b72c ce3d 0288 2cbd
00000120: 2025 c2be fecc e6bd 6052 433e cc68 833c
00000130: 625c 8a3d fc24 3c3d 14a0 793d d5dc 013d
00000140: 2d07 18bf 6aba 69bd 4d4d 4d3e 939d e33d
00000150: 25b1 6dbd 801a 023e 3882 4bbd 6262 383c
00000160: ec90 7cbf 8f55 d1bd 482c 853e 0b48 07bf
00000170: b7c7 cebe a301 203e c8bb 7cbe e7c4 8bbe
00000180: d130 c6bd 6ad5 21be 28be 333e e2ee 01be
00000190: 6362 a93e 32a4 9e3c ae37 813d e971 08bd
000001a0: 3026 02be 5aff d2bd 6cce 853e c090 f7bd
000001b0: a23a 903e 767b 73bd e227 5abc 964a eb3c
000001c0: 29f9 99be 8e1e a4bd 78e1 583e b591 fb3a
000001d0: 259e 243e c84c e83a e0dd 0d3d f0c2 293d
000001e0: 304f 00bf 2229 32be 65ab 8c3e 47bb 8fbc
000001f0: 186b 413d c244 5d3d d838 a3bc 8f81 da3d
00000200: ccd2 08bf aba2 bbbd 1155 703e a768 193e
00000210: 9fbe cebd 4105 143e 3b53 813d 2481 923d
00000220: 973e 86bf 4d05 42be 7ff8 8c3e fb53 cebe
00000230: 3203 d9be 3330 c03d ad6b 55be 4813 afbe
00000240: d91f 75bd 8a1e 413d 0edb 913e d72c b43c
00000250: 6de2 d73e 8ad1 c83c 9e41 7e3d 4ecd a33d
00000260: bafe 13be c0df 583d 810e ab3e 5484 c9ba
00000270: cc15 883e 65a0 ffbd 7181 313d aa4b aa3d
00000280: 42fd 51be b2e6 a83d 7fc1 7c3e 8d0d 0a3e
00000290: b4ba 033e 3fbb adbb 830e ea3d c53a 403d
000002a0: 59cc bfbe d444 fc3c 15d6 573e 8263 0b3e
000002b0: 9bb4 993d 430d b63d 1b8d 23bb 746d 013e
000002c0: d426 0fbf 8a04 52bd 7bf7 ab3e fb3c 913e
000002d0: e9c6 ffbd e707 c13d 40f0 a73c fd48 173e
000002e0: d676 80bf 4646 c0bc 1e36 823e e3e3 97be
000002f0: cfed cdbe 4b91 4f3e eb16 6ebe beaf acbe
00000300: df6b b53e 749f 2dbe e0e2 a63e a1d9 9b3e
00000310: aae2 ba3d 5059 db3d 6170 9fbe c6f6 833d
00000320: 4638 9d3e b46b 73be 7d8c 843e fbb7 873e
00000330: 1d88 b13d 49ac 143e bec0 07be 4cb1 b23d
00000340: 6769 d63e fc95 88be 2ec4 8d3e deb1 713e
00000350: 4c66 233e f321 e73d 0102 5abe 3c64 833d
00000360: 205e 0e3f 773f 21be 187c 9e3e 8b94 053e
00000370: f254 d53e 836e 0e3e 4b46 3dbe 401c d3bd
00000380: 842a 3b3f 5fa0 88be b3b2 b33e 9519 b63d
00000390: 1c4c f13e 71eb 57bc cd7b 9fbd 8903 27be
000003a0: 2793 923f 77aa 3bbe 09dc 833e adae 203f
000003b0: 685a 383f ec93 8ebd 11ba 463e d6b4 453e
000003c0: 5083 e83e 34ff 0dbd a14e 733e 6747 7abd
000003d0: a019 c53e b812 293e f34a 7bbd 39b0 063d
000003e0: dcd1 c03e 2cab c3bc 374b 953e ba52 45be
000003f0: 04dc a83e 8f52 943d dd35 cabd f0a6 fd3d
0.029590886 -0.04776397 0.24037877 0.0062657655 0.34672275 0.057432164 -0.026301008 0.016196212
-0.07929999 0.05176845 0.27769488 -0.037416767 0.32196093 0.00976458 0.036669776 -0.0031800854
-0.19384941 -0.01452375 0.26770067 0.11750936 0.20863725 -0.0129975565 0.011811495 0.07487248
-0.27455893 0.035845768 0.24729766 0.12166913 0.06170244 0.04978545 -0.08004355 0.032010593
-0.45903522 -0.019652387 0.24227224 0.22002372 -0.04530896 0.20524192 -0.012394219 0.043737087
-0.8807763 0.03577907 0.3049803 -0.31285593 -0.41009328 0.12398625 -0.32603076 -0.31786385
-0.1418734 -0.18713151 0.24400575 -0.16756757 0.24934848 0.071657084 -0.0027104183 -0.022584716
-0.08356898 -0.14073318 0.2082276 -0.20041277 0.24345423 -0.012468343 -0.049964406 0.021020798
-0.2451976 -0.13916293 0.2200699 -0.113502525 0.112491876 0.009219707 0.100671224 -0.042121895
-0.3791895 -0.11269568 0.19074392 0.016041182 0.06755902 0.04593371 0.060943678 0.031704742
-0.5938595 -0.057062544 0.20049019 0.11114039 -0.058030266 0.12705421 -0.049684733 0.011253925
-0.98658633 -0.10221397 0.26010346 -0.52844304 -0.40386745 0.15625624 -0.24681008 -0.27298662
-0.0967728 -0.15804067 0.17553008 -0.12688783 0.33082876 0.019365404 0.06309448 -0.03331176
-0.1270988 -0.10302611 0.2613405 -0.12088156 0.28169733 -0.059443913 -0.013315173 0.028722089
-0.30072907 -0.0801364 0.2117976 0.0019193204 0.16075952 0.0017723078 0.034635425 0.041445673
-0.5012083 -0.17398503 0.27474514 -0.017545355 0.047221273 0.05402065 -0.019924566 0.106692426
-0.5344665 -0.09161886 0.2346995 0.14981328 -0.10094952 0.14455129 0.06314703 0.07153538
-1.0487851 -0.18947335 0.27533337 -0.40298447 -0.4238525 0.09384193 -0.20841856 -0.34194398
-0.059844825 0.047148265 0.28487438 0.021994038 0.42164937 0.024513979 0.062074296 0.07998143
-0.14452639 0.05294776 0.33409503 -0.001537452 0.2657913 -0.12481765 0.043336336 0.08315213
-0.20506766 0.08247127 0.24683188 0.13481732 0.1286419 -0.0053018625 0.11428549 0.046931047
-0.37460592 0.030794539 0.2107776 0.13612178 0.07505151 0.08889248 -0.0024955932 0.1263941
-0.5591862 -0.05127386 0.3358725 0.28366837 -0.12489111 0.094253354 0.020500302 0.14773937
-1.0036266 -0.023471009 0.25431913 -0.2966605 -0.40220496 0.20270269 -0.2325093 -0.3372783
0.35433862 -0.16955358 0.32594967 0.30439475 0.09125264 0.107103944 -0.31140426 0.06443553
0.30706996 -0.23771554 0.25888434 0.26507553 0.0866854 0.14518847 -0.13257119 0.08725223
0.4187729 -0.2667693 0.27688736 0.23603007 0.15956992 0.11285772 -0.21289827 0.064156026
0.55612373 -0.15746866 0.3095405 0.13044946 0.4166637 0.13909344 -0.18483846 -0.10308123
0.7311175 -0.26684853 0.35097274 0.08891598 0.4712838 -0.013178692 -0.07787285 -0.16309942
1.1451157 -0.18326746 0.2575381 0.62766534 0.7201295 -0.069618076 0.19406916 0.19307265
0.45412683 -0.03466721 0.23760463 -0.06110325 0.38496113 0.16511047 -0.061350774 0.032882903
0.3766011 -0.023885332 0.29158947 -0.19269839 0.3298036 0.07242309 -0.09873555 0.123853564

bias f4 [64]
00000000: 498b 9c3f 8912 8e3f 1a7c 8d3f 0085 a13f
00000010: c902 d1be fecf 963f 19a5 973f 921b 1c3d
00000020: cdac 4dbf 767d b73f b6e4 353f daf7 913f
00000030: 5499 913f da19 8d3f e47b 8d3f 0c7e 923f
00000040: 5d3e 953f 243c 803f 751d dd3a 674d 8b3f
00000050: c0f1 9b3f 34fd 8a3f bc4f a13f 3962 9e3f
00000060: 37f4 953f a35e 9bbf 6e35 9c3f cb5b 923f
00000070: cff3 a23f adf4 863f 1963 a23f 85ac 9d3f
00000080: 34fb 873f e9e6 8e3f 377a 903f f6d7 9f3f
00000090: 832a b2bc e79a ad3c b08b 513e 532c 903f
000000a0: 2a16 903f 524f 983f 2ef4 953f 6b81 9c3f
000000b0: 4f9b a53f 4943 993f 6bf5 993f d9d9 793f
000000c0: 9717 8d3d b38a 923f a0d3 65bc efa6 ddbc
000000d0: e141 9c3f 24b3 883f 1302 9c3f 280e 973f
000000e0: d987 7f3f bdb6 50bd d0fa 9c3f 4c09 a63f
000000f0: fb45 053d 49c5 8e3f a451 a33f ccea a73f
1.2230006 1.1099406 1.1053498 1.2618713 -0.40822437 1.1782224 1.1847259 0.03811223
-0.803418 1.4335163 0.7105211 1.1403763 1.1374917 1.1023514 1.1053433 1.1444716
1.1659657 1.0018353 0.0016869741 1.0882996 1.2183151 1.0858521 1.2602458 1.2373725
1.1715153 -1.2138256 1.2203805 1.1434263 1.2730654 1.0543419 1.2686492 1.2318274
1.0623536 1.1164218 1.1287297 1.2487781 -0.021748787 0.021192027 0.20463443 1.1263527
1.1256764 1.1899207 1.1715143 1.2226995 1.2938021 1.1973659 1.2028021 0.97598034
0.06889265 1.1448578 -0.014027506 -0.02705714 1.2207605 1.0679669 1.2188133 1.1801195
0.9981666 -0.050955523 1.2264042 1.2971587 0.03253744 1.1153957 1.275929 1.3118529

weight f4 [32, 64]
00000000: b3e4 ee3c 91ab 6fbd 73b6 69bd fbf4 54bd
00000010: 31c9 95bb 3dc2 b5bc 8e42 8dbd 2c29 9ebc
00000020: 51b5 003d af86 22bc 8ab9 46bd 456c 44bd
00000030: df52 473c 6944 073c 744d 1dbd a12e 65bd
00000040: 1845 723c 0c8f 34bd 23d7 54bd 0d88 323d
00000050: 2abc 943c 5075 9fbc 241e 8fba 7aa9 1a3d
00000060: 3f39 64bd bf5d 41bc 0a17 acbc 818e 89bd
00000070: e925 373d 590c 86bd ba0f f9bc 4e2d b83c
00000080: 13ee 3a3d 5bf4 c7bc 200b 1d3d aed3 90bb
00000090: 7a2a 6abd ffa9 5abd 7f5e f0bc e5e3 593a
000000a0: 6b04 313d de81 05bd 34d1 73bc 8834 013d
000000b0: 69f0 a5bc 2de3 9d3c 22e0 76bc e819 0bbd
000000c0: 1772 1dbd 1370 5e3d 727e 02bd 7245 c83b
000000d0: 6b11 273c 32f0 43b9 1d1a 6ebc 71e4 abbc
000000e0: 3a02 15bd 44f5 a73c 2cb7 8dbc 5353 8b3c
000000f0: 3daf e93c a43d 523c ceca 08bd 1b2d 48bd
00000100: e8ef 15be 7a61 e33c 2a27 ea3c 2aae e53b
00000110: 6755 b9bd f429 86be 027f e0bd c779 20bd
00000120: a80a 50be 9a50 94b8 d7d4 b9bd c4ae 8bbe
00000130: 8f69 88be f69e 073d cf0b a1bc 1c33 5e3d
00000140: b82a 3dbe a974 00be d93d 003d d4fc febd
00000150: b429 b1bd 4fa8 91be aa29 d13d ab96 2dbe
00000160: 4567 9ebd 79d1 ac3c 7a99 003b 7118 7abe
00000170: 7a90 fb3d 012c 1cbd a96c 57bd cd8b 31be
00000180: 0ba5 e3bd d84b 45be 4314 2dbe f128 04bc
00000190: 1964 623c 5819 1f3d 2197 853e b4cf b7bd
000001a0: 981a 4bbc d5e0 0cbe bd27 80bd 1668 32be
000001b0: e1d0 34bc 85a4 d4bc 5cb8 a4be 2645 46bd
000001c0: c9a8 583e 1217 75be 1cc2 123d b987 553d
000001d0: 6b17 39be 15e8 bebc 21e0 3cbe c127 87bd
000001e0: 8b1b 40bd b257 113d 54a8 3d3d 4a5f c43d
000001f0: c75c 6bbd fa6b 0ebe dfb3 3e3c 0a9a 8e3c
00000200: fc2c a13e fb13 1a3f 21e3 293f 0eea fc3e
00000210: 197e 28bf 1cb9 003f 63b9 0f3f bca7 29bd
00000220: c47e 29bf 1a6a 9d40 3ec8 9940 1541 d73e
00000230: eb23 033f 6c8f f53e 5c87 073f bec0 e03e
00000240: 22f6 2c3f 31ce 1b3f 5f3f 15bd 7672 013f
00000250: f161 9c3e 1de2 fb3e 9398 1c3f e087 d53e
00000260: 4980 e03e 4091 d8c0 c509 a43e f2ca e83e
00000270: 09b6 013f bfb3 213f bdbf a03e a102 153f
00000280: c842 103f 0a02 ff3e 89ff 073f 7f1f c83e
00000290: 8a24 773d d7dc 653c dde9 a540 7fd6 8640
000002a0: 2235 123f 9e52 f63e d074 fd3e f020 003f
000002b0: 409b 903e c1e2 ba3e 9647 d73e 1db4 e43e
000002c0: fa4f b240 507e e43e 1984 a6bc 5be6 033d
000002d0: 15a3 ce3e 0807 e43e e43c f83e 81ea 063f
000002e0: a505 fc3e 295e 3d3d 79b0 443f 615c 823f
000002f0: 3d9e 85bc 246b 253f ea86 6d3e 1ac3 df3e
00000300: 35e9 963f 81da 723f 76f5 673f 345e a23f
00000310: 8643 383f 6333 483f 9283 843f a35f 13b9
00000320: 3272 583f 9244 a9c0 4acf b3c0 47b0 453f
00000330: 4cd3 2c3f 4055 a73f 5787 9a3f 0aad a13f
00000340: 9136 2d3f e6e0 833f 06f1 c7bc ddfb 733f
00000350: a695 9f3f 295c 363f cf96 823f 9c31 b33f
00000360: 8023 9f3f 3ff5 d540 b8d4 e73f cdee 683f
00000370: 1964 993f ca1d 823f 2e74 bc3f 6b8a 8b3f
00000380: 835f 8b3f d838 7e3f 80f3 543f f0ad 983f
00000390: b666 dfbc 18c5 97bc 0658 33c1 5e38 1dc1
000003a0: 181a 8c3f b7ee 803f b9ee 7c3f e962 8e3f
000003b0: fdf2 aa3f 5982 983f 3f07 183f f5c3 c43f
000003c0: b500 2ec1 8be4 193f 76a5 173d 37f9 083d
000003d0: 877c ae3f 0795 843f 8e41 3e3f 3563 8c3f
000003e0: 934f 973f 3e18 dc3c 672c 9f3f f9e3 373f
000003f0: 67aa 2fbd 926d 133f 9346 c03f 4f57 b93f
0.029161787 -0.058513228 -0.057058763 -0.051991444 -0.004571103 -0.022187347 -0.0689746 -0.019306742
0.031422917 -0.009919806 -0.048516788 -0.047954816 0.012165754 0.008256056 -0.038403943 -0.055952672
0.014786981 -0.044081733 -0.051962983 0.04358678 0.01815613 -0.019465119 -0.0010919017 0.03775928
-0.055718657 -0.011802136 -0.02100708 -0.067166336 0.04471389 -0.06545324 -0.030403007 0.02248254
0.0456372 -0.02440851 0.038340688 -0.0044197654 -0.057169415 -0.053384777 -0.029341934 0.0008311852
0.043217104 -0.032594554 -0.014881421 0.03154424 -0.020256238 0.019273365 -0.015068086 -0.033960253
-0.038438883 0.0543061 -0.03185887 0.006111794 0.010197024 -0.00018686129 -0.014532593 -0.020982953
-0.036379077 0.020502694 -0.017299257 0.017007506 0.028525943 0.012832079 -0.033396535 -0.04887114
-0.14642298 0.027756441 0.028583128 0.0070092874 -0.09049492 -0.26203883 -0.10961725 -0.039178636
-0.20316565 -7.072203e-05 -0.09073799 -0.27281773 -0.26643035 0.03311058 -0.019658951 0.05424796
-0.18473327 -0.12544502 0.031308983 -0.12450567 -0.08650532 -0.28448722 0.10213025 -0.16952007
-0.07734541 0.021095978 0.001962273 -0.24423386 0.12283416 -0.038127903 -0.05259386 -0.17338486
-0.11115464 -0.19267213 -0.1690226 -0.008066402 0.01381781 0.03884253 0.26091865 -0.08975163
-0.012396477 -0.13757642 -0.062575795 -0.17422518 -0.011036129 -0.025957355 -0.32171905 -0.04840579
0.21158136 -0.23934582 0.03582965 0.05213139 -0.1807534 -0.023304025 -0.18444873 -0.06599379
-0.046901267 0.035484023 0.04630311 0.095884874 -0.057461526 -0.13908377 0.011639564 0.017407436
0.31479633 0.6018674 0.66362196 0.4939732 -0.6581741 0.50282454 0.5614225 -0.04141973
-0.66209054 4.919202 4.8056936 0.4204184 0.5122668 0.47960985 0.52940917 0.4389705
0.6756307 0.608615 -0.03643739 0.5056528 0.30543473 0.49195948 0.6117031 0.41705227
0.43847874 -6.7677307 0.32038704 0.45467335 0.5066839 0.63164896 0.31396285 0.58207136
0.563519 0.49806243 0.5312429 0.3908653 0.06033758 0.014029703 5.184798 4.2136836
0.57112324 0.48109907 0.49503183 0.5005026 0.28243446 0.36501125 0.42046803 0.44668666
5.572263 0.4462762 -0.020326661 0.032202106 0.40358797 0.44536614 0.48483956 0.52701575
0.49223056 0.046232376 0.76831776 1.0184442 -0.016310805 0.6461661 0.23195997 0.43703538
1.1789919 0.9486466 0.9060892 1.2684999 0.7197803 0.7820341 1.0352652 -0.0001405464
0.8454925 -5.2896204 -5.619054 0.772221 0.67509913 1.3072891 1.2072552 1.2630932
0.67661387 1.0303009 -0.024406921 0.9530619 1.2467544 0.71234375 1.0202273 1.3999515
1.2432709 6.6861873 1.8111792 0.9098938 1.1983672 1.0165341 1.4722955 1.0901617
1.0888523 0.99305487 0.8318405 1.1928082 -0.027270656 -0.018526599 -11.20899 -9.8262615
1.0945463 1.007285 0.9880176 1.1123935 1.3355404 1.1914779 0.59386057 1.5372301
-10.875173 0.60114354 0.03702303 0.033440795 1.3631753 1.035798 0.7431878 1.0967776
1.1821159 0.026867028 1.2435426 0.71832234 -0.042887118 0.57589066 1.5021538 1.447977

bias f4 [32]
00000000: c478 64bd 95fc 06be c7a6 713f 1587 43be
00000010: a4af 813f 9e75 b7bb aea7 803f 32b5 743f
00000020: 7abe b13e c270 1a3f 17da 323f a6f8 3b3f
00000030: f130 4b3f 64eb 403f 62ed 513f 277a 523f
00000040: 4b8c 0ebd 7e50 d93d c5e3 4b3f 49f5 733f
00000050: 6774 833f 8214 453f c936 603f 793e 4c3f
00000060: 3851 803f 3636 703f 990b a0bb f47c 6b3f
00000070: a088 5f3e 521b 9a3d fe2e c33e 3fa2 5e3f
-0.055779234 -0.1318229 0.9439511 -0.19094498 1.0131726 -0.005598738 1.0051172 0.9558898
0.34715635 0.60328305 0.6986403 0.7342628 0.79371554 0.7535918 0.8200284 0.8221764
-0.034801763 0.10611056 0.79644424 0.9529615 1.0269898 0.7698442 0.87583596 0.79782826
1.0024786 0.9383272 -0.004884195 0.9198754 0.21829462 0.07524742 0.3812179 0.8696632

weight f4 [1, 32]
00000000: f810 9ebd 472d a6be 9354 8340 f3b2 14c1
00000010: 8598 7f40 a662 afbb 06dc 8140 cdc1 7f40
00000020: d7df 1ec1 8f7a cac0 9d8b 8e40 9989 8b40
00000030: 147c 8a40 b6ba 8840 a85b 8840 ff9a 8840
00000040: 6651 1ebb 06c9 1bc0 60ed 8c40 422e 8240
00000050: 3ffd 8040 acb3 8b40 5225 8640 7130 8f40
00000060: 1d14 8040 9101 8640 cab3 98bc c47c 8340
00000070: 5fb7 20c0 6d06 26bf 7062 4bc0 0509 8540
-0.0771808 -0.3245642 4.104074 -9.293689 3.993684 -0.005352336 4.0581083 3.9962037
-9.929648 -6.327461 4.4545426 4.3605466 4.3276463 4.272792 4.2611885 4.2689204
-0.0024157404 -2.4341445 4.4039764 4.0681467 4.030914 4.3656826 4.1920557 4.4746633
4.002455 4.187691 -0.018640418 4.10898 -2.511192 -0.64853555 -3.1778831 4.157351
