ElegantRL/EntornoObservacionesAccionesMejorado/2Msteps_DDPG_0/act.pth (torch, 26069 bytes, 7 tensors)

state_avg f4 [48]
00000000: 0000 0000 0000 0000 0000 0000 0000 0000
00000010: 0000 0000 0000 0000 0000 0000 0000 0000
00000020: 0000 0000 0000 0000 0000 0000 0000 0000
00000030: 0000 0000 0000 0000 0000 0000 0000 0000
00000040: 0000 0000 0000 0000 0000 0000 0000 0000
00000050: 0000 0000 0000 0000 0000 0000 0000 0000
00000060: 0000 0000 0000 0000 0000 0000 0000 0000
00000070: 0000 0000 0000 0000 0000 0000 0000 0000
00000080: 0000 0000 0000 0000 0000 0000 0000 0000
00000090: 0000 0000 0000 0000 0000 0000 0000 0000
000000a0: 0000 0000 0000 0000 0000 0000 0000 0000
000000b0: 0000 0000 0000 0000 0000 0000 0000 0000
0.0 0.0 0.0 0.0 0.0 0.0 0.0 0.0
0.0 0.0 0.0 0.0 0.0 0.0 0.0 0.0
0.0 0.0 0.0 0.0 0.0 0.0 0.0 0.0
0.0 0.0 0.0 0.0 0.0 0.0 0.0 0.0
0.0 0.0 0.0 0.0 0.0 0.0 0.0 0.0
0.0 0.0 0.0 0.0 0.0 0.0 0.0 0.0

state_std f4 [48]
00000000: 0000 803f 0000 803f 0000 803f 0000 803f
00000010: 0000 803f 0000 803f 0000 803f 0000 803f
00000020: 0000 803f 0000 803f 0000 803f 0000 803f
00000030: 0000 803f 0000 803f 0000 803f 0000 803f
00000040: 0000 803f 0000 803f 0000 803f 0000 803f
00000050: 0000 803f 0000 803f 0000 803f 0000 803f
00000060: 0000 803f 0000 803f 0000 803f 0000 803f
00000070: 0000 803f 0000 803f 0000 803f 0000 803f
00000080: 0000 803f 0000 803f 0000 803f 0000 803f
00000090: 0000 803f 0000 803f 0000 803f 0000 803f
000000a0: 0000 803f 0000 803f 0000 803f 0000 803f
000000b0: 0000 803f 0000 803f 0000 803f 0000 803f
1.0 1.0 1.0 1.0 1.0 1.0 1.0 1.0
1.0 1.0 1.0 1.0 1.0 1.0 1.0 1.0
1.0 1.0 1.0 1.0 1.0 1.0 1.0 1.0
1.0 1.0 1.0 1.0 1.0 1.0 1.0 1.0
1.0 1.0 1.0 1.0 1.0 1.0 1.0 1.0
1.0 1.0 1.0 1.0 1.0 1.0 1.0 1.0

weight f4 [64, 48]
00000000: 8baa dda9 97d3 502c fa9d b8ac 07a0 a6ac
00000010: 4c38 32ac 5e98 f02b f89c 56aa a2ed b02c
00000020: fe2c 2dab 10c0 ad2b cc8d 07ac f844 b6ab
00000030: b8df d8ac bb35 95ac 7a77 3dac 7b60 702a
00000040: 6aa4 2d2c e556 6d2c 590e 98ac 8749 47ac
00000050: 59de 1d2c 62f0 b82c 86b5 c1ab 9cb6 a62c
00000060: 4c61 98ab d0f1 792a d617 cb2c 5353 d2ac
00000070: 9ac4 8fac 33d0 eaab 220e 32ac 3b69 c02c
00000080: 6153 93ac 925e 6eac acb2 9cac 9d4d d4ac
00000090: cc85 85ac c8b6 be2c 980a 452c b6b3 562c
000000a0: 2616 9e2a e8e7 82ac 5ec8 972b bf97 d3ac
000000b0: 27aa a4ac 1877 6bac 74e6 8b2c f736 822c
000000c0: 0acc aaae 5759 29ac d6ff caac 4523 29ad
000000d0: d287 642d 4353 baad dd64 b7ad 7588 3b2e
000000e0: 2264 a2ae 7170 faac dafd 7aad 2eaa 9aad
000000f0: 5c42 8f2d a084 8aad 3591 13ae 99d1 5f2e
00000100: 1352 a0ae f3f6 51ac 98f1 28ad 3776 64ad
00000110: 69ac b12d 6ad8 1dad 4a40 fead 7cc0 412e
00000120: ddd4 a7ae 4962 5b2c 9d58 97ac d3e3 85ad
00000130: 95e6 922d 7e8d 06ae e0e2 3bad 141a fa2d
00000140: 633e beae 3e29 762c 96f8 afac 20e9 02ae
00000150: 4479 8f2d 6f49 30ae a74d 982d f29b dc2d
00000160: 8beb a6ae 1b39 d1ac a821 04ad 6dbc 81ad
00000170: 104d 852d d2c9 d4ad 8d09 d72c 6331 002e
00000180: d772 70b4 6c45 7131 fcd3 e52f 44c3 deb1
00000190: 86a8 6531 fc11 9bb3 c2eb 4232 e40e 6a34
000001a0: bad1 69b4 5830 7131 68ea e52f 9e0d 0d32
000001b0: e890 eeb1 aa25 c8b3 44a4 d2b3 9a88 5134
000001c0: 9d76 7ab4 3e9a 7131 c6f8 ea2f 5486 90b2
000001d0: 6ee6 9eb2 3290 15b4 d469 f4b3 660a 1934
000001e0: c0ce 7eb4 6c38 7131 6ae1 e62f 7436 c4b2
000001f0: 4fcd eeb2 b8ff 2eb4 f0ef d8b3 3fe7 4334
00000200: b7e8 78b4 e3d8 7031 61c7 e72f 65e0 db31
00000210: 6018 0db3 c211 26b4 579f 3033 f2e1 2e34
00000220: de70 76b4 da29 7131 c140 e92f 2aa4 0f33
00000230: cc76 10b3 a9a1 e1b3 8a89 b534 9906 6034
00000240: 547c c9ac 8bad 54ac e6ba 982c 9d1a 3aa9
00000250: 55fa 5eac 20df abac 76e9 d1ac ff4f bdac
00000260: 4ef8 b5ab aa08 762c bb88 722c c452 d8ac
00000270: 14e8 8b2c 0c83 afac 4ead bdab 05e1 35ac
00000280: c6d1 acab a326 b0ab 2e45 c9ac 8aaa c1ac
00000290: 4d61 8cab bda3 b929 beca 4bac 84ff 282c
000002a0: e5de c9ac 7a33 f2aa 9642 c52c 79f9 36ac
000002b0: e187 ca2c 3c75 222c 5168 caac 8aeb 8d2c
000002c0: d711 4fab b843 48ac cc5c b32c 8d3f b5ac
000002d0: 0d8b 402b 9ad7 bbab 022c a02c a875 fa2b
000002e0: 9a90 572c ff6d 1e2c 03c3 d7ab c8b0 bcab
000002f0: d1d8 b8ac c312 732c 0416 b22c 0c7c 992c
00000300: 5978 a9ac 7ab2 f1aa 87aa a6ac f031 8aac
00000310: d59e 92ac 33ed fa2b 1287 8fac ef03 07ab
00000320: bf88 5da9 f6f1 6e2c 571d b2ac ed42 a8ac
00000330: f419 92ac 7e54 8f2c 89c3 35ac b5cf b12c
00000340: 8ddb 0b2c eca7 d229 36c1 a3aa 2cc0 eaab
00000350: c5c0 c42a e4c8 01ac d8b2 beaa 8bb3 092b
00000360: 7599 baac e2af 8eac 488e ac2c 606d c4ac
00000370: be93 7fab 12f0 cf2c 0893 0e2c 1695 22aa
00000380: c694 cdac 3eff 2b2c 2655 a8ac 3884 1cac
00000390: 3d30 36ac 4186 bdab 66a7 65aa 345d ad2c
000003a0: cfe2 052b 2acb af2c f4a4 802c 9bc9 9cac
000003b0: 1367 292c fb48 adac f8f0 4fac bf7f d72b
000003c0: 83bd b32b b205 ab2c 0ac3 76ac d6ca 8cab
000003d0: 224c 222c a6f8 fdac cc9d 6b2c 8d6b dbac
000003e0: ceb4 52ab 5480 8dab d74e a9ac 81f5 55aa
000003f0: f50f 972c d9f9 4eac 506d afac f091 6bac
-9.843956e-14 2.9676034e-12 -5.2471335e-12 -4.7357704e-12 -2.5326572e-12 1.7095316e-12 -1.9061478e-13 5.0286034e-12
-6.1524386e-13 1.2345697e-12 -1.9263367e-12 -1.295102e-12 -6.163927e-12 -4.2408e-12 -2.6924838e-12 2.1349755e-13
2.4676047e-12 3.3727962e-12 -4.3216927e-12 -2.8320417e-12 2.243447e-12 5.2562824e-12 -1.3763858e-12 4.7382775e-12
-1.0827255e-12 2.2199538e-13 5.7722533e-12 -5.97781e-12 -4.0861316e-12 -1.6684487e-12 -2.5303167e-12 5.468651e-12
-4.187248e-12 -3.3874331e-12 -4.4536232e-12 -6.034019e-12 -3.794942e-12 5.4204176e-12 2.8001265e-12 3.0510989e-12
2.8081807e-13 -3.720569e-12 1.0784808e-12 -6.013828e-12 -4.680051e-12 -3.3461619e-12 3.976203e-12 3.7009245e-12
-7.7669496e-11 -2.4065938e-12 -5.769589e-12 -9.614369e-12 1.2990458e-11 -2.1182727e-11 -2.0849484e-11 4.2640075e-11
-7.384694e-11 -7.117911e-12 -1.4267221e-11 -1.7583348e-11 1.6286687e-11 -1.5747681e-11 -3.35529e-11 5.089049e-11
-7.290537e-11 -2.983777e-12 -9.603339e-12 -1.29865485e-11 2.0199136e-11 -8.97247e-12 -2.8905007e-11 4.405408e-11
-7.632093e-11 3.117633e-12 -4.301516e-12 -1.5221524e-11 1.6700677e-11 -3.0593743e-11 -1.0680096e-11 2.843329e-11
-8.651282e-11 3.4981597e-12 -5.0013977e-12 -2.9765634e-11 1.631107e-11 -4.008299e-11 1.7314884e-11 2.5080358e-11
-7.590647e-11 -5.9464773e-12 -7.5108045e-12 -1.474928e-11 1.5154572e-11 -2.4191236e-11 6.111728e-12 2.9147695e-11
-2.239352e-07 3.5109577e-09 4.180548e-10 -6.4832495e-09 3.341968e-09 -7.221021e-08 1.1345891e-08 2.1798365e-07
-2.1776114e-07 3.5097596e-09 4.1821413e-10 8.210376e-09 -6.9431856e-09 -9.320077e-08 -9.808767e-08 1.9514337e-07
-2.3326216e-07 3.5157792e-09 4.2741116e-10 -1.6824892e-08 -1.8498408e-08 -1.3929164e-07 -1.13813854e-07 1.4253018e-07
-2.3730809e-07 3.5102188e-09 4.1996923e-10 -2.2842165e-08 -2.780021e-08 -1.6298043e-07 -1.0101928e-07 1.8244917e-07
-2.3181461e-07 3.5047882e-09 4.2160322e-10 6.3992496e-09 -3.285129e-08 -1.5466415e-07 4.1123112e-08 1.6287211e-07
-2.2951596e-07 3.5093906e-09 4.2428464e-10 3.344409e-08 -3.3635658e-08 -1.0506785e-07 3.381395e-07 2.0864026e-07
-5.726567e-12 -3.0223348e-12 4.3408497e-12 -4.132338e-14 -3.168706e-12 -4.884884e-12 -5.9660566e-12 -5.3805844e-12
-1.2929742e-12 3.4963512e-12 3.446617e-12 -6.148278e-12 3.9763835e-12 -4.9883483e-12 -1.3477359e-12 -2.5846558e-12
-1.2279559e-12 -1.2516276e-12 -5.720444e-12 -5.5043236e-12 -9.974605e-13 8.2440544e-14 -2.896058e-12 2.4016076e-12
-5.73751e-12 -4.3023555e-13 5.6064693e-12 -2.600224e-12 5.756271e-12 2.3086663e-12 -5.7527668e-12 4.033611e-12
-7.356593e-13 -2.84593e-12 5.0977885e-12 -5.151385e-12 6.8405074e-13 -1.3346991e-12 4.5523594e-12 1.7796225e-12
3.0633608e-12 2.251421e-12 -1.5330795e-12 -1.340727e-12 -5.253666e-12 3.4542792e-12 5.0615085e-12 4.3622935e-12
-4.81663e-12 -4.2934043e-13 -4.736936e-12 -3.92774e-12 -4.1672035e-12 1.7829404e-12 -4.0793003e-12 -4.7967094e-13
-4.9190466e-14 3.395615e-12 -5.0623217e-12 -4.7822774e-12 -4.152451e-12 4.073685e-12 -2.583019e-12 5.0537027e-12
1.9874963e-12 9.355003e-14 -2.9088684e-13 -1.6680038e-12 3.4950355e-13 -1.844352e-12 -3.3874878e-13 4.8921343e-13
-5.303475e-12 -4.0554097e-12 4.9043304e-12 -5.582798e-12 -9.079923e-13 5.909947e-12 2.0261032e-12 -1.4440215e-13
-5.8429676e-12 2.444225e-12 -4.7843006e-12 -2.224233e-12 -2.5890533e-12 -1.3466521e-12 -2.0397364e-13 4.9273034e-12
4.756585e-13 4.996355e-12 3.6562923e-12 -4.4561694e-12 2.4073562e-12 -4.925058e-12 -2.9550234e-12 1.5312125e-12
1.2771315e-12 4.8607446e-12 -3.506697e-12 -1.0003897e-12 2.3063847e-12 -7.218298e-12 3.3483103e-12 -6.236295e-12
-7.4857904e-13 -1.0054271e-12 -4.812022e-12 -1.9003377e-13 4.2934497e-12 -2.9413054e-12 -4.9859353e-12 -3.347652e-12

bias f4 [64]
00000000: 0f22 cd2c 79df e5ac 1199 2632 5edb 2fac
00000010: d173 482c 9c81 a1ac f14a 47ad 74fe 78ad
00000020: 1b66 3aad 0b83 312c 967f 0dad 9977 0cb7
00000030: c9b7 bfae 344b 31ad de58 913d f6f0 24b5
00000040: 81c7 aab1 7b19 a0ac 344b c3ad c085 7e35
00000050: f04f 3dac 41bb 88ab 5e2b 8fad 441a bbac
00000060: dc4c 67ac 4aba c4b4 3457 aaad c181 842c
00000070: 73e2 a63d 07a1 3aac 426a 0dad 2676 14ab
00000080: f49a 7432 f95f 41b4 0bee 713d f1e7 933d
00000090: 2718 25ad 95d6 1cad c7d4 b3ac be57 53b7
000000a0: 2643 4dad 58bb 4cad 5ec8 48b4 a9e4 2ab3
000000b0: c028 b1ac 86a7 ccab 56bb 1fad 2299 56ac
000000c0: 3d1b b92c 9c28 7b3d f44e 883d 1915 8bad
000000d0: ba44 1033 9db9 01b3 c76f 3bad ca31 9db1
000000e0: 349d fcb1 b519 60ad 3ed0 8b3d b4e6 05ad
000000f0: 1df9 183d 505e 1f3d 40a6 e2b4 4bf7 8c3d
5.8302317e-12 -6.533382e-12 9.697275e-09 -2.499077e-12 2.8486e-12 -4.5902847e-12 -1.1328481e-11 -1.4153668e-11
-1.0595548e-11 2.5225956e-12 -8.043252e-12 -8.372496e-06 -8.718321e-11 -1.0077984e-11 0.07097028 -6.1445405e-07
-4.970332e-09 -4.5503024e-12 -2.220233e-11 9.4817005e-07 -2.690289e-12 -9.715355e-13 -1.6276477e-11 -5.3177757e-12
-3.286974e-12 -3.6643388e-07 -1.9365488e-11 3.7660712e-12 0.081486605 -2.6521578e-12 -8.038516e-12 -5.2744126e-13
1.42379015e-08 -1.800944e-07 0.059064906 0.07221974 -9.384527e-12 -8.91522e-12 -5.111109e-12 -1.2597009e-05
-1.1667811e-11 -1.1637656e-11 -1.8699345e-07 -3.9789175e-08 -5.0351667e-12 -1.4541569e-12 -9.0797005e-12 -3.0496235e-12
5.2610403e-12 0.061318025 0.06655684 -1.581184e-11 3.359012e-08 -3.0203967e-08 -1.0654539e-11 -4.5749617e-09
-7.352037e-09 -1.2738634e-11 0.068268284 -7.611401e-12 0.037346948 0.038908303 -4.2216743e-07 0.06883105

weight f4 [32, 64]
00000000: b19a df2b 5379 2baf eb60 c22e d17f ce2b
00000010: 62e3 25ac 907e 0f2d 555b 1aaf 534c 51ab
00000020: 1e30 ebae 5161 b6ac 36d4 98af 80ff e5af
00000030: 3eda be2d f861 9cad 0ee7 dcb0 fb9b f9b1
00000040: de54 c1ac c366 efae e0bf 27b0 b653 34b0
00000050: b6e7 1bac b236 1f2c 5957 deac 8f7e 97af
00000060: 7d3f 962c 89ca 89ab 3553 79af 07a8 d02b
00000070: 4fef 32af 4e58 2f2c 799d 12af 4ca3 30ac
00000080: 55c0 93ac 7340 792e 547c ecae 55ca 33b1
00000090: fc96 21af f1a6 efae 074a 6b2c f63a 07b1
000000a0: 88d1 8fab 565b a6af 235b 28b1 3522 baac
000000b0: b214 85ab 8e65 3d2c ed56 a3af 3614 9b2b
000000c0: 2f86 1b2b 53e4 75b1 5f2c c2b0 02a0 25af
000000d0: f9ff d2af cd0b 3daf 89e9 14ae fd4b e1b0
000000e0: ecdf 9db0 ea4a 8aaf b8ee e2b1 7da5 df2c
000000f0: 925f 04af 348d 80af 9d60 27af d0ca eeb0
00000100: 8f5d 15ac c9ab a0ac bcc0 d6ab 067b acac
00000110: de4a 8dac 3b20 412c 4424 f4aa 8047 b6ac
00000120: c4da 5c2b ac53 482c 0287 a52c 2d99 a22b
00000130: 6e46 abac 69a0 9cac bed8 33ac a43a ddaa
00000140: ddd1 dc2b 4ebb 20ac df65 922c 5063 ad2b
00000150: 6e86 50ac 947d 8f2c 00b9 612c 196d 782b
00000160: 75a9 92ac 6c48 6eac 3396 a82b 13c5 b72b
00000170: dd58 a82c 7cea 252c 7895 092c 53fd 37ab
00000180: 4039 822c ee32 74ac f068 722b 1b92 bdac
00000190: b6d1 a229 2dfd eb2b 749a 2d2c 5786 15ac
000001a0: 9af0 f0aa 7077 1aac 2b1e 8b2b b936 802c
000001b0: bdbd 052c 6ff7 bbac 3f1b 9cac da6f 6c2c
000001c0: 5311 04ab 93bd 862c 886e 372c 8a6a 6fac
000001d0: 4b62 74ac 0a43 0fad 1f9e 0bab 2b06 d62b
000001e0: 7616 10ac a6a5 cdac f5d0 baac ef94 7cab
000001f0: 0f2c 4d2b 303c 4eac d82c e9ac 7547 b8ac
00000200: 96cd ad2c 8e1a 28af 18c8 c42e 67ee 6fac
00000210: 3489 9cac bc68 0b2c f605 22af 020c a1ac
00000220: 87ca e6ae d646 a2ac f859 99af 604e ebaf
00000230: 1037 d52d 3644 25ad 342d ddb0 1b9b f9b1
00000240: 0612 ceaa ce1a d7ae 936f 28b0 f476 31b0
00000250: 202e 32ad 6c71 93ac 76fa 0fab 16bb 95af
00000260: 9955 602c 0ff4 56ac dbad 71af 6456 bc2c
00000270: 92ed 31af f138 b12b aadd 0caf d368 402c
00000280: f65d a1ac 307c 7f2e 1b7c eaae 5457 33b1
00000290: 3611 23af 458e e6ae ca9e 89ac 9644 07b1
000002a0: 0662 1cac 4214 a3af 129c 28b1 587f 5b2b
000002b0: 8143 822c f31d b12c ad15 a2af 742f ac2c
000002c0: 40ad 322c fb04 76b1 b0d0 c1b0 4990 2aaf
000002d0: aec2 d1af 7aff 35af ac31 fcad e90f e1b0
000002e0: 2674 9db0 d435 8faf d9d9 e2b1 0e9a ee2c
000002f0: 9b77 faae 61fc 80af 0dd9 23af df2c 08b1
00000300: 46e3 8fac 2d15 2faf 3839 d52e 195b 942c
00000310: 95b9 7b2a e33a 53ac a28a 25af eb04 80ac
00000320: 4433 e2ae f3a6 73ac 989b 95af 2cf4 eaaf
00000330: 644a f62d 6da7 40ad 1106 ddb0 e2b8 f9b1
00000340: 4d4b a3ac 7c35 e0ae 503b 27b0 86ad 32b0
00000350: a64d 3dad f1b0 bd2b d6f5 91ac 7ba8 92af
00000360: b4a4 0dac bd7e e72b 0b2f 75af c340 412c
00000370: 9d99 33af 9343 f62b b45a 15af 1ad0 9a2b
00000380: fbc5 69ac 49a8 662e 08bd e9ae 40df 33b1
00000390: d777 27af 13eb e5ae 7c4f dcab ed4f 07b1
000003a0: 9839 93ac 8356 a7af 254a 28b1 65fb 9fac
000003b0: ed91 6aac 4496 74ac 3670 a1af 2999 162a
000003c0: 8be7 7a2a a452 76b1 ac20 c2b0 2d48 26af
000003d0: f1a1 d0af 425d 34af 5052 ffad 6161 e0b0
000003e0: 5bfc 9db0 a398 8baf d5e8 e2b1 4a8e 7d2b
000003f0: 13ec f7ae 9ca3 80af e1f4 2aaf 76a7 0eb1
1.5888038e-12 -1.5595462e-10 8.839315e-11 1.4672657e-12 -2.3574133e-12 8.156711e-12 -1.4038666e-10 -7.4357637e-13
-1.069511e-10 -5.1835554e-12 -2.7799424e-10 -4.18364e-10 2.1697418e-11 -1.7778654e-11 -1.6072776e-09 -7.2645867e-09
-5.494812e-12 -1.0886716e-10 -6.1026917e-10 -6.560258e-10 -2.215545e-12 2.262562e-12 -6.319317e-12 -2.7556665e-10
4.270305e-12 -9.79065e-13 -2.2675979e-10 1.4825926e-12 -1.6274025e-10 2.4918015e-12 -1.3334568e-10 -2.5101752e-12
-4.1993444e-12 5.6673288e-11 -1.07541226e-10 -2.616294e-09 -1.4696505e-10 -1.08981164e-10 3.3436602e-12 -1.96786e-09
-1.0218918e-12 -3.0260122e-10 -2.4499023e-09 -5.2902357e-12 -9.455962e-13 2.691489e-12 -2.9711292e-10 1.1019022e-12
5.525328e-13 -3.578198e-09 -1.4127969e-09 -1.5063509e-10 -3.8380657e-10 -1.7193642e-10 -3.3858725e-11 -1.6392502e-09
-1.1486896e-09 -2.5155283e-10 -6.604605e-09 6.356414e-12 -1.2039283e-10 -2.3383395e-10 -1.5222885e-10 -1.7374422e-09
-2.122611e-12 -4.5665455e-12 -1.5259109e-12 -4.9021924e-12 -4.015773e-12 2.7444841e-12 -4.336827e-13 -5.180689e-12
7.84633e-13 2.8468157e-12 4.704571e-12 1.1553307e-12 -4.8679316e-12 -4.4515958e-12 -2.5557746e-12 -3.9298176e-13
1.5690189e-12 -2.2841343e-12 4.1608795e-12 1.2319954e-12 -2.9633201e-12 4.0782464e-12 3.2077119e-12 8.82587e-13
-4.168383e-12 -3.3862036e-12 1.1978807e-12 1.3057631e-12 4.784713e-12 2.3578075e-12 1.9551843e-12 -6.536622e-13
3.7011783e-12 -3.4702757e-12 8.61213e-13 -5.387924e-12 7.230624e-14 1.6768025e-12 2.4670517e-12 -2.1248747e-12
-4.2799515e-13 -2.1951017e-12 9.884917e-13 3.6440542e-12 1.9005763e-12 -5.3423303e-12 -4.4368116e-12 3.3599707e-12
-4.6919863e-13 3.829556e-12 2.6067221e-12 -3.4023084e-12 -3.472905e-12 -8.1434946e-12 -4.9602157e-13 1.5207327e-12
-2.04761e-12 -5.844841e-12 -5.309637e-12 -8.973507e-13 7.2891774e-13 -2.9307771e-12 -6.627237e-12 -5.237528e-12
4.9397804e-12 -1.5288945e-10 8.948592e-11 -3.4096283e-12 -4.4490193e-12 1.9811227e-12 -1.4735932e-10 -4.5772284e-12
-1.0495165e-10 -4.6121813e-12 -2.7894465e-10 -4.280194e-10 2.4239749e-11 -9.39431e-12 -1.6092714e-09 -7.2644872e-09
-3.6605457e-13 -9.7818295e-11 -6.12766e-10 -6.456127e-10 -1.012837e-11 -4.1905836e-12 -5.115139e-13 -2.7235875e-10
3.187983e-12 -3.0546709e-12 -2.1980588e-10 5.3528727e-12 -1.6182458e-10 1.2592411e-12 -1.2811677e-10 2.734303e-12
-4.586327e-12 5.8090588e-11 -1.06631336e-10 -2.6097569e-09 -1.4830878e-10 -1.0484461e-10 -3.9114033e-12 -1.9684072e-09
-2.2223347e-12 -2.966392e-10 -2.4535933e-09 7.7981155e-13 3.7023167e-12 5.0339676e-12 -2.948303e-10 4.8938024e-12
2.5391494e-12 -3.5800543e-09 -1.4101911e-09 -1.551267e-10 -3.8155207e-10 -1.6552618e-10 -2.8671142e-11 -1.6375427e-09
-1.1456265e-09 -2.6049796e-10 -6.602232e-09 6.7814704e-12 -1.138993e-10 -2.346239e-10 -1.4901876e-10 -1.981611e-09
-4.089537e-12 -1.592368e-10 9.696283e-11 4.216527e-12 2.2357665e-13 -3.0017592e-12 -1.5055915e-10 -3.638525e-12
-1.0286397e-10 -3.4625052e-12 -2.7213498e-10 -4.2737847e-10 2.7999998e-11 -1.0951112e-11 -1.608159e-09 -7.2678725e-09
-4.6410987e-12 -1.01958414e-10 -6.0838534e-10 -6.5002614e-10 -1.0760648e-11 1.3478369e-12 -4.148441e-12 -2.6676958e-10
-2.0128734e-12 1.6448714e-12 -2.2299333e-10 2.74629e-12 -1.633453e-10 1.7498107e-12 -1.3583695e-10 1.1000118e-12
-3.3221193e-12 5.2445413e-11 -1.0629192e-10 -2.6174831e-09 -1.5231137e-10 -1.0455472e-10 -1.5654002e-12 -1.9690518e-09
-4.1843855e-12 -3.0438593e-10 -2.4489364e-09 -4.546962e-12 -3.3334405e-12 -3.47579e-12 -2.936546e-10 1.3375814e-13
2.2284793e-13 -3.5844687e-09 -1.4124644e-09 -1.5123254e-10 -3.7950046e-10 -1.6404036e-10 -2.9026698e-11 -1.6325822e-09
-1.1494977e-09 -2.5392408e-10 -6.6039356e-09 9.008112e-13 -1.1274195e-10 -2.3399316e-10 -1.5548408e-10 -2.075891e-09

bias f4 [32]
00000000: ec76 0cb1 45d6 e5ac a58f 0cb1 e2cc 0cb1
00000010: b317 7fbc 97c6 84bc 2e6f a7ac de3f 0cb1
00000020: b298 0cb1 02fd 7ebc 2598 0cb1 76fe 7ebc
00000030: e993 7cbc 25fd bcab 526d 26ad b83c 0fb1
00000040: e8bc 84bc e06d 0cb1 3357 0cb1 5ac5 84bc
00000050: 9594 0cb1 bbaf 0cb1 18fd 7ebc 848d 0cb1
00000060: 8fbe 0cb1 b4fe 7ebc 80fc 7ebc 5cd3 0cb1
00000070: 1384 42bb 40a0 0cb1 08cd 84bc 4fcc 84bc
-2.044028e-09 -6.53236e-12 -2.0454334e-09 -2.0489144e-09 -0.015569615 -0.016207976 -4.758769e-12 -2.0408986e-09
-2.0459479e-09 -0.015563251 -2.0459165e-09 -0.015563598 -0.015416124 -1.3428465e-12 -9.4602815e-12 -2.0843753e-09
-0.016203359 -2.0435138e-09 -2.0422248e-09 -0.016207386 -2.045714e-09 -2.0472573e-09 -0.015563272 -2.0453124e-09
-2.0481001e-09 -0.015563656 -0.01556313 -2.0492825e-09 -0.0029680773 -2.0463773e-09 -0.016211048 -0.016210703

weight f4 [1, 32]
00000000: 52fc fd30 fcd7 692c d494 fe30 14f8 fe30
00000010: da1f 2c3f 268e 2c3f d86d 2aaa 64a9 fd30
00000020: 42cf fe30 1e0a 2c3f 0a76 fe30 740a 2c3f
00000030: 0e04 2c3f 1f7b 7a2b 740d 8c2c 7c3e 0231
00000040: 4b98 2c3f d46f fe30 d205 fe30 b18d 2c3f
00000050: eca9 fe30 fa71 fe30 240a 2c3f c213 fe30
00000060: c4ed fe30 680a 2c3f 110a 2c3f feb8 fe30
00000070: e0bf 3b3b 4a6d fe30 dc8b 2c3f 998d 2c3f
1.8479887e-09 3.3231187e-12 1.8523232e-09 1.855144e-09 0.672361 0.674044 -1.5137143e-13 1.8456316e-09
1.8539839e-09 0.6720294 1.8514481e-09 0.6720345 0.67193687 8.8988707e-13 3.980533e-12 1.8953008e-09
0.6741988 1.8512716e-09 1.8482587e-09 0.67403704 1.8529227e-09 1.8513326e-09 0.67202973 1.8486548e-09
1.8548509e-09 0.6720338 0.6720286 1.853351e-09 0.0028648302 1.8511994e-09 0.6740091 0.6740356
