ElegantRL/EntornoObservacionesAccionesMejorado/2Msteps_A2C_0/cri.pth (torch, 26501 bytes, 7 tensors)

state_avg f4 [48]
000000 00 00 00 00 00 00 00 00 00 00 00 00 00 00 00 00
       0.0 0.0 0.0 0.0
000010 00 00 00 00 00 00 00 00 00 00 00 00 00 00 00 00
       0.0 0.0 0.0 0.0
000020 00 00 00 00 00 00 00 00 00 00 00 00 00 00 00 00
       0.0 0.0 0.0 0.0
000030 00 00 00 00 00 00 00 00 00 00 00 00 00 00 00 00
       0.0 0.0 0.0 0.0
000040 00 00 00 00 00 00 00 00 00 00 00 00 00 00 00 00
       0.0 0.0 0.0 0.0
000050 00 00 00 00 00 00 00 00 00 00 00 00 00 00 00 00
       0.0 0.0 0.0 0.0
000060 00 00 00 00 00 00 00 00 00 00 00 00 00 00 00 00
       0.0 0.0 0.0 0.0
000070 00 00 00 00 00 00 00 00 00 00 00 00 00 00 00 00
       0.0 0.0 0.0 0.0
000080 00 00 00 00 00 00 00 00 00 00 00 00 00 00 00 00
       0.0 0.0 0.0 0.0
000090 00 00 00 00 00 00 00 00 00 00 00 00 00 00 00 00
       0.0 0.0 0.0 0.0
0000a0 00 00 00 00 00 00 00 00 00 00 00 00 00 00 00 00
       0.0 0.0 0.0 0.0
0000b0 00 00 00 00 00 00 00 00 00 00 00 00 00 00 00 00
       0.0 0.0 0.0 0.0

state_std f4 [48]
000000 00 00 80 3f 00 00 80 3f 00 00 80 3f 00 00 80 3f
       1.0 1.0 1.0 1.0
000010 00 00 80 3f 00 00 80 3f 00 00 80 3f 00 00 80 3f
       1.0 1.0 1.0 1.0
000020 00 00 80 3f 00 00 80 3f 00 00 80 3f 00 00 80 3f
       1.0 1.0 1.0 1.0
000030 00 00 80 3f 00 00 80 3f 00 00 80 3f 00 00 80 3f
       1.0 1.0 1.0 1.0
000040 00 00 80 3f 00 00 80 3f 00 00 80 3f 00 00 80 3f
       1.0 1.0 1.0 1.0
000050 00 00 80 3f 00 00 80 3f 00 00 80 3f 00 00 80 3f
       1.0 1.0 1.0 1.0
000060 00 00 80 3f 00 00 80 3f 00 00 80 3f 00 00 80 3f
       1.0 1.0 1.0 1.0
000070 00 00 80 3f 00 00 80 3f 00 00 80 3f 00 00 80 3f
       1.0 1.0 1.0 1.0
000080 00 00 80 3f 00 00 80 3f 00 00 80 3f 00 00 80 3f
       1.0 1.0 1.0 1.0
000090 00 00 80 3f 00 00 80 3f 00 00 80 3f 00 00 80 3f
       1.0 1.0 1.0 1.0
0000a0 00 00 80 3f 00 00 80 3f 00 00 80 3f 00 00 80 3f
       1.0 1.0 1.0 1.0
0000b0 00 00 80 3f 00 00 80 3f 00 00 80 3f 00 00 80 3f
       1.0 1.0 1.0 1.0

weight f4 [64, 48]
000000 05 67 a0 40 fd ce a7 3f ed ee 95 bf a4 e8 2f bf
       5.0125756 1.3110043 -1.1713539 -0.68714356
000010 55 f0 02 c0 cb 1b 3d 3e 12 be 0b 3e 13 55 78 3f
       -2.0459187 0.18467633 0.13646725 0.9700481
000020 a8 26 9d 40 31 97 b4 3f 95 28 91 bf f1 9a 3b bf
       4.910969 1.410864 -1.134051 -0.73283297
000030 07 f8 ef bf 4a 5e 94 3d 8e 55 9a 3e d4 1d 49 3f
       -1.8747567 0.07244547 0.30143398 0.7856114
000040 ee 2a 9b 40 4f 13 ac 3f 30 62 92 bf 06 78 32 bf
       4.8489904 1.3443393 -1.1436214 -0.6971439
000050 69 73 e8 bf 4b 5c f4 bd 38 50 73 3e 08 25 50 3f
       -1.816022 -0.11931666 0.2376107 0.81306505
000060 63 8c 9f 40 63 7a b2 3f 91 01 95 bf 3c 9e 1f bf
       4.985887 1.39436 -1.1641103 -0.6235082
000070 07 d6 d9 bf ff 1c b6 bd 25 6d 91 bc f8 b5 51 3f
       -1.7018441 -0.08892249 -0.01775224 0.8191829
000080 d2 e9 9a 40 d5 71 ab 3f 23 b1 95 bf c4 cf 36 bf
       4.8410425 1.3394114 -1.1694683 -0.71410775
000090 71 d8 ce bf a4 de 82 be 4c 28 97 3d 33 0c 15 3f
       -1.6159803 -0.25560486 0.07380733 0.5822174
0000a0 6d 61 a5 40 fb 77 b2 3f e3 a7 8d bf fb 19 44 be
       5.168143 1.3942865 -1.106686 -0.19150536
0000b0 5c 2f b2 bf f1 2a 0f 3e ea 34 26 bf 97 5a b6 3f
       -1.3920703 0.13981225 -0.6492449 1.4246396
0000c0 54 42 e1 3e a7 cc 60 be c1 ab 81 3e a5 13 c6 be
       0.43995917 -0.21953069 0.2532635 -0.38686863
0000d0 a0 fb ae be d2 01 2f 3f cf 57 11 bf 3f ad 83 bf
       -0.3417635 0.6836215 -0.5677461 -1.0287246
0000e0 1f a6 13 3f cd 5a 31 be 92 9c 5e 3e 94 88 f0 be
       0.57675356 -0.17319794 0.21739414 -0.469792
0000f0 38 07 0f be f8 68 dd 3e f0 05 93 be ed 24 40 bf
       -0.13967597 0.43244147 -0.28715467 -0.75056344
000100 05 04 2e 3f 2b bd 2f be 8e 73 6a 3e 78 1b 9e be
       0.67974883 -0.17162006 0.22895643 -0.30880332
000110 96 79 d7 bc 4f d4 98 3e ca ba 10 be 20 ae 00 be
       -0.026303094 0.2984948 -0.14133754 -0.12566423
000120 92 e7 ca 3e 5b a6 14 be 35 71 4c 3e e4 1e 0f bf
       0.396298 -0.14516585 0.1996506 -0.5590651
000130 e2 0d 88 3d 8a 67 ab 3d e2 35 55 be 3e 06 56 bf
       0.06643273 0.08369358 -0.20821336 -0.83603275
000140 b2 e9 db 3e 48 56 b7 bd 6d a0 56 3e 98 0d d3 be
       0.42951733 -0.08952004 0.20959635 -0.4122131
000150 09 39 00 3e 05 8d dc bd f1 0b e2 3d c0 f8 9c be
       0.12521757 -0.10769085 0.11037434 -0.3065853
000160 9f c0 e3 be 0e de 09 be 28 b7 89 3e 04 45 b7 bf
       -0.44482896 -0.13463613 0.2689755 -1.4317937
000170 11 2e 5a be 12 e2 61 bf 80 e5 27 3f 12 3a 45 c0
       -0.21306635 -0.8823558 0.65584564 -3.0816693
000180 61 8d 85 3e 3c ef 99 be 87 06 a5 3e d3 e3 22 bf
       0.26084426 -0.30065334 0.32231542 -0.6362888
000190 05 c1 9f be 43 df f1 be 1a 97 0b bf 8f 1a 05 bf
       -0.3120195 -0.47240648 -0.5452744 -0.5199365
0001a0 0d 67 b1 3e d3 a9 7b be 6c d4 d0 3e 10 3d 15 bf
       0.34648934 -0.24576502 0.40787065 -0.582963
0001b0 89 cf c9 bd ae a0 a5 be e6 f4 f8 be cc 28 be be
       -0.09854037 -0.3234915 -0.48624343 -0.371405
0001c0 1f b7 98 3e 07 1a 64 be 66 69 b7 3e ab 30 dd be
       0.2982721 -0.22275554 0.358226 -0.43201193
0001d0 96 17 01 3d b3 59 22 be 89 8b 30 be 56 37 ba be
       0.031516634 -0.1585453 -0.17240728 -0.36370343
0001e0 f1 71 04 3e c3 09 a2 be 26 d2 d7 3e 03 64 11 bf
       0.1293409 -0.31648073 0.42152518 -0.5679323
0001f0 cf c6 04 3e 7e 4d 1a be ec b4 13 bf 80 c4 8b be
       0.12966464 -0.15068623 -0.5769794 -0.27298355
000200 7b fb 88 3e 13 dd 6f be 2b 60 c3 3e da 04 bc be
       0.26754364 -0.23424177 0.38159308 -0.3672245
000210 57 6d 4f 3e 93 53 30 be a2 90 31 bf 12 5a b5 bd
       0.20256554 -0.17219381 -0.6936132 -0.0885507
000220 ff 72 a6 be 0d 15 aa be 58 0d d8 3e c4 3f 4c bf
       -0.3250961 -0.33219185 0.4219768 -0.797848
000230 00 81 dd 3c ab 19 25 bf a0 d8 c0 bf d3 62 8b bf
       0.027039051 -0.6449229 -1.5066109 -1.0889534
000240 2b 41 85 40 08 1c 63 3f 04 68 23 c0 38 4c 58 bf
       4.164205 0.8871465 -2.5532236 -0.844913
000250 fa a1 81 c0 d7 f1 0a c0 65 f1 19 40 33 70 67 40
       -4.0510225 -2.1710107 2.4053586 3.616223
000260 3d 44 84 40 d1 71 64 3f ee 4d 20 c0 a0 fb 4f bf
       4.13333 0.8923617 -2.5047565 -0.81243324
000270 b5 4a 79 c0 6d fc 06 c0 91 65 f4 3f d6 f7 65 40
       -3.8951848 -2.1091568 1.9093496 3.5932517
000280 fb 46 81 40 4b 34 6c 3f 33 e4 25 c0 3a 58 7a bf
       4.0399146 0.9226729 -2.5920532 -0.97790873
000290 e4 88 71 c0 c3 29 0e c0 78 a9 eb 3f b3 57 52 40
       -3.7739801 -2.221299 1.8411093 3.2866027
0002a0 b0 77 7b 40 09 c1 5e 3f 6c 26 28 c0 35 fb 9d bf
       3.9291801 0.870133 -2.627345 -1.2342287
0002b0 ef 41 64 c0 71 81 1a c0 39 86 e7 3f 08 c0 45 40
       -3.5665243 -2.4141505 1.8087837 3.0898457
0002c0 24 5c 7b 40 5d da 49 3f c3 2e 20 c0 ae 74 8d bf
       3.9274988 0.7884882 -2.502854 -1.1051233
0002d0 2e 9d 5a c0 99 68 23 c0 30 2a b6 3f 1b 6f 49 40
       -3.4158435 -2.5532591 1.4231625 3.1474063
0002e0 da f4 78 40 49 fb 50 3f 9a 70 25 c0 ad 2d 87 bf
       3.8899446 0.8163343 -2.5849977 -1.0560814
0002f0 c3 9e 4c c0 f9 a8 02 c0 55 02 ad 3f fc d5 49 40
       -3.19719 -2.0415633 1.3516337 3.1536856
000300 19 f0 5c 3d 72 19 32 3d 80 af 36 3c 0c b3 be 3c
       0.053939912 0.043481298 0.011150241 0.023278736
000310 72 e0 ca 3c c1 6d 3b 3d 7a 67 b7 bd 4f 2b 02 bd
       0.024765227 0.045758966 -0.089552835 -0.031779584
000320 9b f0 94 bc ad 61 ca bc d6 00 65 bd 4c f4 9e bd
       -0.018181136 -0.024704779 -0.055909 -0.0776144
000330 bf 96 58 bd 46 f0 c7 bc b6 2a 1f 3d 2c 8b 64 3d
       -0.052878138 -0.024406563 0.03885909 0.055796787
000340 ae a5 1b 3c 2e 29 5c bd 98 8a 1b bd 2b f6 f8 bb
       0.00949995 -0.05375021 -0.03797397 -0.007597705
000350 c9 0c 84 bd b6 2f a6 bc e5 72 ce ba 6a 35 91 3d
       -0.06447751 -0.020286422 -0.0015750794 0.07090266
000360 66 73 e4 bc 81 9f 63 3d 99 04 ac bb 6d 4b 80 bd
       -0.027887058 0.055572037 -0.0052495715 -0.06264386
000370 b3 c0 81 3d 6b 35 23 3d df c6 8c bd 2c 98 fc bc
       0.063355826 0.039845865 -0.06873869 -0.03083428
000380 90 a2 b2 3c 2d 79 5c bd 7e 19 14 3d cf c6 4c bd
       0.021806031 -0.0538265 0.036157124 -0.049994286
000390 87 17 c2 bc 63 37 2c bd ad 56 5c 3d 5d 3e 86 bc
       -0.02369286 -0.04204501 0.053793598 -0.016387159
0003a0 fc 7e c3 bc fb e5 f3 3c e8 a6 6a bd 08 83 92 bc
       -0.023864262 0.02977275 -0.05728808 -0.017884746
0003b0 be 7d 65 bd 4c c3 b0 bd 4d b4 d6 bc 54 ba 6f 3c
       -0.05602812 -0.08631 -0.026209021 0.014631826
0003c0 b2 ee b2 3e ed 26 98 bd fd 10 c7 3d 0b 55 6c be
       0.34947735 -0.074292995 0.09720037 -0.23079316
0003d0 90 58 83 be f6 9f 01 be f7 69 39 3c aa 47 cc be
       -0.25653505 -0.12658677 0.011316768 -0.39898425
0003e0 3c b6 9c 3e b0 18 82 bd 68 03 1b 3e ba e3 9b be
       0.30607784 -0.06352365 0.15138018 -0.3044718
0003f0 a0 94 71 be b0 b4 02 be 6e 89 1e bc 5b 72 b9 be
       -0.23591852 -0.1276424 -0.0096763205 -0.3622006

bias f4 [64]
000000 8b 95 5e 3e f7 f8 7c 3e 57 46 c5 3e 60 74 3b 3d
       0.21736734 0.24704348 0.38530228 0.04576528
000010 8e 41 3e bd b8 89 ef 3d 5f 12 91 be aa b5 f3 3f
       -0.046449237 0.1169619 -0.2833433 1.9039814
000020 06 15 24 bc 38 a0 9f 3d 47 28 c6 3e 85 ed c1 3e
       -0.010014778 0.07794231 0.38702604 0.37876526
000030 d8 ff 87 3e 89 df d8 3d 07 15 cd 3d 47 9a 82 3e
       0.2656238 0.10589511 0.10013776 0.2550833
000040 4b c5 88 3e 93 3f 71 3b 75 1d dd 3a 00 32 16 3e
       0.26713023 0.0036811575 0.0016869741 0.14667511
000050 b0 cc ee 3f 16 e8 04 bd 69 fe 6b 3e ad e0 ab 3e
       1.8656216 -0.032447897 0.23046269 0.33569852
000060 62 42 95 3e 93 17 a0 bd 8d 18 80 3d ec a0 86 3e
       0.2915221 -0.078169964 0.06254683 0.2629465
000070 8c c9 10 40 79 25 23 3e 5c 5d e9 3c 5c 60 0b bd
       2.2623014 0.15932263 0.0284869 -0.034027442
000080 9d 7a 55 3e 1c 9b 97 3e a3 8e a6 3d 72 ba de 3f
       0.20847555 0.29610527 0.081326745 1.7400649
000090 81 47 a3 bc c8 f7 a2 3c 1d 48 4b 3c 3a 62 4c bd
       -0.019931557 0.019893542 0.01240733 -0.049898364
0000a0 f1 e0 0d 3e 15 9a 81 bd 7c 7b 9a 3f a9 43 a7 3e
       0.1385534 -0.06328217 1.2068934 0.32668808
0000b0 fa 95 1f 40 93 3a 28 3f f8 1d ad 3e 3f 48 d6 3d
       2.4935288 0.6571438 0.33811927 0.104629986
0000c0 9a 49 c5 3f 5f 99 85 3f e1 39 62 bc ef a6 dd bc
       1.5413086 1.043743 -0.013807745 -0.02705714
0000d0 6a 51 50 3e a4 ee 55 3e 91 c3 0f 3e 45 14 02 3b
       0.20343557 0.20891815 0.14039446 0.0019848507
0000e0 f9 a7 1a 3e 1c 19 55 bd 37 34 4a 3f 2b 66 91 3f
       0.15103139 -0.0520259 0.78985924 1.1359304
0000f0 e1 bc de 3c 64 53 a7 3e b1 ef 05 3d ac ce 17 3e
       0.027189674 0.3268081 0.03269929 0.14824933

weight f4 [32, 64]
000000 fd f8 8a 40 39 c7 72 c0 f7 35 15 c1 3f 7a 85 40
       4.342894 -3.7934096 -9.325675 4.1711726
000010 bd 46 42 bb cb f7 27 3d 83 53 e4 40 82 07 6c c0
       -0.0029644214 0.0410078 7.1351943 -3.6879582
000020 3d f4 05 3d 4b 55 47 3d b5 46 99 c0 7e 33 e4 c0
       0.032703627 0.048665326 -4.789881 -7.1312857
000030 90 1b 4d 3e 99 3b a6 3d 82 f3 f6 3c 95 c3 4a be
       0.20030046 0.08116836 0.03014541 -0.19801171
000040 f2 60 f2 be b4 dd 01 bd 23 d7 54 bd cf 1a 28 3d
       -0.47339588 -0.031705573 -0.051962983 0.04104119
000050 a4 a1 61 40 86 24 96 c0 2d 05 9e bf 0d d0 86 3e
       3.5254908 -4.6919584 -1.234533 0.26330605
000060 02 e2 0e c0 c6 a2 84 bc 1e 68 e4 3d 44 55 cf 3d
       -2.2325444 -0.016190898 0.11152671 0.10123685
000070 87 e1 60 40 e1 61 49 c0 e4 f5 6a 3d 3e dd a0 40
       3.513765 -3.146599 0.057363406 5.027007
000080 ac 5f b5 c0 19 3a 6f 3e be ba 2d bd d3 1c 72 40
       -5.6679287 0.23362006 -0.04241442 3.7830093
000090 7a 2a 6a bd ff a9 5a bd 0e c5 a9 bc e5 e3 59 3a
       -0.057169415 -0.053384777 -0.020723846 0.0008311852
0000a0 d0 37 22 3e 1a 49 89 40 a8 9f 84 40 ff 9d 3b 3e
       0.15841603 4.2901735 4.1444893 0.1832199
0000b0 04 5f 4a 40 d0 fb 98 40 fa 83 6d 3e 6f f0 41 bf
       3.1620493 4.780739 0.23194876 -0.757575
0000c0 91 45 53 40 97 c7 88 40 03 ac 05 bd 72 45 c8 3b
       3.301121 4.274364 -0.032634746 0.006111794
0000d0 7a cc 12 c0 81 44 2b bf ea 78 5c c0 c8 4b 8a 40
       -2.2937303 -0.66901404 -3.44488 4.3217506
0000e0 e4 19 4f c0 44 f5 a7 3c 4f 79 10 40 ba 9d 93 40
       -3.2359552 0.020502694 2.257404 4.6130037
0000f0 3d af e9 3c cc 64 63 3e 0d a7 35 3d 18 5b 37 bc
       0.028525943 0.2220642 0.044348765 -0.011191152
000100 83 b1 89 40 08 ae 5a c0 2d fb 0d c1 d8 17 89 40
       4.302919 -3.416872 -8.873822 4.2841606
000110 12 25 0a 3d 41 ca 5d bb f7 56 e7 40 b7 9a 6d c0
       0.03372676 -0.0033842477 7.229366 -3.712568
000120 97 ec de bc 91 18 e1 3d 87 60 8c c0 b0 18 d7 c0
       -0.027212424 0.10991014 -4.386783 -6.7217636
000130 5d 5c e0 3d f0 8e b0 3c cf fa 9d 3d 4f ba 9b bd
       0.10955117 0.021552533 0.077138536 -0.07603895
000140 70 72 aa bd 65 4f 79 bd d9 3d 00 3d 5f 1f 4a bd
       -0.083226085 -0.060866732 0.031308983 -0.049346324
000150 97 41 5d 40 97 59 89 c0 b4 e5 81 bf 2b b9 5a 3e
       3.4571283 -4.2921863 -1.0148225 0.21359698
000160 9d 01 d7 bf 9f 89 a9 b8 47 bd a6 3d 08 38 ee 3d
       -1.6797367 -8.084182e-05 0.081415705 0.11631781
000170 d1 ee 5f 40 0d 6c 48 c0 8f 06 b0 3c 9a 61 9f 40
       3.4989512 -3.131595 0.021487502 4.9806643
000180 90 14 97 c0 01 ea 86 3e 12 7b 87 bd b8 f1 72 40
       -4.72126 0.26350406 -0.06615271 3.7960033
000190 46 65 62 3c 58 19 1f 3d ca 10 e5 3c 37 14 94 bc
       0.013818091 0.03884253 0.027962107 -0.018076045
0001a0 18 02 ef 3c e6 4f 8d 40 6d b8 87 40 b7 4b 31 3e
       0.029175803 4.416003 4.241263 0.17314039
0001b0 ec 57 48 40 3a 9f 9a 40 a0 c6 3b 3e 6c b3 66 be
       3.1303663 4.831937 0.18337488 -0.22529382
0001c0 e5 1a 57 40 10 36 8b 40 09 aa 0f 3d b9 87 55 3d
       3.3610165 4.3503494 0.035074268 0.05213139
0001d0 0f a2 19 c0 de c7 3e be 2a 94 40 c0 7c 2b 8c 40
       -2.4005163 -0.18630931 -3.0090432 4.380308
0001e0 c0 21 32 c0 b2 57 11 3d 47 b1 2d 40 1c 0f 93 40
       -2.78331 0.035484023 2.7139452 4.5955944
0001f0 e4 5e 6b bd fa 22 24 3e 0f ca 4a 3d e0 27 6a 3d
       -0.05746354 0.16028967 0.049509104 0.057166934
000200 41 d1 dc be c4 e5 db 40 d4 97 b6 40 de a6 6a be
       -0.43128398 6.8717976 5.7060337 -0.22915217
000210 19 22 38 bc ac c5 18 3f 8d 77 43 c0 66 1c 6f 40
       -0.011238598 0.59676623 -3.0541718 3.7361083
000220 e6 ac 3a 3d 03 32 30 3f c7 04 ab 40 3c fb f3 40
       0.045575045 0.6882631 5.344333 7.6244183
000230 2a 9a 0e 3f f9 09 18 3f 88 03 1c 3f 90 86 48 3f
       0.55703986 0.5939022 0.6094289 0.78330326
000240 2d 4e 9a 3f d3 4c 25 3f 5f 3f 15 bd a5 a6 56 3f
       1.2055107 0.6457035 -0.03643739 0.8384803
000250 a7 05 09 be 3a b0 a3 40 c1 f6 d8 3f 90 62 2c 3f
       -0.13381062 5.115262 1.6950303 0.67337894
000260 a0 46 2f 40 c1 a0 41 3d 63 64 1c 3f d7 23 0f 3f
       2.7386856 0.047272447 0.6109068 0.5591406
000270 cf 2a 5d 3e 53 54 71 40 eb 5e 15 3f 1d 62 72 bf
       0.21598361 3.7707717 0.5834796 -0.9468096
000280 b0 98 e0 40 aa 79 f7 3e c6 d1 51 3f d6 1c 32 be
       7.0186386 0.4833501 0.81960714 -0.17393813
000290 db 00 76 3d f9 40 63 3c e0 7d 5e bc 57 3e 37 bd
       0.06005941 0.013870471 -0.013579816 -0.044737186
0002a0 ef bf 23 3f 1e bc fc be cf 29 aa be 85 14 35 3f
       0.6396474 -0.49362272 -0.33235022 0.70734435
0002b0 23 19 05 3e 7c b8 8e bf 70 7c 02 3f 96 d3 a8 3f
       0.1299787 -1.115005 0.50971127 1.3189571
0002c0 76 4c 6b bf b0 b0 a1 be e3 01 61 bc 5b e6 03 3d
       -0.91913545 -0.31580114 -0.01373336 0.032202106
0002d0 1e 1d 52 40 2d f5 b4 3f 18 dd 7c 40 bf b1 a6 be
       3.2830272 1.4137322 3.9509945 -0.32557485
0002e0 fe 07 70 40 91 03 42 3d d9 3c 12 3f bb 85 63 bf
       3.7504878 0.047366682 0.57124096 -0.8887593
0002f0 c3 64 4b bc 0f 5c 1e 3f 80 27 0c 3f a4 09 1d 3f
       -0.01241416 0.6185922 0.5474777 0.61342835
000300 8a d8 87 40 c6 42 23 c0 95 05 17 c1 c9 ea 84 40
       4.245183 -2.5509505 -9.438863 4.1536603
000310 54 7f 92 3c 10 45 98 bd b8 1a e6 40 49 4e 6b c0
       0.01788298 -0.074350476 7.1907616 -3.6766531
000320 67 86 57 3d cd b2 2f be e0 94 a2 c0 1c 4a e2 c0
       0.05261841 -0.17158051 -5.080673 -7.0715466
000330 4f 53 77 3e 1e fb d4 bd 91 f7 8a bd 69 5b 23 be
       0.24152873 -0.10399459 -0.06785501 -0.15952839
000340 98 f5 0f bf bb 52 02 be 06 f1 c7 bc e7 b0 8b bb
       -0.5623412 -0.12726872 -0.024406921 -0.0042630318
000350 45 78 5b 40 18 b9 96 c0 72 e0 a7 bf 33 e3 8b 3e
       3.4292157 -4.7100945 -1.311537 0.27321777
000360 cd f5 0f c0 15 4a 3b 3a 36 61 15 be e3 26 3f 3e
       -2.2493775 0.0007144523 -0.14587864 0.18667178
000370 6f e2 5a 40 a5 08 54 c0 16 0e bc bd 8a 28 9f 40
       3.4200704 -3.3130276 -0.09182374 4.9736986
000380 1b 47 3a c0 d1 46 a6 3e 09 95 95 bd 8a 52 69 40
       -2.91059 0.32475904 -0.07303817 3.6456628
000390 58 7d dd bc 18 c5 97 bc c4 bf de bc 5d f5 88 bc
       -0.027037308 -0.018526599 -0.02719105 -0.01671856
0003a0 01 2d ca bd 1d c9 88 40 9f e4 7e 40 10 95 79 3e
       -0.09871865 4.27455 3.982704 0.24373269
0003b0 97 0f 48 40 3d 85 93 40 17 f5 95 3e c5 af 52 bf
       3.1259515 4.6100144 0.2928855 -0.82299453
0003c0 12 bf 55 40 0d a4 85 40 17 4f 1a 3d 37 f9 08 3d
       3.339787 4.1762757 0.037673082 0.033440795
0003d0 27 f0 48 c0 c1 61 44 bf 65 a0 5b c0 dc be 89 40
       -3.1396577 -0.7671166 -3.4316647 4.3045483
0003e0 24 92 4f c0 88 43 f6 3c d2 af 06 40 11 01 91 40
       -3.2432947 0.030061498 2.1044812 4.53138
0003f0 21 a5 2f bd ec a0 00 3e e9 ee 41 be 63 63 c7 bd
       -0.04288209 0.12561387 -0.18938793 -0.097357534

bias f4 [32]
000000 cf 7f 3a 40 b3 36 4b 40 bf 09 4d 3f e2 82 3b 40
       2.9140508 3.1752136 0.80092996 2.9298635
000010 df d3 56 3f 99 d2 41 40 df e5 50 3f d4 3f 46 3f
       0.8391704 3.0284789 0.81600755 0.77441144
000020 55 8c 42 40 c5 a1 3d 40 41 01 40 3f b9 37 3c 3f
       3.0398152 2.9629986 0.75001913 0.73522526
000030 6f 85 47 3f d8 4e 3c 3f 86 1f 4b 3f 76 10 36 3f
       0.7793798 0.73557806 0.79344976 0.7111887
000040 7e e4 e7 bc c3 8e 4d 40 49 77 4b 3f 9f 3a 4c 3f
       -0.028307196 3.2118385 0.7947889 0.7977695
000050 3a 4b 55 3f 92 35 49 3f b6 88 38 3f 6f 12 4b 3f
       0.8331791 0.78597367 0.72083604 0.79325
000060 6d 39 4f 3f 90 c3 51 3f 80 c0 e7 bc a2 60 43 3f
       0.80947 0.8193903 -0.028290033 0.76319325
000070 10 1f 55 40 c9 e6 3f 40 31 15 b1 bf b9 b5 35 3f
       3.330021 2.998461 -1.3834592 0.7098041

weight f4 [1, 32]
000000 26 47 c2 c0 b8 d7 b6 c0 18 20 57 40 6b 12 c3 c0
       -6.071185 -5.713833 3.3613338 -6.0959983
000010 8d d9 54 40 2e 62 c3 c0 9c dd 59 40 60 d0 57 40
       3.3257782 -6.105735 3.404151 3.3720932
000020 e6 7d bf c0 ca f5 c2 c0 09 54 5d 40 b2 0c 5b 40
       -5.9841185 -6.0925035 3.458254 3.4226499
000030 05 e5 59 40 5d 32 59 40 f9 41 59 40 aa 59 5c 40
       3.4046032 3.393699 3.3946517 3.4429727
000040 fb a0 99 38 c6 85 b4 c0 f9 d4 58 40 ad 5f 55 40
       7.3255935e-05 -5.64133 3.3879988 3.3339646
000050 40 4f 56 40 60 85 58 40 ba e1 5b 40 63 2e 5c 40
       3.348587 3.3831406 3.4356523 3.4403312
000060 19 05 56 40 cf a2 58 40 3d a4 5d bc a6 ef 57 40
       3.3440611 3.384937 -0.013527927 3.374002
000070 c0 be b2 c0 74 09 c3 c0 51 f3 e8 40 f0 a6 5c 40
       -5.585785 -6.094904 7.2797017 3.447689
