ElegantRL/EntornoObservacionesAccionesMejorado/2ksteps_DDPG_0/act.pth (torch, 26069 bytes, 7 tensors)

state_avg f4 [48]
00000000: 0000 0000 0000 0000 0000 0000 0000 0000
00000010: 0000 0000 0000 0000 0000 0000 0000 0000
00000020: 0000 0000 0000 0000 0000 0000 0000 0000
00000030: 0000 0000 0000 0000 0000 0000 0000 0000
00000040: 0000 0000 0000 0000 0000 0000 0000 0000
00000050: 0000 0000 0000 0000 0000 0000 0000 0000
00000060: 0000 0000 0000 0000 0000 0000 0000 0000
00000070: 0000 0000 0000 0000 0000 0000 0000 0000
00000080: 0000 0000 0000 0000 0000 0000 0000 0000
00000090: 0000 0000 0000 0000 0000 0000 0000 0000
000000a0: 0000 0000 0000 0000 0000 0000 0000 0000
000000b0: 0000 0000 0000 0000 0000 0000 0000 0000
0.0 0.0 0.0 0.0 0.0 0.0 0.0 0.0
0.0 0.0 0.0 0.0 0.0 0.0 0.0 0.0
0.0 0.0 0.0 0.0 0.0 0.0 0.0 0.0
0.0 0.0 0.0 0.0 0.0 0.0 0.0 0.0
0.0 0.0 0.0 0.0 0.0 0.0 0.0 0.0
0.0 0.0 0.0 0.0 0.0 0.0 0.0 0.0

state_std f4 [48]
00000000: 0000 803f 0000 803f 0000 803f 0000 803f
00000010: 0000 803f 0000 803f 0000 803f 0000 803f
00000020: 0000 803f 0000 803f 0000 803f 0000 803f
00000030: 0000 803f 0000 803f 0000 803f 0000 803f
00000040: 0000 803f 0000 803f 0000 803f 0000 803f
00000050: 0000 803f 0000 803f 0000 803f 0000 803f
00000060: 0000 803f 0000 803f 0000 803f 0000 803f
00000070: 0000 803f 0000 803f 0000 803f 0000 803f
00000080: 0000 803f 0000 803f 0000 803f 0000 803f
00000090: 0000 803f 0000 803f 0000 803f 0000 803f
000000a0: 0000 803f 0000 803f 0000 803f 0000 803f
000000b0: 0000 803f 0000 803f 0000 803f 0000 803f
1.0 1.0 1.0 1.0 1.0 1.0 1.0 1.0
1.0 1.0 1.0 1.0 1.0 1.0 1.0 1.0
1.0 1.0 1.0 1.0 1.0 1.0 1.0 1.0
1.0 1.0 1.0 1.0 1.0 1.0 1.0 1.0
1.0 1.0 1.0 1.0 1.0 1.0 1.0 1.0
1.0 1.0 1.0 1.0 1.0 1.0 1.0 1.0

weight f4 [64, 48]
00000000: 5478 d0b8 fc5f e93b b90a 33bc 5617 20bc
00000010: c890 a7bb 8b51 693b 17ed 89b9 d177 2c3c
00000020: 896e 9aba b944 663b a278 83bb a506 2bbb
00000030: f5d3 4fbc fe10 10bc 0458 b3bb eded 003a
00000040: aefb ab3b a881 023c ee77 13bc 4373 bdbb
00000050: 7304 9e3b e29f 343c 4c13 33bb 8bc6 223c
00000060: 963c 0cbb 4523 b83a c5f3 443c ecc9 49bc
00000070: 66f1 08bc 0c4a 5cbb f794 a9bb 7cef 3b3c
00000080: 9efc 0cbc 154b c8bb 46f8 17bc 59b9 4bbc
00000090: 2cf7 fdbb f0f8 3a3c aa22 c23b 6fdb d23b
000000a0: 9b0a 373a 5e0e dfbb 4534 133b a718 4bbc
000000b0: 682c 1dbc 494a e0bb dc40 093c 5a16 ff3b
000000c0: aeec 15be eca4 b2bc 72ba 89b9 0087 cbbb
000000d0: 578b 293d bed8 fdbc 7100 fcbc 8879 d83d
000000e0: 66d9 0dbe 397e 01bd 5a19 93bc c819 bcbc
000000f0: 6361 453d 5e3c a3bc 2ffb 70bd 7742 fa3d
00000100: cde3 0bbe 937b bcbc 7f1e 07bc e8dc 5dbc
00000110: 7587 663d 248d c9bb a2ed 46bd 5f76 dc3d
00000120: 7814 13be 11ce 28bc 571a 373b dde2 93bc
00000130: 9794 483d 68d2 50bd 8259 29bc 2b71 9a3d
00000140: 45dc 28be 70cc 1bbc 3d3c af3a 1374 46bd
00000150: 962f 453d ba40 92bd 4684 403d f1ad 8b3d
00000160: 7439 12be f209 efbc 84de 7ebb 8cda 8cbc
00000170: 023e 3b3d 814d 1cbd c360 c13c 361a 9d3d
00000180: d091 853c 4f63 863d cb69 43bd a139 8e3d
00000190: 7070 dd3d b6e2 ab3d 8225 ebbd 3e40 e53c
000001a0: e431 97ba b03a 803d fcf3 41bd 4c91 813d
000001b0: 3255 e03d aa86 903d 210c fabd cc17 4c3d
000001c0: 21f3 053b 9f59 993d 4488 e7bc d6db 5b3d
000001d0: 209f f83d a64d 753d 1929 f1bd d6ea 313d
000001e0: aff1 2e3c 134d 823d 1c89 33bd 2c13 493d
000001f0: fa1f ef3d e4b7 543c bbf3 b0bc 27f2 2d3c
00000200: 6503 94ba dbcc 543d 8a93 24bd 8f5a 0b3d
00000210: b37e 013e d868 70bb 21be 023d 6af1 fb3b
00000220: 686b f73a a7b3 7c3d daf7 0dbd d79f 023d
00000230: 0202 103e 8e64 68bb 8c39 8b3c c6be cdbb
00000240: 2068 43bc 3843 cebb b81e 143c c67c b4b8
00000250: 8540 d8bb edad 26bc 9791 4bbc 0798 37bc
00000260: 1d79 30bb 3798 ee3b 5537 eb3b 31cb 51bc
00000270: d7aa 073c 7036 2abc cdf2 37bb 2063 b0bb
00000280: 6f99 27bb 3ad5 2abb 6432 43bc f6cf 3bbc
00000290: f223 08bb 3309 3439 13a1 c5bb 02e5 a33b
000002a0: 2ac8 43bc e6e3 6aba ea4e 3f3c e571 b1bb
000002b0: 006b 443c a88d 9d3b 044d 44bc efa3 093c
000002c0: 33d3 c8ba 8837 c2bb 21f2 2d3c 18c7 2fbc
000002d0: 2cb9 ba3a ce29 36bb eb54 1b3c a9e2 723b
000002e0: ac0d d13b 4ca5 993b df3e 51bb 1bfd 36bb
000002f0: ea43 33bc 6cbe eb3b b0b4 2c3c 6ed9 143c
00000300: 7c9c 22bc dfcf e237 1da2 21bc 3716 01bc
00000310: 2e0b 08bc fdf5 813b e6b4 09bc 2814 62ba
00000320: 673b c0b5 a7f3 023c cbbb 2cbc 21a8 1ebc
00000330: 2097 07bc 89f1 0e3c 9b98 acbb 531d 2e3c
00000340: c3fc 8a3b dc45 923a 42cf 1eba e934 51bb
00000350: 5ffb 8f3a efc1 6bbb 1c7b 19ba 6e62 933a
00000360: 644c 33bc 2a8e f6bb ee57 273c cfc4 39bc
00000370: 693d c7ba 170a 4e3c b58a 8d3b d122 46b9
00000380: 15a8 45bc 39fc c43b d13f 23bc 2e02 8ebb
00000390: 9084 a4bb 818a 25bb 8d24 abb9 5221 2a3c
000003a0: 9503 903a 2593 393c 7c84 f93b cec5 12bc
000003b0: e691 b03b 07ff 22bc fa07 c8bb 7cb6 5a3b
000003c0: 1550 2e3b 7cdb 253c b64e efbb 7b8d 08bb
000003d0: d765 9d3b ee4e 76bc 197e e43b 61c8 54bc
000003e0: f857 ccba 8e3c 09bb ed31 24bc 5a7c cfb9
000003f0: 0382 123c cbbb c8bb 5821 2abc 8172 e4bb
-9.940626e-05 0.007122038 -0.010927849 -0.009771189 -0.005113695 0.0035601582 -0.00026307322 0.010526613
-0.001178221 0.0035136177 -0.0040121833 -0.002609649 -0.012684812 -0.008793114 -0.0054731388 0.0004918266
0.0052485084 0.007965483 -0.009000761 -0.0057815625 0.0048223077 0.011024447 -0.0027324734 0.009935032
-0.0021398417 0.0014048597 0.01202101 -0.012316208 -0.008358335 -0.0033613471 -0.0051752287 0.011470672
-0.0086051505 -0.006112466 -0.009275502 -0.012434327 -0.0077504124 0.01141189 0.0059245424 0.00643485
0.00069824763 -0.0068071326 0.0022461575 -0.012396014 -0.009593107 -0.006844793 0.00837728 0.007784647
-0.14641067 -0.021807157 -0.0002626959 -0.0062111616 0.04139265 -0.03098714 -0.03076193 0.10570055
-0.13852462 -0.031614516 -0.017956425 -0.022961512 0.04818858 -0.019926246 -0.058833297 0.122197084
-0.13661118 -0.023008144 -0.008247017 -0.013541438 0.056281526 -0.0061508585 -0.048566468 0.10764765
-0.14363277 -0.010303036 0.0027939284 -0.018052513 0.04896983 -0.05098191 -0.010336282 0.07541116
-0.16490276 -0.009509191 0.0013369393 -0.04845054 0.048141085 -0.07141252 0.047001146 0.06820286
-0.14279729 -0.029179547 -0.0038889954 -0.017194055 0.045713432 -0.03815985 0.02360571 0.07671015
0.01630488 0.0656191 -0.047708314 0.069445856 0.108124614 0.08392851 -0.114817634 0.027984735
-0.0011535254 0.06261194 -0.047351822 0.06326541 0.1095375 0.07056935 -0.12209345 0.049827382
0.0020439106 0.07487797 -0.028263219 0.05367645 0.12139726 0.059888504 -0.11775417 0.043436848
0.010677739 0.06362357 -0.04383193 0.04909055 0.11676021 0.012983296 -0.021600595 0.010616816
-0.0011292516 0.051953178 -0.040179767 0.03402191 0.12645988 -0.0036683585 0.031919602 0.007688691
0.0018876614 0.061694767 -0.034660198 0.031890716 0.14063266 -0.0035460326 0.016995214 -0.0062788455
-0.011926681 -0.006294634 0.009040527 -8.60631e-05 -0.006599488 -0.010173303 -0.012424848 -0.01120568
-0.0026927658 0.007281329 0.007178227 -0.012804792 0.0082804775 -0.0103889555 -0.0028068305 -0.0053829104
-0.0025573631 -0.0026067034 -0.0119138695 -0.011463156 -0.0020773378 0.00017169565 -0.0060311644 0.005001665
-0.011949578 -0.0008960351 0.011676529 -0.0054151886 0.011988401 0.0048081465 -0.011981253 0.008400901
-0.0015321731 -0.00592703 0.01061681 -0.01072862 0.0014245859 -0.0027795914 0.009480695 0.003706137
0.0063798036 0.0046888944 -0.0031928343 -0.0027921859 -0.010941485 0.007194331 0.010541126 0.009085042
-0.009925004 2.7038097e-05 -0.009865311 -0.007878832 -0.008303447 0.0039660917 -0.008404946 -0.00086242193
-1.4322403e-06 0.007992662 -0.01054282 -0.00968364 -0.008275777 0.008724579 -0.0052672154 0.010627109
0.0042415573 0.0011159736 -0.00060581055 -0.0031922406 0.0010984949 -0.0035973748 -0.00058548315 0.0011244544
-0.010943506 -0.0075242715 0.010213835 -0.011338427 -0.0015200797 0.012575648 0.0043195137 -0.00018895722
-0.012064 0.0060115126 -0.0099639455 -0.004333756 -0.0050206855 -0.0025259557 -0.00032642894 0.010383921
0.0010987396 0.011326586 0.0076146703 -0.008958293 0.005388486 -0.009948499 -0.0061044665 0.003337293
0.0026598026 0.01012313 -0.0073030842 -0.0020836282 0.0048034 -0.015033467 0.00697304 -0.012987227
-0.0015590182 -0.0020940634 -0.010021669 -0.00039574766 0.00894213 -0.0061259023 -0.010383926 -0.0069716577

bias f4 [64]
00000000: d712 4b3c 40d2 bd3a f0f1 5a3d 2c8c aabb
00000010: 4780 d43b a5a1 1cbc 4f6d 17bb ca7a f1bc
00000020: cb7b 1ebc ea25 ac3b 817b 843b 0861 1d3d
00000030: 60dc ec3d e0b8 5abc 2f05 1fbb 9a2a 623d
00000040: be74 2abc 2237 803c 2e10 45bc c8e9 2b3d
00000050: 32cf 003c 1d9c 04bb 58d8 0abd f456 213b
00000060: 7150 e0bb 2d6a 623b f679 84bc a081 003c
00000070: 7216 723d 74ff b4bb 253d 33bb 28fa 8fba
00000080: b1d6 273c b2e1 363d 9144 863c 16e0 213c
00000090: 7e50 ccbb c26c 043b b266 2ebc ae90 14bc
000000a0: 1010 c7bc 0882 87bb a8a8 243d f403 02bc
000000b0: d690 2abc 1646 25bb 7c00 633b 181c d0bb
000000c0: 6964 3c3c 7508 42bc a417 eebb c6e1 25bc
000000d0: 192e 6e3d 996e 5fbc 7ede edbb 66cd ee3c
000000e0: d6ae 2c3d b373 d4bb 9ac3 433d d7d8 81bc
000000f0: 3f21 bd3c 3732 0f3c 63ee 87bb 37cc 3c3d
0.0123946285 0.0014482215 0.053453386 -0.005204698 0.0064850184 -0.009560023 -0.0023105924 -0.029477496
-0.009673069 0.005253543 0.004043043 0.038422614 0.11565471 -0.013349742 -0.0024264564 0.05521641
-0.01040381 0.01565129 -0.012027783 0.041970998 0.007861899 -0.0020234652 -0.033897728 0.0024618478
-0.006845527 0.003454815 -0.016171437 0.007843405 0.059103437 -0.0055236164 -0.0027349677 -0.0010984587
0.0102440575 0.044648834 0.016390117 0.009880086 -0.0062351814 0.0020206426 -0.010644602 -0.009067697
-0.024299651 -0.004135374 0.040199906 -0.007935513 -0.010410508 -0.0025218776 0.003463774 -0.0063510053
0.011498549 -0.011842837 -0.007266002 -0.010124629 0.05814943 -0.013637208 -0.007259189 0.029150676
0.042158924 -0.006483519 0.047793962 -0.015850468 0.023087142 0.0087399995 -0.004148291 0.046093192

weight f4 [32, 64]
00000000: 97d9 583b d2c6 abbe f2c1 9bbb d144 483b
00000010: 5ae0 a0bb 9228 8b3c 46b1 95be 46f8 caba
00000020: 34b0 47be f7dd 30bc 583e 8bbe 6f75 253d
00000030: 52de ffbd ea02 32bd e96f 89be 4051 85bd
00000040: 8b7c 3bbc f02a 68be ffc7 a8be 58cf 8fbe
00000050: bd3b 033c 8667 9a3b c7a2 57bc e20e 82bb
00000060: bab3 113c 5ca1 05bb 2099 4cbe fd57 4a3b
00000070: 269f 95bd f40c aa3b ea07 8ebe 364e abbb
00000080: 9c4a 0fbc a79f 6b3c 0fc8 93be 186a 4cbe
00000090: 7322 a1be d415 71be 222c e43b a20e 993e
000000a0: 9578 0bbb 2783 12be e893 dfbc 2a84 34bc
000000b0: e80e 01bb 01ad b73b b7c7 51bd fc63 163b
000000c0: 2cd2 963a 519e acbe 985b 96bd 159f a0be
000000d0: e185 9dbd ab55 b7be 8f69 90bd 6514 23be
000000e0: 510a 70be 84b0 6f3b b4b6 72bd dfe3 583c
000000f0: d870 6cbe 383a 7dbd 706e 97be fe10 8cbe
00000100: 96d9 90bb 93d0 1bbc c142 50bb 3d45 27bc
00000110: ff08 09bc 4c49 bb3b 39c5 6cba e1c4 30bc
00000120: 0d2f d63a 1747 c23b de86 203c 7bb0 1d3b
00000130: 431a 26bc 9ae6 17bc 8a6a aebb b68c 56ba
00000140: 5a26 563b 98df 9bbb 18fc 0d3c b326 283b
00000150: 6137 cabb 9f27 0b3c ffe6 da3b 58ef f03a
00000160: 5a3d 0ebc c918 e7bb e47e 233b d537 323b
00000170: 6543 233c 3ee7 a03b 416e 853b 846e b2ba
00000180: e89c fc3b 41d3 ecbb 3818 eb3a 57d8 37bc
00000190: 3ce7 1d39 65db 643b 365c a83b f500 91bb
000001a0: e5a7 69ba 72cc 95bb 6be8 063b 6cac f83b
000001b0: 73b1 813b c248 36bc 4965 17bc 944b e53b
000001c0: 8615 80ba 6aa8 023c b2e3 b13b 942e e8bb
000001d0: a100 edbb 2def 8abc a363 87ba 9f8c 4f3b
000001e0: 0cbb 8bbb 1970 47bc 0f2e 35bc 26f5 f4ba
000001f0: 8df9 c63a e002 c8bb 9824 62bc 9bb6 32bc
00000200: d78d 283c 4c61 a8be f656 22bb d0ac e8bb
00000210: 27d0 17bc 3730 873b df21 9dbe de2d 1cbc
00000220: 6c42 43be b660 1dbc 7254 8cbe 07e8 c83c
00000230: fb5f edbd e2d7 d4bc 8479 8bbe 748a 78bd
00000240: c6d9 47ba b09a 50be 5d7f abbe 6019 85be
00000250: 2356 0abc 6afe 0ebc 0ca0 8bba a086 7f3b
00000260: fb8b d93b d774 d0bb 98ee 3dbe 2ba5 363c
00000270: ecaa 81bd eedd 2b3b 1c70 88be bb98 ba3b
00000280: 1c7f 1cbc 7f20 8e3c 98da 92be 9ae3 3cbe
00000290: c344 a2be 050f 68be 3b77 05bc d84f 9a3e
000002a0: 38aa 97bb 8381 05be 7354 e5bc b5db d43a
000002b0: fdb0 fc3b b9c3 2b3c 4c10 3bbd e4fb 263c
000002c0: 9947 ad3b a203 acbe fdd3 8abd a169 a5be
000002d0: 4ec5 87bd e57f b0be e693 74bd b45e 1fbe
000002e0: 2a3d 6abe 5efe 6fbc 23c7 4abd f366 673c
000002f0: 8e8e 5fbe b8da 5fbd baaa 93be 3ded 86be
00000300: af89 0bbc aba2 aebe 8351 563c 0ae0 0f3c
00000310: 421e f439 c5da ccbb 608a a0be f54a f8bb
00000320: af53 3ebe 1a4d ecbb eed5 84be c4e9 da3c
00000330: e7f6 d7bd 5964 efbc 01bb 89be c413 92bd
00000340: 0b5d 1ebc 576d 59be 5faf a6be d88a 88be
00000350: 26da 1fbc 5af6 373b ed8f 0dbc 7fbf 843c
00000360: a25f 89bb 3881 603b d5b2 44be fa68 bb3b
00000370: c141 83bd e4d1 6e3b 04a6 90be 2622 163b
00000380: 11b7 e2bb 65fe b63b 477e 92be 288a 4bbe
00000390: b283 a5be 23d9 66be 03a7 55bb 9e80 9a3e
000003a0: 81c8 0ebc 7ef0 14be f2d1 80bc e225 1bbc
000003b0: 287a e3bb 7432 edbb e29f 2ebd 680b 9239
000003c0: 8250 f339 d9bd adbe bcca 92bd 0142 a1be
000003d0: 0a02 74bd 42eb aebe c89a 77bd eaa0 13be
000003e0: 04fe 72be d5b6 1dba fcf9 44bd d7e8 f53a
000003f0: 3d4d 5ebe 85dd 4dbd 2fed 99be c0f0 85be
0.0033088678 -0.33550125 -0.0047533447 0.0030558596 -0.0049095573 0.016987119 -0.2923681 -0.0015485368
-0.1950081 -0.010795108 -0.27196002 0.040395197 -0.12493576 -0.04345981 -0.26843193 -0.06509638
-0.011443268 -0.2267263 -0.32965085 -0.28087878 0.008009848 0.004712048 -0.013161368 -0.0039690593
0.008892948 -0.0020390367 -0.19980288 0.00308752 -0.07305746 0.0051895324 -0.27740413 -0.0052278293
-0.008745816 0.014381326 -0.2886357 -0.19962347 -0.31471595 -0.23543483 0.006963269 0.29893976
-0.002128159 -0.14307843 -0.027292207 -0.0110178385 -0.0019692723 0.0056053405 -0.051215854 0.002294778
0.0011506728 -0.33714536 -0.07341689 -0.3137137 -0.07691551 -0.35807547 -0.07051384 -0.15925749
-0.23441435 0.0036573717 -0.05925627 0.013237922 -0.23089921 -0.0618231 -0.29576445 -0.27356714
-0.0044204695 -0.009510177 -0.003177807 -0.010209379 -0.008363961 0.005715525 -0.0009032074 -0.010789127
0.0016340927 0.0059288847 0.00979778 0.002406149 -0.010138097 -0.009271288 -0.005322759 -0.000818442
0.0032676668 -0.004756879 0.008666061 0.0025657832 -0.0061711525 0.008493333 0.006680369 0.0018381877
-0.00868162 -0.007052515 0.002494746 0.0027193923 0.009964799 0.0049103787 0.004071981 -0.0013613258
0.0077091344 -0.007227332 0.0017936295 -0.011221013 0.00015058828 0.0034920808 0.0051379455 -0.004425163
-0.0008913263 -0.004571491 0.002058531 0.0075889137 0.003957921 -0.011125745 -0.009240457 0.006997535
-0.000977204 0.007974723 0.0054287547 -0.0070856307 -0.007232741 -0.016959751 -0.0010329377 0.003166951
-0.004264241 -0.012172722 -0.0110583445 -0.0018688783 0.0015180573 -0.0061038584 -0.01380267 -0.010907794
0.0102877235 -0.32886732 -0.002477107 -0.007100679 -0.009265936 0.0041256207 -0.30689904 -0.00953242
-0.19068307 -0.009605577 -0.27408177 0.024524702 -0.115905724 -0.025981847 -0.27241147 -0.060678914
-0.00076236983 -0.20371509 -0.33495608 -0.25995922 -0.008443388 -0.008727649 -0.0010652556 0.0038990155
0.0066390014 -0.0063615846 -0.18548048 0.011147778 -0.06331429 0.002622481 -0.26648033 0.0056944764
-0.00955179 0.01734948 -0.286824 -0.18446198 -0.31693086 -0.2266198 -0.008146103 0.3013904
-0.004628446 -0.13037686 -0.02799437 0.0016239794 0.0077115283 0.010483676 -0.04566984 0.010191891
0.005288076 -0.33596522 -0.06778715 -0.3230715 -0.0662943 -0.34472576 -0.05971136 -0.1556347
-0.22874895 -0.014648048 -0.049506318 0.014123666 -0.21831724 -0.054651946 -0.28841192 -0.26352873
-0.008516713 -0.3410848 0.013080957 0.008781442 0.0004656185 -0.0062516653 -0.31355572 -0.007577295
-0.1858661 -0.0072113397 -0.25944465 0.026722796 -0.1054514 -0.029222654 -0.26900485 -0.07132676
-0.009665738 -0.21233116 -0.32555673 -0.2666843 -0.0097566005 0.002807042 -0.008640272 0.016204594
-0.0041923085 0.0034256708 -0.19208844 0.0057193013 -0.06409026 0.0036441023 -0.2825166 0.0022908538
-0.006918796 0.0055845254 -0.28611967 -0.19876921 -0.32327038 -0.22543769 -0.0032600767 0.30176252
-0.008714796 -0.14544865 -0.01572511 -0.009469481 -0.0069420524 -0.0072386805 -0.042632945 0.00027855788
0.00046408555 -0.33933905 -0.07167575 -0.3149567 -0.059572257 -0.34163862 -0.060450345 -0.14416853
-0.23729712 -0.0006016319 -0.048089966 0.0018761408 -0.21709152 -0.050260086 -0.3006377 -0.2616024

bias f4 [32]
00000000: a098 a13d 2fe2 5ebc c583 a53d ea76 9c3d
00000010: c045 88bb 5337 72bb 886d 1dbc 5d5f ae3d
00000020: 40c3 a53d 03c1 183e 48a4 9f3d 8ed3 4b3e
00000030: 51a7 693d 6a47 37bb eda6 46bc 3fcc b43c
00000040: 9da6 1bbc 1911 ad3d dce4 ac3d 0845 d23c
00000050: e9f5 a53d a1e5 963d 97aa 223a ed15 993d
00000060: 3038 9f3d 5e07 48b9 2d10 aebb db12 903d
00000070: d6ca f9bb ef39 a03d 8b9b d53c eb0f e23c
0.07890439 -0.013603731 0.08081774 0.076398686 -0.0041587055 -0.0036959245 -0.009608634 0.08514283
0.080938816 0.14917378 0.07795006 0.1990492 0.05704433 -0.002796615 -0.012124759 0.022070048
-0.009500173 0.08450527 0.08442089 0.025667682 0.08103544 0.07368017 0.00062052294 0.07474885
0.07774389 -0.00019076231 -0.005311987 0.070348464 -0.007623057 0.0782355 0.026075145 0.02759548

weight f4 [1, 32]
00000000: 63c8 29be 4bc8 e23b 10bb 2fbe dbf4 2fbe
00000010: 09f5 673f 4e3e 653f f26b 0bba 9fd4 2dbe
00000020: 76eb 27be 43d8 db3e ab42 36be 81f3 f93e
00000030: 8103 d33e e8e7 f23a ef4c c6b8 e678 02be
00000040: ac76 6d3f 891b 31be 5fd3 29be 76c8 df3e
00000050: 2d63 28be 6164 2fbe 0844 653f 1146 2bbe
00000060: 99ed 34be 0ea4 633f 7cef 663f 2746 2ebe
00000070: 4746 bfba f048 2ebe d89d d13e af79 d53e
-0.16580348 0.0069208494 -0.17161202 -0.17183249 0.9060827 0.89548194 -0.00053185143 -0.1697564
-0.16398415 0.42938432 -0.1779887 0.4881859 0.4121361 0.0018532248 -9.455706e-05 -0.12741432
0.92759204 -0.1729566 -0.16584538 0.43707627 -0.16444083 -0.17128135 0.8955693 -0.16725947
-0.17668761 0.889222 0.90209174 -0.17018948 -0.0014593088 -0.17020011 0.40940738 0.416944
