ElegantRL/EntornoObservacionesAccionesMejorado/2ksteps_DDPG_0/act_target.pth (torch, 26679 bytes, 7 tensors)

state_avg f4 [48]
000000 00 00 00 00 00 00 00 00 00 00 00 00 00 00 00 00
       0.0 0.0 0.0 0.0
000010 00 00 00 00 00 00 00 00 00 00 00 00 00 00 00 00
       0.0 0.0 0.0 0.0
000020 00 00 00 00 00 00 00 00 00 00 00 00 00 00 00 00
       0.0 0.0 0.0 0.0
000030 00 00 00 00 00 00 00 00 00 00 00 00 00 00 00 00
       0.0 0.0 0.0 0.0
000040 00 00 00 00 00 00 00 00 00 00 00 00 00 00 00 00
       0.0 0.0 0.0 0.0
000050 00 00 00 00 00 00 00 00 00 00 00 00 00 00 00 00
       0.0 0.0 0.0 0.0
000060 00 00 00 00 00 00 00 00 00 00 00 00 00 00 00 00
       0.0 0.0 0.0 0.0
000070 00 00 00 00 00 00 00 00 00 00 00 00 00 00 00 00
       0.0 0.0 0.0 0.0
000080 00 00 00 00 00 00 00 00 00 00 00 00 00 00 00 00
       0.0 0.0 0.0 0.0
000090 00 00 00 00 00 00 00 00 00 00 00 00 00 00 00 00
       0.0 0.0 0.0 0.0
0000a0 00 00 00 00 00 00 00 00 00 00 00 00 00 00 00 00
       0.0 0.0 0.0 0.0
0000b0 00 00 00 00 00 00 00 00 00 00 00 00 00 00 00 00
       0.0 0.0 0.0 0.0

state_std f4 [48]
000000 00 00 80 3f 00 00 80 3f 00 00 80 3f 00 00 80 3f
       1.0 1.0 1.0 1.0
000010 00 00 80 3f 00 00 80 3f 00 00 80 3f 00 00 80 3f
       1.0 1.0 1.0 1.0
000020 00 00 80 3f 00 00 80 3f 00 00 80 3f 00 00 80 3f
       1.0 1.0 1.0 1.0
000030 00 00 80 3f 00 00 80 3f 00 00 80 3f 00 00 80 3f
       1.0 1.0 1.0 1.0
000040 00 00 80 3f 00 00 80 3f 00 00 80 3f 00 00 80 3f
       1.0 1.0 1.0 1.0
000050 00 00 80 3f 00 00 80 3f 00 00 80 3f 00 00 80 3f
       1.0 1.0 1.0 1.0
000060 00 00 80 3f 00 00 80 3f 00 00 80 3f 00 00 80 3f
       1.0 1.0 1.0 1.0
000070 00 00 80 3f 00 00 80 3f 00 00 80 3f 00 00 80 3f
       1.0 1.0 1.0 1.0
000080 00 00 80 3f 00 00 80 3f 00 00 80 3f 00 00 80 3f
       1.0 1.0 1.0 1.0
000090 00 00 80 3f 00 00 80 3f 00 00 80 3f 00 00 80 3f
       1.0 1.0 1.0 1.0
0000a0 00 00 80 3f 00 00 80 3f 00 00 80 3f 00 00 80 3f
       1.0 1.0 1.0 1.0
0000b0 00 00 80 3f 00 00 80 3f 00 00 80 3f 00 00 80 3f
       1.0 1.0 1.0 1.0

weight f4 [64, 48]
000000 3f 98 d0 b8 ce 83 e9 3b fa 25 33 bc 7a 2f 20 bc
       -9.946571e-05 0.007126308 -0.010934347 -0.009776944
000010 7a aa a7 bb 5c 75 69 3b 1d 02 8a b9 4a 92 2c 3c
       -0.005116758 0.003562293 -0.00026322986 0.010532925
000020 ed 85 9a ba c4 67 66 3b e2 8c 83 bb 57 20 2b bb
       -0.001178918 0.0035157064 -0.0040145973 -0.0026111805
000030 e1 f3 4f bc cd 26 10 bc 48 73 b3 bb 6c 01 01 3a
       -0.012692423 -0.008798313 -0.005476389 0.00049211713
000040 28 16 ac 3b 7f 95 02 3c 82 8e 13 bc 11 90 bd bb
       0.0052516647 0.007970213 -0.0090061445 -0.0057849963
000050 95 1c 9e 3b 26 bb 34 3c 8d 2e 33 bb 76 df 22 3c
       0.0048251846 0.011030948 -0.002734098 0.009940973
000060 9c 51 0c bb 4f 3f b8 3a 8a 11 45 3c 4d e8 49 bc
       -0.0021410948 0.0014056953 0.012028107 -0.012323451
000070 6c 06 09 bc 85 6b 5c bb a9 ae a9 bb 4a 0c 3c 3c
       -0.0083633475 -0.0033633423 -0.005178292 0.011477539
000080 6c 12 0d bc 72 69 c8 bb a7 0f 18 bc 80 d8 4b bc
       -0.008610349 -0.0061160857 -0.009281076 -0.012441754
000090 29 1e fe bb be 15 3b 3c 42 40 c2 3b 5a fb d2 3b
       -0.00775506 0.011418758 0.0059280703 0.006438655
0000a0 a3 26 37 3a a1 30 df bb d9 4a 13 3b e0 37 4b bc
       0.00069866533 -0.006811217 0.0022475033 -0.012403458
0000b0 8a 44 1d bc 8e 6c e0 bb e2 55 09 3c 77 3d ff 3b
       -0.0095988605 -0.006848878 0.008382292 0.0077893096
0000c0 42 03 16 be 2e c0 b2 bc 78 cf 89 b9 30 a6 cb bb
       -0.1464968 -0.021820154 -0.00026285253 -0.0062148795
0000d0 09 a5 29 3d b1 ff fd bc 97 26 fc bc 3c 9a d8 3d
       0.041417155 -0.031005712 -0.03078012 0.10576293
0000e0 34 ef 0d be c2 91 01 bd ee 2f 93 bc 96 36 bc bc
       -0.1386078 -0.031633146 -0.01796719 -0.022975247
0000f0 c1 7f 45 3d 4e 55 a3 bc c6 1f 71 bd 9c 68 fa 3d
       0.04821754 -0.019938137 -0.058868192 0.12226984
000100 d3 f8 0b be 61 98 bc bc be 32 07 bc 62 fe 5d bc
       -0.13669138 -0.023021879 -0.008251844 -0.013549419
000110 81 aa 66 3d 81 ab c9 bb 00 0c 47 bd d9 97 dc 3d
       0.05631495 -0.006154478 -0.04859543 0.1077115
000120 0c 2b 13 be c3 e7 28 bc 5f 36 37 3b 71 f9 93 bc
       -0.1437189 -0.010309163 0.0027955992 -0.018063279
000130 f4 b2 48 3d 54 f2 50 bd 34 73 29 bc 8b 88 9a 3d
       0.048998788 -0.051012352 -0.010342408 0.07545575
000140 f7 f5 28 be cf e3 1b bc b6 56 af 3a 71 92 46 bd
       -0.16500078 -0.009514763 0.0013377282 -0.0484795
000150 f4 4d 45 3d 4e 57 92 bd de a1 40 3d f7 c2 8b 3d
       0.048170045 -0.07145558 0.04702937 0.06824296
000160 08 50 12 be 89 2e ef bc 9b 05 7f bb 5c f0 8c bc
       -0.14288342 -0.029196994 -0.0038913253 -0.017204456
000170 d0 5a 3b 3d a3 65 1c bd 5a 7e c1 3c 58 32 9d 3d
       0.045740902 -0.038182866 0.02361982 0.07675618
000180 10 a6 85 3c 8e 77 86 3d 62 87 43 bd 70 4f 8e 3d
       0.016314536 0.06565772 -0.047736533 0.06948745
000190 ea 91 dd 3d 30 fd ab 3d 54 49 eb bd 4c 63 e5 3c
       0.108188465 0.08397901 -0.114885956 0.02800145
0001a0 41 49 97 ba 39 4e 80 3d 94 11 42 bd cd a4 81 3d
       -0.0011542217 0.0626492 -0.047380045 0.063302614
0001b0 76 77 e0 3d 79 9c 90 3d 46 32 fa bd 08 37 4c 3d
       0.10960285 0.07061095 -0.1221662 0.04985717
0001c0 60 07 06 3b 03 71 99 3d 52 ab e7 bc 50 fd 5b 3d
       0.0020451173 0.074922584 -0.028279934 0.053708375
0001d0 45 c5 f8 3d 0b 73 75 3d b0 4d f1 bd 1a 06 32 3d
       0.12147001 0.059924167 -0.11782396 0.04346285
0001e0 28 0c 2f 3c 98 60 82 3d 5d a4 33 bd 89 31 49 3d
       0.010684051 0.0636608 -0.04385792 0.049119506
0001f0 91 44 ef 3d 98 d8 54 3c ff 0e b1 bc a0 0c 2e 3c
       0.11683 0.012991093 -0.021613596 0.010623127
000200 f9 19 94 ba 8e ed 54 3d 76 ac 24 bd 95 6f 0b 3d
       -0.0011299244 0.051984362 -0.040203534 0.03404196
000210 3f 92 01 3e 6f 8d 70 bb 60 d2 02 3d 90 17 fc 3b
       0.12653445 -0.0036705395 0.03193891 0.0076932386
000220 cb 90 f7 3a cd d9 7c 3d a8 0d 0e bd 16 b4 02 3d
       0.0018887756 0.06173115 -0.034680992 0.031910025
000230 d1 17 10 3e 99 87 68 bb 92 4e 8b 3c 00 de cd bb
       0.14071585 -0.0035481213 0.017005239 -0.006282568
000240 b8 85 43 bc 80 62 ce bb 4c 35 14 3c 09 98 b4 b8
       -0.0119337365 -0.006298363 0.00904591 -8.6113876e-05
000250 38 61 d8 bb 9f c7 26 bc d0 b0 4b bc 0f b4 37 bc
       -0.0066033863 -0.010179429 -0.012432292 -0.011212363
000260 c0 93 30 bb ce bc ee 3b 26 5b eb 3b 1c eb 51 bc
       -0.0026943535 0.007285691 0.0071824966 -0.012812402
000270 c1 bf 07 3c 22 50 2a bc d7 0e 38 bb ab 7d b0 bb
       0.008285464 -0.010395082 -0.0028085017 -0.0053860745
000280 21 b3 27 bb ec ee 2a bb fc 4f 43 bc c4 ec 3b bc
       -0.0025588947 -0.002608235 -0.011920925 -0.011470024
000290 f8 38 08 bb 77 24 34 39 71 bf c5 bb ee fd a3 3b
       -0.002078591 0.00017179722 -0.0060347845 0.005004636
0002a0 c2 e5 43 bc b8 07 6b ba b8 6b 3f 3c 26 8d b1 bb
       -0.011956634 -0.0008965689 0.011683397 -0.0054184375
0002b0 98 88 44 3c ca a5 9d 3b 9c 6a 44 bc f5 b8 09 3c
       0.011995457 0.0048110234 -0.011988308 0.008405914
0002c0 90 f1 c8 ba 20 55 c2 bb 9a 0c 2e 3c 92 e1 2f bc
       -0.001533078 -0.005930558 0.010623122 -0.0107349325
0002d0 64 d5 ba 3a d7 45 36 bb 47 6c 1b 3c 57 07 73 3b
       0.0014254269 -0.0027812624 0.009486265 0.0037083232
0002e0 97 2d d1 3b ad bc 99 3b ca 5e 51 bb 23 19 37 bb
       0.0063836086 0.0046916814 -0.0031947368 -0.0027938567
0002f0 2e 5f 33 bc 3e e2 eb 3b 2a cf 2c 3c 02 f0 14 3c
       -0.010947986 0.007198601 0.010547439 0.009090425
000300 6e b5 22 bc 22 f2 e2 37 0e bb 21 bc c1 29 01 bc
       -0.0099309515 2.7054051e-05 -0.0098712575 -0.00788349
000310 34 20 08 bc 7c 09 82 3b ec c9 09 bc 6e 36 62 ba
       -0.008308459 0.003968416 -0.008409958 -0.00086293265
000320 fe 58 c0 b5 e6 07 03 3c 44 d6 2c bc 43 c0 1e bc
       -1.4331015e-06 0.007997489 -0.010549132 -0.009689393
000330 a0 ab 07 bc 58 07 0f 3c 14 b3 ac bb cc 37 2e 3c
       -0.008280665 0.008729778 -0.005270371 0.01063342
000340 c9 11 8b 3b 70 5c 92 3a 64 e7 1e ba d4 54 51 bb
       0.0042440635 0.0011166465 -0.00060617016 -0.003194143
000350 2d 11 90 3a c0 e5 6b bb 7d 92 19 ba 02 79 93 3a
       0.0010991447 -0.0035995096 -0.0005858315 0.0011251273
000360 a8 67 33 bc 8b b3 f6 bb a0 71 27 3c d7 e0 39 bc
       -0.010950007 -0.0075287274 0.010219961 -0.01134511
000370 c7 5b c7 ba 50 29 4e 3c 84 a0 8d 3b 2f 41 46 b9
       -0.0015209847 0.012583092 0.0043221135 -0.00018907034
000380 73 c6 45 bc 0e 1a c5 3b be 58 23 bc fc 17 8e bb
       -0.01207124 0.006015069 -0.009969888 -0.0043363553
000390 7e 9d a4 bb 6e a3 25 bb 41 3e ab b9 04 3b 2a 3c
       -0.0050236573 -0.0025274414 -0.00032662044 0.010390047
0003a0 65 19 90 3a 2f af 39 3c a2 aa f9 3b 62 dc 12 bc
       0.0010993896 0.011333271 0.007619218 -0.008963676
0003b0 c7 ac b0 3b f6 17 23 bc 58 26 c8 bb f5 d7 5a 3b
       0.0053916904 -0.009954443 -0.0061080866 0.003339288
0003c0 8e 6a 2e 3b 6e f4 25 3c 4d 73 ef bb 81 a2 08 bb
       0.0026613805 0.010129077 -0.007307446 -0.0020848813
0003d0 f9 7d 9d 3b 53 74 76 bc 23 a1 e4 3b 14 e9 54 bc
       0.004806277 -0.015042382 0.006977217 -0.012995023
0003e0 40 77 cc ba 94 51 09 bb de 4a 24 bc 45 9c cf b9
       -0.0015599504 -0.0020953165 -0.010027615 -0.00039598547
0003f0 97 98 12 3c 28 da c8 bb 0a 3b 2a bc 8e 95 e4 bb
       0.008947513 -0.006129522 -0.010390053 -0.006975836

bias f4 [64]
000000 18 32 4b 3c 0e ef bd 3a 6a 13 5b 3d de a5 aa bb
       0.01240208 0.00144908 0.05348531 -0.005207761
000010 fa a0 d4 3b c7 b9 1c bc ab 84 17 bb 61 9f f1 bc
       0.0064889165 -0.009565777 -0.0023119848 -0.029494943
000020 ed 93 1e bc 64 40 ac 3b c0 8f 84 3b e0 b1 1e 3d
       -0.009678823 0.0052566994 0.0040454566 0.038743854
000030 b9 7b ea 3d 5a da 5a bc 51 1d 1f bb de 4c 62 3d
       0.114493795 -0.013357723 -0.0024278949 0.055249088
000040 70 8e 2a bc 9c 4a 80 3c 40 2e 45 bc 42 04 2c 3d
       -0.010409936 0.015660577 -0.012034953 0.041996248
000050 c2 e2 00 3c 5c b0 04 bb 5e ed 0a bd e6 6f 21 3b
       0.007866563 -0.002024672 -0.033917777 0.0024633347
000060 b6 72 e0 bb 72 8c 62 3b 36 8e 84 bc 1f 95 00 3c
       -0.006849612 0.0034568575 -0.016181093 0.007848053
000070 09 3b 72 3d b8 1a b5 bb 68 58 33 bb f8 0f 90 ba
       0.05913833 -0.0055268668 -0.0027365927 -0.0010991087
000080 63 f0 27 3c bb fd 36 3d d0 58 86 3c 06 f9 21 3c
       0.010250184 0.04467557 0.016399771 0.009886032
000090 c0 6f cc bb 02 81 04 3b 2c 81 2e bc 42 a7 14 bc
       -0.0062389076 0.0020218496 -0.010650914 -0.0090730805
0000a0 6e 2e c7 bc 5e 96 87 bb 96 c1 24 3d 73 17 02 bc
       -0.024314132 -0.004137798 0.04022368 -0.007940161
0000b0 88 aa 2a bc 06 5f 25 bb c2 22 63 3b 04 3c d0 bb
       -0.010416634 -0.002523364 0.0034658168 -0.0063548107
0000c0 37 81 3c 3c 0c 26 42 bc 3b 3c ee bb b6 fa 25 bc
       0.011505417 -0.011849891 -0.0072703636 -0.010130575
0000d0 b0 52 6e 3d dc 90 5f bc 7b 02 ee bb fd f1 ee 3c
       0.058184326 -0.013645377 -0.0072634793 0.029168123
0000e0 50 c9 2c 3d 3f 94 d4 bb 32 e1 43 3d 62 ec 81 bc
       0.042184174 -0.006487399 0.047822185 -0.015859786
0000f0 0d 3e bd 3c 04 48 0f 3c 69 03 88 bb 05 e9 3c 3d
       0.023100877 0.008745197 -0.004150797 0.046120662

weight f4 [32, 64]
000000 4a fa 58 3b 4c e1 ab be 56 d9 9b bb 2e 63 48 3b
       0.0033108168 -0.33570325 -0.004756133 0.0030576694
000010 81 f8 a0 bb 98 3d 8b 3c da c7 95 be 88 17 cb ba
       -0.0049124365 0.016997144 -0.29254037 -0.0015494684
000020 92 ce 47 be 38 f9 30 bc 5e 53 8b be 5e 8e 25 3d
       -0.19512394 -0.010801606 -0.27212042 0.040418975
000030 a3 02 00 be 2b 1e 32 bd ef 84 89 be 80 65 85 bd
       -0.12501006 -0.0434858 -0.26859233 -0.065135
000040 59 99 3b bc fa 4d 68 be b1 e1 a8 be 28 e5 8f be
       -0.011450135 -0.22685996 -0.3298469 -0.2810452
000050 fc 4f 03 3c e5 7e 9a 3b 7a c3 57 bc 63 22 82 bb
       0.008014675 0.004714834 -0.013169164 -0.0039713844
000060 95 c9 11 3c 9c b5 05 bb 68 b8 4c be 38 77 4a 3b
       0.008898159 -0.0020402437 -0.1999222 0.0030893814
000070 ba b5 95 bd a6 26 aa 3b b8 1d 8e be ff 67 ab bb
       -0.07310052 0.0051925955 -0.2775705 -0.005230903
000080 6c 60 0f bc 78 c3 6b 3c a3 de 93 be 60 89 4c be
       -0.008751016 0.014389865 -0.28880796 -0.1997428
000090 c3 3a a1 be 6b 3a 71 be 2f 4f e4 3b 03 26 99 3e
       -0.31490144 -0.23557441 0.006967447 0.29911813
0000a0 9b 8d 0b bb bb 99 12 be 2c b6 df bc 6b 9f 34 bc
       -0.002129412 -0.14316456 -0.027308546 -0.011024336
0000b0 6e 22 01 bb 0b c9 b7 3b a2 e7 51 bd 90 7a 16 3b
       -0.001970436 0.005608683 -0.051246293 0.0022961237
0000c0 d1 e8 96 3a ca b8 ac be 2c 72 96 bd 39 b7 a0 be
       0.0011513476 -0.33734733 -0.07345995 -0.31389788
0000d0 03 9e 9d bd b3 71 b7 be 5d 7f 90 bd 56 2d 23 be
       -0.07696154 -0.35828933 -0.070555426 -0.15935263
0000e0 e8 2e 70 be 1b d5 6f 3b 51 db 72 bd 92 04 59 3c
       -0.23455393 0.0036595527 -0.059291188 0.013245719
0000f0 aa 94 6c be 91 60 7d bd cd 85 97 be 04 26 8c be
       -0.23103586 -0.06185967 -0.2959427 -0.27372754
000100 65 ef 90 bb f3 e7 1b bc ad 62 50 bb ef 5e 27 bc
       -0.0044230693 -0.00951575 -0.0031797097 -0.010215505
000110 05 1e 09 bc 1a 66 bb 3b 0a e9 6c ba 24 e0 30 bc
       -0.008368974 0.0057189586 -0.0009037411 -0.010795627
000120 c0 4f d6 3a ae 64 c2 3b 02 9f 20 3c 9d c8 1d 3b
       0.0016350672 0.005932412 0.009803535 0.0024075874
000130 33 33 26 bc fe fd 17 bc 04 85 ae bb 6a ad 56 ba
       -0.010144043 -0.009276865 -0.0053259153 -0.0008189293
000140 0e 47 56 3b fc f6 9b bb e8 11 0e 3c 65 40 28 3b
       0.003269616 -0.0047596674 0.008671261 0.0025673148
000150 69 56 ca bb a5 3c 0b 3c 78 08 db 3b f0 13 f1 3a
       -0.0061748517 0.0084983455 0.006684359 0.0018392783
000160 28 53 0e bc d6 3b e7 bb d6 97 23 3b 19 53 32 3b
       -0.008686818 -0.0070566935 0.0024962327 0.0027210175
000170 56 5c 23 3c 66 ff a0 3b 80 82 85 3b c8 89 b2 ba
       0.009970745 0.0049132584 0.0040743947 -0.0013621384
000180 0e c3 fc 3b 12 f7 ec bb 0a 3c eb 3a 5f f4 37 bc
       0.007713682 -0.0072316015 0.001794697 -0.011227696
000190 5e ff 1d 39 70 fe 64 3b e8 75 a8 3b c5 16 91 bb
       0.00015067818 0.0034941696 0.0051410086 -0.004427763
0001a0 b6 cb 69 ba 06 e3 95 bb aa fc 06 3b 91 d2 f8 3b
       -0.00089186 -0.0045741824 0.0020597377 0.007593461
0001b0 ee c4 81 3b cb 64 36 bc a9 7c 17 bc a0 6e e5 3b
       0.0039602434 -0.011132429 -0.00924603 0.007001713
0001c0 04 29 80 ba aa bc 02 3c f5 fe b1 3b a1 51 e8 bb
       -0.0009777849 0.007979551 0.0054320046 -0.007089809
0001d0 72 24 ed bb 33 04 8b bc e6 77 87 ba 8a ac 4f 3b
       -0.0072370106 -0.016969776 -0.0010335415 0.0031688535
0001e0 12 d0 8b bb 77 8e 47 bc 52 49 35 bc 8b 1a f5 ba
       -0.0042667473 -0.012179962 -0.011064844 -0.0018699927
0001f0 eb 17 c7 3a 3d 21 c8 bb de 46 62 bc df d1 32 bc
       0.0015189623 -0.006107478 -0.013810841 -0.010914295
000200 89 a7 28 3c fe 7a a8 be e6 6f 22 bb f2 cf e8 bb
       0.01029385 -0.32906336 -0.0024785935 -0.007104867
000210 89 e7 17 bc 76 44 87 3b 01 3a 9d be 00 46 1c bc
       -0.009271511 0.004128034 -0.30708316 -0.009538174
000220 04 60 43 be d8 78 1d bc 78 69 8c be 64 06 c9 3c
       -0.19079596 -0.009611331 -0.27424216 0.02453918
000230 cc 83 ed bd 96 f8 d4 bc 8a 8e 8b be 9a b0 78 bd
       -0.11597404 -0.025997441 -0.27257186 -0.060715295
000240 24 f8 47 ba 9b ba 50 be ae 99 ab be a0 2d 85 be
       -0.00076282234 -0.20383684 -0.33515686 -0.26011372
000250 29 6b 0a bc 38 14 0f bc 12 b5 8b ba 93 ad 7f 3b
       -0.008448401 -0.008732848 -0.0010658822 0.003901337
000260 2f ad d9 3b c2 94 d0 bb 66 0b 3e be 33 c1 36 3c
       0.0066429595 -0.0063653896 -0.18559036 0.011154461
000270 7c be 81 bd 68 f8 2b 3b 22 85 88 be d0 b4 ba 3b
       -0.0633516 0.002624059 -0.26664072 0.005697824
000280 3e 97 1c bc 4c 36 8e 3c 2c f1 92 be 68 00 3d be
       -0.009557543 0.017359875 -0.28699625 -0.18457186
000290 ae 5d a2 be 11 32 68 be 7a 8b 05 bc 39 67 9a 3e
       -0.31712097 -0.22675349 -0.00815093 0.30156878
0002a0 9b c1 97 bb c2 95 05 be 7e 77 e5 bc 68 fc d4 3a
       -0.004631234 -0.1304541 -0.02801108 0.0016249539
0002b0 23 d7 fc 3b 32 de 2b 3c 1a 2d 3b bd 96 15 27 3c
       0.007716076 0.010489987 -0.04569731 0.010198018
0002c0 12 62 ad 3b 1c 1e ac be 03 e9 8a bd 8e 82 a5 be
       0.005291232 -0.33616722 -0.06782725 -0.32326168
0002d0 54 da 87 bd 92 9a b0 be 4b b9 74 bd d6 76 1f be
       -0.0663344 -0.34492928 -0.05974702 -0.15572676
0002e0 fc 60 6a be f5 22 70 bc 50 e6 4a bd 00 8a 67 3c
       -0.22888559 -0.014656772 -0.04953605 0.014132023
0002f0 d1 b0 5f be fd fc 5f bd 4e c1 93 be 7c 01 87 be
       -0.21844794 -0.054684628 -0.28858417 -0.2636832
000300 b5 9e 0b bc 24 bd ae be 36 72 56 3c d8 f5 0f 3c
       -0.008521725 -0.34128678 0.013088753 0.008786641
000310 a3 43 f4 39 08 fa cc bb 84 a2 a0 be fa 70 f8 bb
       0.000465897 -0.006255392 -0.3137399 -0.007581827
000320 7d 70 3e be ec 70 ec bb 2e ea 84 be 3e 0b db 3c
       -0.18597598 -0.00721561 -0.25959915 0.02673876
000330 9a 17 d8 bd f0 88 ef bc 07 d0 89 be 58 2a 92 bd
       -0.10551377 -0.029240102 -0.26916525 -0.07136983
000340 2d 75 1e bc 3f 8e 59 be 11 c9 a6 be de 9f 88 be
       -0.009671492 -0.21245669 -0.32575276 -0.2668447
000350 49 f2 1f bc 63 12 38 3b bc a5 0d bc be d3 84 3c
       -0.009762355 0.0028087131 -0.008645471 0.016214248
000360 a8 74 89 bb 7e a3 60 3b 70 d0 44 be c8 85 bb 3b
       -0.0041948147 0.0034277136 -0.19220138 0.005722735
000370 00 56 83 bd 7c f6 6e 3b d4 bb 90 be ba 38 16 3b
       -0.064128876 0.0036462834 -0.282683 0.0022921995
000380 56 d9 e2 bb 6f 1a b7 3b db 94 92 be 50 a9 4b be
       -0.006922881 0.005587868 -0.28629193 -0.19888806
000390 9e 9c a5 be 2f fc 66 be b6 c7 55 bb 02 98 9a 3e
       -0.32346052 -0.22557138 -0.0032620258 0.30194098
0003a0 50 de 0e bc 12 07 15 be 7e e5 80 bc 3f 3d 1b bc
       -0.008719996 -0.14553478 -0.01573443 -0.009475051
0003b0 77 9c e3 bb 46 56 ed bb 5c ba 2e bd fc 21 92 39
       -0.0069461423 -0.0072429506 -0.042658195 0.0002787261
0003c0 e3 75 f3 39 52 d8 ad be 50 e1 92 bd c3 5a a1 be
       0.00046436404 -0.33954102 -0.07171881 -0.31514558
0003d0 6b 27 74 bd bc 05 af be 2b c0 77 bd 7e b7 13 be
       -0.059607904 -0.34184062 -0.060486 -0.14425465
0003e0 cd 22 73 be f7 ce 1d ba cb 17 45 bd 3b 0e f6 3a
       -0.23743744 -0.0006019915 -0.048118394 0.0018772552
0003f0 be 6e 5e be c8 fc 4d bd 8d 04 9a be 00 05 86 be
       -0.21721932 -0.0502899 -0.30081597 -0.2617569

bias f4 [32]
000000 8e b1 a1 3d 71 04 5f bc b6 9c a5 3d 0c 8f 9c 3d
       0.07895194 -0.013611899 0.08086531 0.076444715
000010 c0 27 98 bb 09 d6 88 bb aa 85 1d bc d6 79 ae 3d
       -0.0046434104 -0.0041759056 -0.0096143875 0.08519332
000020 2e dc a5 3d d6 94 18 3e 6a bc 9f 3d 15 a7 4b 3e
       0.080986366 0.14900526 0.07799609 0.19887955
000030 81 c6 68 3d 73 63 37 bb 4b c5 46 bc 82 e7 b4 3c
       0.056829933 -0.002798286 -0.012131999 0.022083048
000040 f2 c9 23 bc 92 2b ad 3d 56 ff ac 3d e1 3f d0 3c
       -0.009996878 0.08455576 0.08447139 0.025421085
000050 d6 0e a6 3d 61 fc 96 3d df fd 15 39 51 2d 99 3d
       0.081082985 0.07372356 0.00014304322 0.074793465
000060 52 50 9f 3d 7a 9a 2e ba bd e9 bd bb a9 28 90 3d
       0.07778992 -0.0006660592 -0.005795686 0.07039005
000070 fb f0 f9 bb 13 52 a0 3d 29 b6 d3 3c a7 23 e0 3c
       -0.007627604 0.078281544 0.025843697 0.02736075

weight f4 [1, 32]
000000 15 e2 29 be 8e ea e2 3b 8a d5 2f be 55 0f 30 be
       -0.1659015 0.0069249338 -0.17171302 -0.17193349
000010 10 f0 67 3f dd 39 65 3f f8 80 0b ba 18 ef 2d be
       0.9060068 0.8954142 -0.0005321647 -0.16985738
000020 28 05 28 be fe bc db 3e b3 5e 36 be 34 db f9 3e
       -0.16408217 0.42917627 -0.17809562 0.4880005
000030 98 e5 d2 3e 9a 0c f3 3a 4d 6b c6 b8 a1 8c 02 be
       0.4119079 0.0018543184 -9.461362e-05 -0.12748958
000040 40 72 6d 3f cd 36 31 be 11 ed 29 be f3 aa df 3e
       0.92752457 -0.17306061 -0.1659434 0.4368511
000050 df 7c 28 be da 7e 2f be 64 40 65 3f cf 5f 2b be
       -0.16453885 -0.17138234 0.8955138 -0.16735767
000060 dd 08 35 be a5 9f 63 3f c3 ea 66 3f a0 60 2e be
       -0.17679162 0.88915473 0.9020197 -0.17029047
000070 15 63 bf ba 6a 63 2e be 5e 7e d1 3e 13 5a d5 3e
       -0.0014601672 -0.17030111 0.40916723 0.41670284
