ElegantRL/EntornoObservacionesAccionesMejorado/2ksteps_DDPG_0/actor__000000000512_56983.559.pt (torch, 27009 bytes, 7 tensors)

state_avg f4 [48]
0.0 0.0 0.0 0.0 0.0 0.0 0.0 0.0
0.0 0.0 0.0 0.0 0.0 0.0 0.0 0.0
0.0 0.0 0.0 0.0 0.0 0.0 0.0 0.0
0.0 0.0 0.0 0.0 0.0 0.0 0.0 0.0
0.0 0.0 0.0 0.0 0.0 0.0 0.0 0.0
0.0 0.0 0.0 0.0 0.0 0.0 0.0 0.0
00000000: 0000 0000 0000 0000 0000 0000 0000 0000
00000010: 0000 0000 0000 0000 0000 0000 0000 0000
00000020: 0000 0000 0000 0000 0000 0000 0000 0000
00000030: 0000 0000 0000 0000 0000 0000 0000 0000
00000040: 0000 0000 0000 0000 0000 0000 0000 0000
00000050: 0000 0000 0000 0000 0000 0000 0000 0000
00000060: 0000 0000 0000 0000 0000 0000 0000 0000
00000070: 0000 0000 0000 0000 0000 0000 0000 0000
00000080: 0000 0000 0000 0000 0000 0000 0000 0000
00000090: 0000 0000 0000 0000 0000 0000 0000 0000
000000a0: 0000 0000 0000 0000 0000 0000 0000 0000
000000b0: 0000 0000 0000 0000 0000 0000 0000 0000

state_std f4 [48]
1.0 1.0 1.0 1.0 1.0 1.0 1.0 1.0
1.0 1.0 1.0 1.0 1.0 1.0 1.0 1.0
1.0 1.0 1.0 1.0 1.0 1.0 1.0 1.0
1.0 1.0 1.0 1.0 1.0 1.0 1.0 1.0
1.0 1.0 1.0 1.0 1.0 1.0 1.0 1.0
1.0 1.0 1.0 1.0 1.0 1.0 1.0 1.0
00000000: 0000 803f 0000 803f 0000 803f 0000 803f
00000010: 0000 803f 0000 803f 0000 803f 0000 803f
00000020: 0000 803f 0000 803f 0000 803f 0000 803f
00000030: 0000 803f 0000 803f 0000 803f 0000 803f
00000040: 0000 803f 0000 803f 0000 803f 0000 803f
00000050: 0000 803f 0000 803f 0000 803f 0000 803f
00000060: 0000 803f 0000 803f 0000 803f 0000 803f
00000070: 0000 803f 0000 803f 0000 803f 0000 803f
00000080: 0000 803f 0000 803f 0000 803f 0000 803f
00000090: 0000 803f 0000 803f 0000 803f 0000 803f
000000a0: 0000 803f 0000 803f 0000 803f 0000 803f
000000b0: 0000 803f 0000 803f 0000 803f 0000 803f

weight f4 [64, 48]
-0.0010739658 0.076955944 -0.1180782 -0.10558277 -0.055256553 0.038468674 -0.0028423977 0.113742016
-0.0127308965 0.037962444 -0.04335367 -0.028200105 -0.13705467 -0.09501235 -0.059138104 0.00531435
0.056714334 0.08607686 -0.09725727 -0.062472172 0.05210544 0.11912376 -0.029525047 0.10735336
-0.023123667 0.015179485 0.12990078 -0.1330737 -0.09031665 -0.03632 -0.055919454 0.12394482
-0.0929921 -0.06603943 -0.10022971 -0.13435696 -0.08373726 0.12331815 0.06400934 0.069529206
0.0075448966 -0.07354866 0.024270937 -0.13394324 -0.1036549 -0.07395258 0.09051873 0.08410938
-0.0048189294 -0.04844813 0.14527784 0.20369226 0.11884633 0.0799697 0.15957615 -0.026774587
0.0855301 -0.15449841 -0.045900542 -0.013029339 0.12681465 0.11831446 -0.021198891 0.10100208
0.13752371 -0.061380945 0.0590068 0.09430638 0.15089436 0.19844069 -0.04696488 0.0048398646
0.11517927 0.075591475 0.17836995 0.18776934 0.09045153 -0.06395583 0.07633272 -0.032271065
-0.07489541 0.08418744 0.16261269 -0.08185517 0.088763595 0.036849454 0.03929284 -0.00809312
0.11395431 -0.12824218 0.106121145 0.13378778 0.1646202 0.11472224 -0.07895843 -0.035567302
0.16747765 0.12687604 -0.018488038 0.016357493 0.23984179 0.19661453 0.04346866 0.048348784
-0.041489843 0.094270624 -0.014611316 -0.011783805 0.09688865 0.12146681 0.049503848 0.16936818
0.008286889 0.22701941 0.19173402 -0.01887546 0.06901875 0.10662584 0.12834378 0.117885746
0.15262891 0.10544274 0.02342431 0.17006369 -0.032927576 0.01536202 0.07038532 0.013802512
0.046338826 -0.020733025 0.06290629 0.1329996 0.011218458 0.09348847 0.20854934 0.06905132
0.10030777 0.084473394 0.12245558 0.19353093 0.24056719 0.19217767 0.241343 0.0733823
-0.12886809 -0.068015166 0.09768511 -0.00092993677 -0.071299955 -0.10993619 -0.13425463 -0.121077985
-0.029097669 0.07866989 0.077561796 -0.13834925 0.08948587 -0.11225887 -0.030327529 -0.058166355
-0.027633771 -0.028167963 -0.12872785 -0.123863585 -0.02244854 0.0018551565 -0.0651722 0.054043785
-0.12911879 -0.009681821 0.1261703 -0.058515556 0.12954381 0.05195196 -0.12946555 0.09077072
-0.01655312 -0.06403655 0.11471811 -0.11592832 0.015394284 -0.030036665 0.10244767 0.0400469
0.06892772 0.050661296 -0.034495912 -0.030171003 -0.11822466 0.07773544 0.11389896 0.09816402
-0.10724555 0.0002921567 -0.10660386 -0.0851341 -0.08973118 0.042857282 -0.09081387 -0.009318503
-1.5475562e-05 0.08636586 -0.11391728 -0.10463383 -0.08943382 0.09426827 -0.05691324 0.11482959
0.04582935 0.012059024 -0.006545934 -0.034489416 0.011869551 -0.03886997 -0.006325845 0.012150264
-0.11824642 -0.08129188 0.1103685 -0.12251985 -0.016424121 0.13588327 0.046675112 -0.002041787
-0.13036221 0.06496142 -0.10766417 -0.04682568 -0.054248244 -0.027294392 -0.0035274443 0.11220397
0.011872206 0.1223909 0.082278036 -0.0968004 0.05822802 -0.107498154 -0.065954074 0.03606046
0.02874014 0.109389946 -0.07890432 -0.022515642 0.051900517 -0.16242038 0.075346775 -0.14033785
-0.01684568 -0.02262695 -0.10828471 -0.0042760815 0.096626475 -0.06618273 -0.11220403 -0.07533203
00000000: 50c4 8cba 149b 9d3d fcd2 f1bd c83b d8bd
00000010: b254 62bd 5491 1d3d 8547 3abb 93f1 e83d
00000020: 4095 50bc 827e 1b3d 9e93 31bd e803 e7bc
00000030: 0f58 0cbe d695 c2bd cc3a 72bd 0024 ae3b
00000040: 4a4d 683d 1149 b03d d22e c7bd d2e2 7fbd
00000050: 846c 553d 28f7 f33d 83de f1bc 14dc db3d
00000060: d86d bdbc 60b3 783c b604 053e 7944 08be
00000070: f0f7 b8bd 48c4 14bd cc0b 65bd c8d6 fd3d
00000080: a472 bebd ae3f 87bd 3c45 cdbd df94 09be
00000090: 717e abbd 3a8e fc3d 5417 833d 5465 8e3d
000000a0: 2e3b f73b aea0 96bd d8d3 c63c 6b28 09be
000000b0: 0549 d4bd 7374 97bd e261 b93d 8a41 ac3d
000000c0: 1ce8 9dbb 8c71 46bd b7c3 143e b494 503e
000000d0: b465 f33d 27c7 a33d ee67 233e 6156 dbbc
000000e0: 682a af3d d534 1ebe 3502 3cbd 0279 55bc
000000f0: b3db 013e da4e f23d 4ca9 adbc 2eda ce3d
00000100: 04d3 0c3e 966a 7bbd 1db1 713d b423 c13d
00000110: 0d84 1a3e 0934 4b3e 3f5e 40bd ba97 9e3b
00000120: 1ce3 eb3d b4cf 9a3d 9da6 363e 9b46 403e
00000130: a73e b93d 46fb 82bd 5454 9c3d aa2e 04bd
00000140: c462 99bd 776a ac3d f183 263e afa3 a7bd
00000150: b0c9 b53d 74ef 163d 87f1 203d 0199 04bc
00000160: e160 e93d eb51 03be 0b56 d93d aaff 083e
00000170: 3392 283e 7ef3 ea3d f5b4 a1bd 05af 11bd
00000180: 437f 2b3e cbeb 013e 3a74 97bc 2600 863c
00000190: 1699 753e 5255 493e 320c 323d 6009 463d
000001a0: 41f1 29bd f510 c13d 4d64 6fbc dc10 41bc
000001b0: 8e6d c63d 97c3 f83d 8cc4 4a3d da6e 2d3e
000001c0: bbc5 073c c777 683e ec55 443e b5a0 9abc
000001d0: b459 8d3d a65e da3d 8d6c 033e 156e f13d
000001e0: c14a 1c3e 5df2 d73d 57e4 bf3c 2d25 2e3e
000001f0: 11df 06bd fbb0 7b3c 2e26 903d ee23 623c
00000200: c8cd 3d3d 4ed8 a9bc 03d5 803d 0c31 083e
00000210: a0cd 373c e276 bf3d f58d 553e c76a 8d3d
00000220: 296e cd3d 6300 ad3d fec9 fa3d f92c 463e
00000230: 3f57 763e 39ca 443e 9f22 773e 7649 963d
00000240: fff5 03be 894b 8bbd 220f c83d 00c7 73ba
00000250: b605 92bd 3a26 e1bd 0c7a 09be bcf7 f7bd
00000260: 3c5e eebc ae1d a13d b8d8 9e3d 6dab 0dbe
00000270: 5e44 b73d fae7 e5bd 7071 f8bc d83f 6ebd
00000280: 3860 e2bc 80c0 e6bc 3cd1 03be 31ac fdbd
00000290: 00e6 b7bc b928 f33a 0179 85bd 045d 5d3d
000002a0: b737 04be 80a0 1ebc ca32 013e 02ae 6fbd
000002b0: 22a7 043e 94cb 543d 9e92 04be 00e6 b93d
000002c0: 699a 87bc 9825 83bd 54f1 ea3d d46b edbd
000002d0: 4f38 7c3c 740f f6bc 16d0 d13d 3808 243d
000002e0: fa29 8d3d 3882 4f3d 964b 0dbd 2e29 f7bc
000002f0: c51f f2bd c233 9f3d dc43 e93d 380a c93d
00000300: 8ea3 dbbd 9c2c 9939 2053 dabd c95a aebd
00000310: fbc4 b7bd 1e8b 2f3d 9ffc b9bd a2ac 18bc
00000320: 84d1 81b7 96e0 b03d 774d e9bd 434a d6bd
00000330: 1429 b7bd b90f c13d dc1d 69bd c72b eb3d
00000340: 8eb7 3b3d 3693 453c 467f d6bb c644 0dbd
00000350: 8178 423c 1e36 1fbd 0949 cfbb e711 473c
00000360: 2e2b f2bd 5b7c a6bd e108 e23d b0eb fabd
00000370: e18b 86bc fc24 0b3e 672e 3f3d 80cf 05bb
00000380: ac7d 05be 7e0a 853d 087f dcbd 49cc 3fbd
00000390: 6833 5ebd 7d98 dfbc b22c 67bb 32cb e53d
000003a0: a483 423c 15a8 fa3d 6381 a83d 4a3f c6bd
000003b0: 8180 6e3d fe27 dcbd ee12 87bd 22b4 133d
000003c0: 7170 eb3c d607 e03d 9798 a1bd b972 b8bc
000003d0: a395 543d 8751 26be 694f 9a3d bab4 0fbe
000003e0: f4ff 89bc 275c b9bc 60c4 ddbd 5f1e 8cbb
000003f0: 1ae4 c53d d08a 87bd 3acb e5bd ae47 9abd

bias f4 [64]
0.1339283 0.17129774 -0.019233448 -0.05624094 0.07007723 -0.10330488 0.0980652 0.03416541
0.08319333 0.06428124 0.12589985 0.08466358 0.09088931 0.12487905 0.10507677 -0.04800849
-0.10658325 0.16851413 0.031701524 0.09542354 0.0855012 -0.02186393 -0.06634879 0.118859865
-0.07396057 0.037329927 0.001046358 0.09580536 -0.045971934 -0.05968688 0.067424074 -0.011869156
0.1106909 -0.009738949 -0.12238983 0.20329686 0.03770724 0.16312833 -0.11501888 0.028100053
-0.021069366 0.026398625 0.09564502 -0.08575079 -0.013507515 -0.027249532 0.22172385 -0.06277232
0.12424621 -0.08480104 0.077059165 -0.011029323 0.20979483 -0.038204413 0.03194587 -0.075688675
0.17128593 0.12240468 0.0158905 0.14370994 -0.006401158 -0.14649905 0.079670586 0.121459365
00000000: 8024 093e ad68 2f3e 778f 9dbc e65c 66bd
00000010: a784 8f3d 8291 d3bd 68d6 c83d 07f1 0b3d
00000020: 4461 aa3d e2a5 833d e4eb 003e 1964 ad3d
00000030: 2d24 ba3d 96c0 ff3d 7d32 d73d 8da4 44bd
00000040: 5248 dabd f88e 2c3e 75d9 013d 6b6d c33d
00000050: 411b af3d fc1b b3bc e0e1 87bd cd6c f33d
00000060: a478 97bd 44e7 183d f325 893a 9a35 c43d
00000070: 114d 3cbd 3b7a 74bd a215 8a3d d976 42bc
00000080: e9b1 e23d 1d90 1fbc 85a7 fabd 0d2d 503e
00000090: e872 1a3d 1d0b 273e 058f ebbd 1532 e63c
000000a0: aa99 acbc ee41 d83c 89e1 c33d 1c9e afbd
000000b0: a04e 5dbc 693a dfbc 940b 633e c68e 80bd
000000c0: cc74 fe3d 2bac adbd 32d1 9d3d 55b4 34bc
000000d0: 75d4 563e 3b7c 1cbd acd9 023d aa02 9bbd
000000e0: 9465 2f3e 4eaf fa3d cb2c 823c b328 133e
000000f0: cec0 d1bb d903 16be 552a a33d b0bf f83d

weight f4 [32, 64]
0.035750777 -0.003858931 -0.02509803 0.033015728 -0.053051114 0.18354641 0.104566894 0.054074593
-0.049353715 -0.11665219 -0.07196594 0.11276221 -0.12586567 -0.115588486 -0.011978885 0.039524645
-0.12365061 -0.11821735 -0.00290069 -0.05436292 0.086550936 0.050914448 -0.1176432 -0.12369096
0.0960963 -0.02203162 -0.057184704 0.03337515 -0.027562952 0.0560755 0.029130194 -0.05649328
-0.09449885 0.06653444 -0.08140486 -0.0029765153 0.013121978 -0.07556544 0.07524256 -0.09775695
0.028523475 0.01316833 0.043465745 -0.119051255 0.0071768165 0.060565647 -0.08255972 0.02479675
0.012434609 0.10038358 -0.06192765 0.0050970586 -0.049794015 -0.035687547 0.030041665 -0.09595061
0.09544904 0.09041725 0.04228296 0.07949414 -0.041377194 0.028299492 0.00332449 -0.08748684
-0.04776579 -0.05398038 -0.026318002 -0.11032094 -0.09037668 0.061760567 -0.030850627 -0.116587915
0.016141346 0.064056836 0.09916083 0.10031821 -0.11031215 -0.035712417 -0.07045467 0.02170143
0.035306968 0.018725077 0.06105603 0.05612176 -0.06668137 0.091770746 0.07218331 0.012952806
-0.09380187 -0.07619451 0.022531467 0.029384522 0.112864375 0.053060018 0.03728012 -0.014709766
0.08329595 -0.049893603 0.040605254 -0.050370473 -0.012666271 0.0638163 0.055515222 -0.0480984
-0.009631047 -0.07227739 0.05143923 0.082000524 0.04276839 -0.12022537 -0.101730086 0.07560806
-0.010558532 0.066896886 0.051385716 -0.03022213 -0.06693838 -0.12489143 0.03564352 0.079809554
-0.019896137 -0.13337338 -0.086728826 -0.02019263 0.044392765 -0.04465913 -0.09152955 -0.0950258
0.11115666 0.03266259 -0.09977458 -0.07672356 -0.100127704 0.044581007 -0.06537404 -0.015904717
-0.031920016 -0.10378776 -0.10872447 -0.08784719 -0.07621043 0.022916289 -0.07371489 -0.0023013153
-0.008236917 0.10327891 -0.07150353 0.10745775 -0.09122388 -0.09430164 0.02714431 -0.07429476
0.0717365 -0.06872943 0.08304066 0.120468795 0.0018968364 0.028338393 0.10762263 0.06153503
-0.103217706 -0.00600975 -0.12324423 0.10182226 -0.03587379 -0.012908262 -0.08801831 -0.09009593
0.0076539908 0.10211277 -0.06806087 0.01754838 0.11246419 0.11328739 -0.040347993 0.11013444
0.05713902 0.10355933 -0.043750543 -0.102032274 -0.027892409 0.029465392 0.052096363 -0.10891113
0.09706538 -0.1245211 0.057412554 0.109766655 0.015831923 -0.016741725 0.054517195 -0.04565116
-0.09202701 -0.095432796 0.06081033 0.09488568 0.005031079 -0.06755111 -0.13272704 -0.02273524
0.05970471 -0.077866025 0.03516287 -0.05985986 0.077397265 -0.027879212 -0.036619063 -0.10896367
-0.104433775 0.0030813457 0.010490655 0.060447577 -0.10542462 0.03032983 -0.028147541 0.072770126
-0.045298506 0.03701198 0.03953512 0.06191488 -0.0391861 0.03937123 -0.02932471 0.024753451
-0.07475985 -0.096924104 -0.10950808 -0.06514997 -0.062344223 0.011978422 -0.03522601 -0.09365934
-0.0034410225 -0.03672034 0.07618266 -0.10232507 -0.045856297 -0.07821364 0.0034486712 0.0030357032
0.0050147264 0.11644282 -0.08416663 -0.015872804 0.03909289 0.09848365 0.083252974 0.030849675
-0.041419003 0.029507346 0.06549433 -0.02253332 0.05728763 0.10827435 -0.07591557 -0.03307987
00000000: 686f 123d 1ee6 7cbb 629a cdbc 803b 073d
00000010: 204c 59bd 97f3 3b3e 2b27 d63d 527d 5d3d
00000020: 1f27 4abd 58e7 eebd e162 93bd e0ef e63d
00000030: eee2 00be a8b9 ecbd 1643 44bc 98e4 213d
00000040: 883c fdbd f01b f2bd 8119 3ebb a7ab 5ebd
00000050: 9e41 b13d ab8b 503d ebee f0bd b051 fdbd
00000060: 23ce c43d a87b b4bc 823a 6abd 62b4 083d
00000070: b3cb e1bc 6caf 653d 72a2 ee3c 7f65 67bd
00000080: 9d88 c1bd 3543 883d 97b7 a6bd a411 43bb
00000090: 91fd 563c 0ec2 9abd c518 9a3d cc34 c8bd
000000a0: 10aa e93c fbbf 573c 2309 323d 25d1 f3bd
000000b0: 802b eb3b af13 783d 1215 a9bd 8e22 cb3c
000000c0: 88ba 4b3c e895 cd3d d9a7 7dbd 3a05 a73b
000000d0: cff4 4bbd 1b2d 12bd f019 f63c c181 c4bd
000000e0: c97a c33d ae2c b93d e630 2d3d d3cd a23d
000000f0: 227b 29bd 56d4 e73c b0df 593b 4d2c b3bd
00000100: 10a6 43bd 881a 5dbd da98 d7bc f2ef e1bd
00000110: 6917 b9bd a6f8 7c3d 74ba fcbc a5c5 eebd
00000120: db3a 843c 3b30 833d d514 cb3d a273 cd3d
00000130: 56eb e1bd 2f47 12bd 8a4a 90bd 33c7 b13c
00000140: 0a9e 103d 5565 993c e315 7a3d eedf 653d
00000150: 3e90 88bd 4df2 bb3d d8d4 933d 0238 543c
00000160: 321b c0bd de0b 9cbd e993 b83c cfb7 f03c
00000170: 7025 e73d 7655 593d 0ab3 183d 3b01 71bc
00000180: 1197 aa3d 3c5d 4cbd b251 263d 4551 4ebd
00000190: 3186 4fbc 1fb2 823d ee63 633d d402 45bd
000001a0: 8acb 1dbc 2b06 94bd f1b1 523d e4ef a73d
000001b0: e82d 2f3d b838 f6bd dd57 d0bd 66d8 9a3d
000001c0: b1fd 2cbc 3c01 893d d479 523d 6694 f7bc
000001d0: fd16 89bd 14c7 ffbd f1fe 113d 3173 a33d
000001e0: 39fd a2bc 0893 08be e29e b1bd 046b a5bc
000001f0: 30d5 353d 7eec 36bd d873 bbbd e39c c2bd
00000200: 1aa6 e33d 35c9 053d 9d56 ccbd 3e21 9dbd
00000210: c10f cdbd 939a 363d d3e2 85bd 9c4a 82bc
00000220: 90be 02bd ad8e d4bd efaa debd 3ae9 b3bd
00000230: 3714 9cbd f1ba bb3c d5f7 96bd aad1 16bb
00000240: 22f4 06bc e583 d33d 7170 92bd cf12 dc3d
00000250: 96d3 babd 3821 c1bd be5d de3c da27 98bd
00000260: 96ea 923d 04c2 8cbd 3911 aa3d 58b8 f63d
00000270: 459f f83a eb25 e83c 4169 dc3d 280c 7c3d
00000280: ce63 d3bd 70ed c4bb 7967 fcbd 3088 d03d
00000290: 65f0 12bd 2d7d 53bc f242 b4bd 3784 b8bd
000002a0: 54ce fa3b 8020 d13d 7f63 8bbd 9fc1 8f3c
000002b0: a053 e63d 3803 e83d f043 25bd 2a8e e13d
000002c0: 9b0a 6a3d ea16 d43d c533 33bd 4cf6 d0bd
000002d0: 9f7e e4bc 6861 f13c ff62 553d cc0c dfbd
000002e0: 37ca c63d eb04 ffbd 6d29 6b3d 57cd e03d
000002f0: f3b1 813c f125 89bc 6c4d 5f3d b6fc 3abd
00000300: a878 bcbd 4572 c3bd 4114 793d 6c53 c23d
00000310: c0db a43b 3d58 8abd 99e9 07be 413f babc
00000320: ed8c 743d 3978 9fbd f106 103d 9d2f 75bd
00000330: 7582 9e3d f262 e4bc dffd 15bd 5828 dfbd
00000340: 60e1 d5bd 67f0 493b ffe0 2b3c e197 773d
00000350: dde8 d7bd 4376 f83c ac95 e6bc 8108 953d
00000360: ed8a 39bd e099 173d 94ef 213d 759a 7d3d
00000370: 9b81 20bd ba43 213d 603a f0bc c0c7 ca3c
00000380: b11b 99bd 2580 c6bd c645 e0bd 596d 85bd
00000390: a85c 7fbd 2541 443c 2649 10bd 78d0 bfbd
000003a0: c782 61bb 1168 16bd a805 9c3d ce8f d1bd
000003b0: d0d3 3bbd 792e a0bd 1a03 623b a6f2 463b
000003c0: 9352 a43b 9379 ee3d 8e5f acbd af07 82bc
000003d0: de1f 203d ccb1 c93d 8980 aa3d 75b8 fc3c
000003e0: f9a6 29bd 64b9 f13c e421 863d cc97 b8bc
000003f0: 6fa6 6a3d f1be dd3d 9f79 9bbd c27e 07bd

bias f4 [32]
0.06408505 -0.07297522 0.049877185 -0.008040519 0.17142814 0.22399604 -0.09397696 0.099806435
0.07084402 -0.10824697 0.032683678 -0.12360405 0.14197086 -0.00490853 -0.12796506 0.03761313
-0.04344894 0.10298055 0.098258585 0.14788629 0.06429117 0.023387363 0.19835494 -0.018710067
0.023375936 -0.020118125 0.0902557 -0.037479416 -0.0708849 0.04703626 0.11798296 0.012663767
00000000: 063f 833d 0874 95bd 054c 4c3d 62bc 03bc
00000010: dc8a 2f3e 385f 653e fe76 c0bd 5167 cc3d
00000020: ab16 913d 96b0 ddbd 52df 053d 1f24 fdbd
00000030: cf60 113e bcd7 a0bb 4609 03be 3a10 1a3d
00000040: 84f7 31bd 77e7 d23d cc3b c93d 816f 173e
00000050: 17ab 833d db96 bf3c 8f1d 4b3e db45 99bc
00000060: e47e bf3c c4ce a4bc fbd7 b83d 0484 19bd
00000070: 1a2c 91bd 18a9 403d 0da1 f13d b07b 4f3c

weight f4 [1, 32]
-0.03255286 0.0052104155 -0.005027118 0.0022514916 0.12535876 0.1584911 0.007189162 -0.00061931903
0.001860369 0.00020387846 -0.018182943 -0.0008732834 0.14220928 -0.0053448305 -0.003036096 0.010217913
0.01968607 -0.010332864 0.003971219 0.14604856 -0.0047824783 0.0007725886 0.10068875 -0.010744561
-0.0051381704 0.034446955 0.12024473 -0.010972921 -0.02656724 -0.018736383 0.07800288 0.08439609
00000000: 2656 05bd 22bc aa3b 86ba a4bb c38d 133b
00000010: 0c5e 003e 7e4b 223e 1093 eb3b cc59 22ba
00000020: a0d7 f33a 35c8 5539 65f4 94bc 0fed 64ba
00000030: 4f9f 113e b023 afbb 3df9 46bb 0969 273c
00000040: ae44 a13c 2c4b 29bc 0021 823b c18d 153e
00000050: 56b6 9cbb 8b87 4a3a e735 ce3d f509 30bc
00000060: 195e a8bb 4018 0d3d de42 f63d c4c7 33bc
00000070: 8aa3 d9bc 0b7d 99bc f9bf 9f3d dbd7 ac3d
