ElegantRL/EntornoObservacionesAccionesMejorado/200ksteps_SAC_0/act.pth (torch, 26453 bytes, 8 tensors)

state_avg f4 [48]
0.0 0.0 0.0 0.0 0.0 0.0 0.0 0.0
0.0 0.0 0.0 0.0 0.0 0.0 0.0 0.0
0.0 0.0 0.0 0.0 0.0 0.0 0.0 0.0
0.0 0.0 0.0 0.0 0.0 0.0 0.0 0.0
0.0 0.0 0.0 0.0 0.0 0.0 0.0 0.0
0.0 0.0 0.0 0.0 0.0 0.0 0.0 0.0
00000000: 0000 0000 0000 0000 0000 0000 0000 0000
00000010: 0000 0000 0000 0000 0000 0000 0000 0000
00000020: 0000 0000 0000 0000 0000 0000 0000 0000
00000030: 0000 0000 0000 0000 0000 0000 0000 0000
00000040: 0000 0000 0000 0000 0000 0000 0000 0000
00000050: 0000 0000 0000 0000 0000 0000 0000 0000
00000060: 0000 0000 0000 0000 0000 0000 0000 0000
00000070: 0000 0000 0000 0000 0000 0000 0000 0000
00000080: 0000 0000 0000 0000 0000 0000 0000 0000
00000090: 0000 0000 0000 0000 0000 0000 0000 0000
000000a0: 0000 0000 0000 0000 0000 0000 0000 0000
000000b0: 0000 0000 0000 0000 0000 0000 0000 0000

state_std f4 [48]
1.0 1.0 1.0 1.0 1.0 1.0 1.0 1.0
1.0 1.0 1.0 1.0 1.0 1.0 1.0 1.0
1.0 1.0 1.0 1.0 1.0 1.0 1.0 1.0
1.0 1.0 1.0 1.0 1.0 1.0 1.0 1.0
1.0 1.0 1.0 1.0 1.0 1.0 1.0 1.0
1.0 1.0 1.0 1.0 1.0 1.0 1.0 1.0
00000000: 0000 803f 0000 803f 0000 803f 0000 803f
00000010: 0000 803f 0000 803f 0000 803f 0000 803f
00000020: 0000 803f 0000 803f 0000 803f 0000 803f
00000030: 0000 803f 0000 803f 0000 803f 0000 803f
00000040: 0000 803f 0000 803f 0000 803f 0000 803f
00000050: 0000 803f 0000 803f 0000 803f 0000 803f
00000060: 0000 803f 0000 803f 0000 803f 0000 803f
00000070: 0000 803f 0000 803f 0000 803f 0000 803f
00000080: 0000 803f 0000 803f 0000 803f 0000 803f
00000090: 0000 803f 0000 803f 0000 803f 0000 803f
000000a0: 0000 803f 0000 803f 0000 803f 0000 803f
000000b0: 0000 803f 0000 803f 0000 803f 0000 803f

weight f4 [64, 48]
-0.0010423802 0.0061783893 -0.011865965 -0.01071355 -0.006056531 0.0026170327 -0.0012052318 0.00958323
-0.0021212925 0.0025701944 -0.0049500726 -0.0035527784 -0.0136286765 -0.009735526 -0.0064153406 -0.0004511623
0.004305214 0.0070241382 -0.009938564 -0.0067245965 0.0038795834 0.010081252 -0.0036745335 0.008992353
-0.003082664 0.00046161414 0.011082453 -0.01325957 -0.009301731 -0.004303759 -0.006117095 0.010527927
-0.009548672 -0.0070566274 -0.010213168 -0.013377316 -0.008693045 0.0104690725 0.004982787 0.0054920767
-0.00024475815 -0.007749825 0.0013078032 -0.013339193 -0.010536489 -0.007788228 0.007435476 0.0068412675
-0.018579848 0.002056136 -0.0019683004 -0.009885252 -0.0020503553 -0.01343146 0.0074278275 -0.044123065
-0.010269045 -0.007760564 -0.019659067 -0.029601678 -0.00072544685 -0.0039514815 -0.0014886587 -0.027507545
-0.005428954 0.00085965847 -0.009951943 -0.012770121 0.00232075 0.00880958 0.0056198277 -0.030476548
-0.007061091 0.013533877 0.0010938075 0.00045338794 -0.002464599 -0.01222535 0.016073437 -0.03199821
-0.02442095 0.01433057 -0.00036339473 -0.023927668 -0.0019397845 -0.0044181277 0.018356647 -0.03175207
-0.008510511 -0.00532889 -0.0055918987 -0.0098120095 0.0051103346 -0.0057137776 -0.012508243 -0.04177135
0.0065597612 0.0026172735 -0.010485751 -0.007797475 0.01220717 0.008662009 -0.006038424 -0.003493927
-0.0127998665 -0.00040003666 -0.010126706 -0.010393052 -0.0010166386 0.0017110596 -0.0056964764 0.00772653
-0.008156044 0.011885916 0.008968803 -0.011478073 -0.0035899468 0.00034765614 0.0016661345 0.0029969548
0.005132657 0.0006338354 -0.0066076345 0.006008738 -0.013021679 -0.0080941385 -0.0036089902 -0.006618745
-0.004723596 -0.011042682 -0.0029536677 0.0025669474 -0.008934703 -0.0009332841 0.009217145 -0.001516244
0.00029689673 -0.0013066722 0.0025576951 0.008157905 0.012291 0.008157951 0.012324273 -0.0011117911
-0.011926681 -0.006294634 0.009040527 -8.60631e-05 -0.006599488 -0.010173303 -0.012424848 -0.01120568
-0.0026927658 0.007281329 0.007178227 -0.012804792 0.0082804775 -0.0103889555 -0.0028068305 -0.0053829104
-0.0025573631 -0.0026067034 -0.0119138695 -0.011463156 -0.0020773378 0.00017169565 -0.0060311644 0.005001665
-0.011949578 -0.0008960351 0.011676529 -0.0054151886 0.011988401 0.0048081465 -0.011981253 0.008400901
-0.0015321731 -0.00592703 0.01061681 -0.01072862 0.0014245859 -0.0027795914 0.009480695 0.003706137
0.0063798036 0.0046888944 -0.0031928343 -0.0027921859 -0.010941485 0.007194331 0.010541126 0.009085042
-0.3143026 -0.0045269253 -0.10015427 0.005459372 0.013053855 0.02418814 -0.1574116 0.27532282
-0.31336868 0.0034376972 -0.10079824 -0.020991592 0.018436015 0.036589343 -0.11170523 0.23569727
-0.30987898 -0.0034381254 -0.09084665 -0.02218546 0.031806786 -0.011834696 -0.09291158 0.24551883
-0.313285 -0.012076127 -0.08001628 -0.00014933581 0.037282236 -0.067369476 -0.024564523 0.3201855
-0.30519658 0.0014566483 -0.10025009 0.029877542 0.043367084 -0.052949905 0.038539026 0.3750561
-0.2531307 0.006769944 -0.08264488 0.1681355 0.07775965 0.125728 0.1508943 0.5343736
-0.4945952 0.005596095 -0.041275434 -0.031041585 -0.08637901 -0.20475632 0.02120663 -0.71173584
-0.4154271 -0.0066203335 -0.043992482 0.083635904 -0.076493084 -0.090521224 -0.038164373 -0.26441017
00000000: 7aa0 88ba 1674 ca3b 7769 42bc e387 2fbc
00000010: dd75 c6bb 8682 2b3b def8 9dba fb02 1d3c
00000020: 6205 0bbb b570 283b 3834 a2bb bbd5 68bb
00000030: d04a 5fbc c181 1fbc c737 d2bb fb89 ecb9
00000040: c112 8d3b be2a e63b 5cd5 22bc 015a dcbb
00000050: 9c40 7e3b d62b 253c 71d0 70bb aa54 133c
00000060: 8506 4abb cd04 f239 2d93 353c ab3e 59bc
00000070: 4a66 18bc 8c06 8dbb e971 c8bb 547d 2c3c
00000080: 0872 1cbc 483b e7bb 2255 27bc 882c 5bbc
00000090: 466d 0ebc 7986 2b3c a646 a33b e1f6 b33b
000000a0: e252 80b9 3ef2 fdbb 986a ab3a a18c 5abc
000000b0: 3da1 2cbc 6434 ffbb 4ba5 f33b b62c e03b
000000c0: c434 98bc 3dc0 063b 9afe 00bb c1f5 21bc
000000d0: 415f 06bb a00f 5cbc 2265 f33b 63ba 34bd
000000e0: 7f3f 28bc 544c febb 0d0c a1bc 387f f2bc
000000f0: ea2b 3eba 6e7b 81bb 191f c3ba 8157 e1bc
00000100: 5ee5 b1bb b45a 613a 790d 23bc c539 51bc
00000110: b917 183b 0e56 103c 8826 b83b f4a9 f9bc
00000120: b960 e7bb 32bd 5d3c 175e 8f3a b3b4 ed39
00000130: 1c85 21bb d64c 48bc 71ac 833c 8e10 03bd
00000140: 720e c8bc c4ca 6a3c 0486 beb9 f503 c4bc
00000150: 5e40 feba f1c5 90bb ae60 963c 750e 02bd
00000160: ac6f 0bbc f89d aebb 3f3c b7bb 8dc2 20bc
00000170: 9874 a73b a43a bbbb 60ef 4cbc 6f18 2bbd
00000180: 44f3 d63b 9086 2b3b 6dcc 2bbc f681 ffbb
00000190: 9500 483c 19eb 0d3c f9dd c5bb 5efa 64bb
000001a0: 88b6 51bc 03bc d1b9 7cea 25bc 9f47 2abc
000001b0: bb40 85ba a245 e03a 82a9 babb d52e fd3b
000001c0: eea0 05bc 25bd 423c e3f1 123c 870e 3cbc
000001d0: 5045 6bbb 9e45 b639 3262 da3a 8f68 443b
000001e0: d92f a83b f927 263a db84 d8bb f3e4 c43b
000001f0: e158 55bc 479d 04bc cf84 6cbb 0fe2 d8bb
00000200: 65c8 9abb 5eec 34bc 5292 41bb 3b3a 283b
00000210: dc62 12bc a3a7 74ba 8203 173c b5bc c6ba
00000220: cea8 9b39 a544 abba 019f 273b bca8 053c
00000230: 3160 493c eda8 053c bfeb 493c 85b9 91ba
00000240: 2068 43bc 3843 cebb b81e 143c c67c b4b8
00000250: 8540 d8bb edad 26bc 9791 4bbc 0798 37bc
00000260: 1d79 30bb 3798 ee3b 5537 eb3b 31cb 51bc
00000270: d7aa 073c 7036 2abc cdf2 37bb 2063 b0bb
00000280: 6f99 27bb 3ad5 2abb 6432 43bc f6cf 3bbc
00000290: f223 08bb 3309 3439 13a1 c5bb 02e5 a33b
000002a0: 2ac8 43bc e6e3 6aba ea4e 3f3c e571 b1bb
000002b0: 006b 443c a88d 9d3b 044d 44bc efa3 093c
000002c0: 33d3 c8ba 8837 c2bb 21f2 2d3c 18c7 2fbc
000002d0: 2cb9 ba3a ce29 36bb eb54 1b3c a9e2 723b
000002e0: ac0d d13b 4ca5 993b df3e 51bb 1bfd 36bb
000002f0: ea43 33bc 6cbe eb3b b0b4 2c3c 6ed9 143c
00000300: 45ec a0be 9a56 94bb af1d cdbd 88e4 b23b
00000310: d6df 553c 3526 c63c 8230 21be 1df7 8c3e
00000320: dc71 a0be fd4a 613b 4f6f cebd 8ff6 abbc
00000330: 2007 973c b5de 153d b6c5 e4bd a05a 713e
00000340: 75a8 9ebe 2c52 61bb cf0d babd 48be b5bc
00000350: d547 023d 50e6 41bc 6d48 bebd 4a69 7b3e
00000360: e466 a0be f3da 45bc 93df a3bd 0797 1cb9
00000370: 42b5 183d 02f9 89bd 8a3b c9bc 5bef a33e
00000380: ba42 9cbe 02ed be3a eb4f cdbd bfc1 f43c
00000390: afa1 313d 00e2 58bd 19db 1d3d 5a07 c03e
000003a0: 599a 81be 68d6 dd3b b841 a9bd b62b 2c3e
000003b0: 7440 9f3d d7be 003e 0984 1a3e b5cc 083f
000003c0: 953b fdbe 735f b73b 6e10 29bd ec4a febc
000003d0: 7ae7 b0bd a4ab 51be 87b9 ad3c 5234 36bf
000003e0: dcb2 d4be 62ef d8bb 7631 34bd 4d49 ab3d
000003f0: 68a8 9cbd 3163 b9bd 3f52 1cbd c560 87be

bias f4 [64]
0.011451705 0.02017027 -0.011902622 -0.005204698 -0.015108491 -0.111809865 0.024398925 -0.030041536
0.013356132 -0.14315023 -0.03773041 0.0068791453 -0.023631694 -0.014431479 -0.008102899 0.011389902
-0.023472443 0.04118429 -0.0044009546 -0.013730017 0.007227919 0.056649525 -0.08602453 0.0013036215
0.18200591 0.00084907096 -0.08870807 0.10833446 -0.05502922 -0.021208478 0.155155 0.13333337
0.04166513 0.0042283856 -0.010309232 0.27876055 0.011588004 0.09481094 0.08411605 0.27486667
-8.85796e-05 -0.019882752 0.2862341 -0.068082176 -0.0024973354 -0.005312361 0.11377117 -0.006011365
-0.0013058011 0.03620755 -0.0037281055 0.022744652 0.06829801 -0.06904034 0.024405915 -0.0167063
0.06976931 0.014283875 0.116458885 -6.9409593e-06 -0.021790722 0.021403236 0.020224279 0.11139667
00000000: ef9f 3b3c 1f3c a53c 3703 43bc 2c8c aabb
00000010: 9b89 77bc 92fc e4bd 41e0 c73c ab19 f6bc
00000020: aed3 5a3c f995 12be 348b 1abd 746a e13b
00000030: 4197 c1bc 0372 6cbc 06c2 04bc b69c 3a3c
00000040: 4849 c0bc dcb0 283d e235 90bb ddf3 60bc
00000050: 2ed8 ec3b 5509 683d a12d b0bd 47de aa3a
00000060: c25f 3a3e 3094 5e3a 94ac b5bd 75de dd3d
00000070: 5266 61bd 67bd adbc f4e0 1e3e 8b88 083e
00000080: 0ea9 2a3d 458e 8a3b 0ee8 28bc b4b9 8e3e
00000090: 9ddb 3d3c 3d2c c23d 0945 ac3d 53bb 8c3e
000000a0: d0c3 b9b8 27e1 a2bc 478d 923e ab6e 8bbd
000000b0: 56aa 23bb 5013 aebb dc00 e93d fcfa c4bb
000000c0: 6a27 abba 5e4e 143d 3b53 74bb fe52 ba3c
000000d0: d4df 8b3d 0665 8dbd eaee c73c a7db 88bc
000000e0: 36e3 8e3d ea06 6a3c ff81 ee3d 63e6 e8b6
000000f0: 7582 b2bc d755 af3c 63ad a53c f023 e43d

weight f4 [32, 64]
0.0033088678 -0.018226802 -0.002383406 0.0030558596 -0.13269532 0.14063276 0.038707245 -0.041230366
-0.0071246135 0.04874946 -0.03067997 0.011179478 -0.061157823 -0.08893318 -0.0011925439 0.0036581955
0.35175133 -0.090842634 -0.0069133537 -0.20098127 0.007863452 0.016443701 -0.42364714 -0.011513987
0.15346858 -0.0020390367 0.12611264 -0.04483367 -0.030520407 -0.100721635 0.16569258 0.13657172
-0.010719178 0.0058813174 -0.0069081374 0.19564472 0.04907565 0.20631413 -0.015356796 0.27908435
0.0025505775 -0.45403972 0.19031624 -0.38175103 0.00066419155 0.0056053405 0.059346758 0.0028451225
-0.11899902 0.029398177 0.09486951 0.0036110657 0.02109866 0.0499684 0.0024203032 -0.011417936
-0.023784125 0.0024836725 0.1776698 0.008606851 -0.005718089 -0.06504631 -0.03227536 0.13844709
-0.005362378 -0.0155107975 -0.0029843547 -0.010209379 -0.39463198 0.11008791 -0.1759275 0.11585511
-0.0009196697 0.13196072 -0.018152362 0.0090968935 -0.047343783 0.39217612 -0.0086138705 -0.00054067123
-0.45179504 0.044755973 0.2822851 -0.33836538 -0.006609137 0.025114205 0.032614727 -0.030656645
-0.12549044 -0.0042577907 -0.04284868 -3.1773531 0.0030347954 0.116098695 -0.43315953 -0.29715884
0.025404345 -0.002767363 0.004482825 0.17857125 -0.053458255 -0.3762193 -0.051861472 -0.3385894
-0.0014345731 0.34661812 -0.031507082 0.011115707 0.003957921 -0.011231206 -0.12608257 0.007180473
-0.040458668 -0.0134073375 0.21716674 -0.12175015 0.005825738 -0.6732531 -0.01249074 0.010935259
0.11331058 -0.018074475 -0.14762548 -0.0016774965 0.0050484682 -0.9200108 -0.33563888 -0.40136963
0.0102877235 0.0046667606 -0.009222221 -0.007100679 -0.021436585 0.0027970867 -0.007475108 -0.005843449
-0.0019328188 -0.01970649 -0.011653777 -0.008284235 -0.0061578834 -0.0055343653 -0.005359621 -0.001478094
-0.011313734 -0.006398198 -0.008010701 -2.0970661e-05 -0.0073943706 -0.014712717 -0.0073289108 -0.009467356
0.005257807 -0.006282302 0.004986586 0.007386719 -2.7124912e-05 0.0135061545 0.0055317087 0.0021014563
-0.014280355 -0.0009148913 -0.010982048 0.0017366988 -0.0033859608 -0.01744006 -0.008536977 -0.007639435
0.0018109768 0.0075833946 -0.019015925 -0.011145979 0.010407774 0.010296478 -0.010289624 0.010063217
-0.007669735 0.0032771584 -0.018697163 -0.016648987 -0.017077792 -0.0013115113 0.004072065 -0.013704174
0.0047245314 -0.013687099 0.0044780597 0.010076172 0.0029130839 0.00021445742 0.003927979 -0.008660877
-0.008516713 -0.00796794 0.005405752 0.008781442 -0.063891254 -0.69427574 -0.11963609 0.10509707
-0.0014634368 0.09679411 -0.024113767 -0.0062962803 0.000559654 0.11908744 0.00090398843 -0.0066318023
0.12958348 -0.023309967 0.016424935 0.07128096 -0.007864983 0.019393109 -0.24305329 -0.04988098
0.054714937 0.0011568344 0.44637725 0.03671897 -0.00042446633 -0.076807864 0.043594547 -0.057896014
0.0137553485 -0.012504495 -0.006847958 -0.37912866 -0.37753782 0.29162744 -0.011063985 0.046729956
-0.00092782226 0.35302523 -0.03672092 0.0050893896 -0.0037291355 -0.009578182 -0.44520736 0.00074837
0.019741233 0.018045349 0.052471023 -0.017647484 0.013374078 -0.014757587 -0.0029991579 -0.005076017
-0.018434605 -0.020856472 -0.13716725 -0.00028214275 0.004428795 0.0356999 -0.06287381 -0.052476715
00000000: 97d9 583b 6050 95bc eb32 1cbb d144 483b
00000010: 48e1 07be 0902 103e 7d8b 1e3d 2ce1 28bd
00000020: 9775 e9bb 84ad 473d 8f54 fbbc 212a 373c
00000030: a080 7abd 9922 b6bd 224f 9cba 56be 6f3b
00000040: c018 b43e b40b babd 6a89 e2bb 09ce 4dbe
00000050: b5d5 003c f1b4 863c 47e8 d8be 29a5 3cbc
00000060: de26 1d3e 5ca1 05bb ac23 013e 83a3 37bd
00000070: ef05 fabc 2547 cebd 51ab 293e 75d9 0b3e
00000080: 7e9f 2fbc 11b8 c03b a85d e2bb 1757 483e
00000090: 8c03 493d 0344 533e 129b 7bbc 25e4 8e3e
000000a0: 9727 273b e577 e8be 43e2 423e df74 c3be
000000b0: 241d 2e3a 01ad b73b 9615 733d 3c75 3a3b
000000c0: c2b5 f3bd 72d4 f03c f24a c23d a1a7 6c3b
000000d0: 19d7 ac3c aaab 4c3d f39d 1e3b 4b12 3bbc
000000e0: edd6 c2bc 1cc5 223b 12ef 353e c003 0d3c
000000f0: cf5e bbbb 0037 85bd 2b33 04bd 13c5 0d3e
00000100: e3b6 afbb 0021 7ebc 2a95 43bb 3d45 27bc
00000110: 340d cabe c575 e13d 5726 34be 7245 ed3d
00000120: fd15 71ba b620 073e 43b4 94bc 230b 153c
00000130: 8eeb 41bd 4fcb c83e 3121 0dbc d5bb 0dba
00000140: ae51 e7be 0a52 373d ac87 903e 3a3e adbe
00000150: 7691 d8bb 4ebc cd3c 0597 053d a523 fbbc
00000160: 9180 00be f084 8bbb 1982 2fbd c159 4bc0
00000170: 6be3 463b 27c5 ed3d 16c7 ddbe 3425 98be
00000180: c61c d03c a65c 35bb a9e4 923b 62db 363e
00000190: 0bf7 5abd d19f c0be b26c 54bd 975b adbe
000001a0: 4908 bcba ee77 b13e 920d 01bd a81e 363c
000001b0: 73b1 813b 1803 38bc ca1b 01be 2c4a eb3b
000001c0: fdb7 25bd 73aa 5bbc f560 5e3e 2558 f9bd
000001d0: d5e5 be3b 515a 2cbf f6a5 4cbc cd29 333c
000001e0: 610f e83d ec10 94bc 222b 17be 71df dbba
000001f0: 9f6d a53b d485 6bbf dcd8 abbe 5280 cdbe
00000200: d78d 283c a0eb 983b cc18 17bc d0ac e8bb
00000210: c79b afbc 544f 373b c0f1 f4bb 677a bfbb
00000220: a356 fdba 816f a1bc 7cef 3ebc 9aba 07bc
00000230: 12c8 c9bb 9f59 b5bb c29f afbb 9bbc c1ba
00000240: 3d5d 39bc faa7 d1bb 513f 03bc 27ea afb7
00000250: 7a4c f2bb 9c0d 71bc 5c27 f0bb f81c 1bbc
00000260: af49 ac3b c5db cdbb 8466 a33b 4a0c f23b
00000270: 4e8a e3b7 eb48 5d3c 5643 b53b 96b8 093b
00000280: 26f8 69bc 51d5 6fba 0cee 33bc f1a1 e33a
00000290: ffe6 5dbb 75de 8ebc adde 0bbc 3a54 fabb
000002a0: 4c5e ed3a 207e f83b 49c7 9bbc a09d 36bc
000002b0: 5e85 2a3c 8fb2 283c d095 28bc 31e0 243c
000002c0: 6652 fbbb 98c5 563b cb2a 99bc 7563 88bc
000002d0: bae6 8bbc 04e7 abba f56e 853b 7987 60bc
000002e0: 3ed0 9a3b db3f 60bc b0bc 923b 8716 253c
000002f0: 70e9 3e3b fadf 6039 47b6 803b 5ae6 0dbc
00000300: af89 0bbc f68b 02bc bc22 b13b 0ae0 0f3c
00000310: 6bd9 82bd 0ebc 31bf c403 f5bd 223d d73d
00000320: cad0 bfba fe3b c63d 3c8a c5bc 0751 cebb
00000330: bfb5 123a 1ee4 f33d a3f9 6c3a 974f d9bb
00000340: 88b1 043e 8bf4 bebc 968d 863c c1fb 913d
00000350: 21dc 00bc 4cde 9e3c f6e2 78be 0050 4cbd
00000360: c51c 603d eca0 973a 8f8b e43e a166 163d
00000370: e88a deb9 714d 9dbd 3290 323d 5f24 6dbd
00000380: 1d5e 613c a7df 4cbc d664 e0bb 271d c2be
00000390: a34c c1be 3150 953e b745 35bc e967 3f3d
000003a0: 1939 73ba b9bf b43e ad68 16bd e5c4 a63b
000003b0: 8364 74bb cfed 1cbc 38f2 e3be 432e 443a
000003c0: 5eb8 a13c d7d3 933c dbeb 563d 7591 90bc
000003d0: f31e 5b3c cec9 71bc 858d 44bb b854 a6bb
000003e0: 2b04 97bc 31db aabc 9275 0cbe 8fec 93b9
000003f0: 6d1f 913b 0f3a 123d fcc3 80bd d3f1 56bd

bias f4 [32]
0.108364314 0.119098894 -0.0072327857 0.0041824644 0.26878998 0.020247595 -0.013596312 0.2809552
0.1963959 0.25553352 0.20541498 0.2126448 -0.002168384 0.18542528 -0.0133308545 0.26460513
0.123693 -0.008085574 0.34575784 0.20496519 -0.0049332455 0.21373571 0.22622772 -0.13669066
0.14941329 0.23504879 0.08202142 -0.0087206075 -0.009793508 0.18792842 0.098086335 -0.43802318
00000000: 1cee dd3d 1fea f33d 0101 edbb 0e0d 893b
00000010: d79e 893e 49de a53c 11c3 5ebc 5cd9 8f3e
00000020: 021c 493e 4ad5 823e 4e58 523e 8fbf 593e
00000030: 721b 0ebb 20e0 3d3e a869 5abc 537a 873e
00000040: c152 fd3d 5b79 04bc 2c07 b13e 65e2 513e
00000050: 10a7 a1bb 89dd 5a3e 3da8 673e a3f8 0bbe
00000060: ccff 183e a1b0 703e d9fa a73d e1e0 0ebc
00000070: f374 20bc 4f70 403e 7de1 c83d 9344 e0be

weight f4 [2, 32]
0.26956424 -2.3525732 0.0020595042 0.39486343 0.17628664 -0.7979467 -0.0005525186 0.21547087
0.18149926 0.81424636 0.8279245 -2.188512 -0.000653299 0.39455226 8.254175e-05 0.38393247
0.6375857 -0.0002652272 0.51189333 -1.3840853 0.003453431 1.8187249 0.21787582 -1.0550538
0.6438646 0.19357125 0.46258917 0.0021493149 0.0014286893 0.79544747 0.5547084 -1.2057313
0.04507454 0.6898308 0.0010669591 -0.08812962 -0.14192978 -0.12396133 0.0035080013 -0.06133191
-0.08182478 0.30871832 -0.043692708 0.5813199 0.0016686459 -1.7046161 0.0011640115 -0.23765199
-0.14119759 0.004279588 -0.52814466 -0.09143388 -0.0028976407 -0.060903776 -0.17939627 0.32752985
-0.20257725 0.025668738 -0.19283006 4.2289194e-05 0.0011685586 -0.2804616 -0.13801463 0.34906477
00000000: 5304 8a3e 8f90 16c0 bff8 063b 8a2b ca3e
00000010: 7c84 343e 3c46 4cbf e5d6 10ba 65a4 5c3e
00000020: f1da 393e 7372 503f dcf2 533f 9510 0cc0
00000030: 2742 2bba c102 ca3e 441a ad38 cc92 c43e
00000040: d138 233f 310e 8bb9 710b 033f b529 b1bf
00000050: f552 623b facb e83f d71a 5f3e 010c 87bf
00000060: 4fd4 243f 8b37 463e 7dd8 ec3e 85db 0c3b
00000070: dc42 bb3a 72a2 4b3f 5f01 0e3f 6755 9abf
00000080: 15a0 383d c098 303f 35d9 8b3a 4d7d b4bd
00000090: 0a56 11be 70df fdbd 7fe6 653b 2b37 7bbd
000000a0: c093 a7bd 5410 9e3e 20f7 32bd 62d1 143f
000000b0: 77b6 da3a dc30 dabf bf91 983a 0b5b 73be
000000c0: 1a96 10be c93b 8c3b 7d34 07bf b041 bbbd
000000d0: 58e6 3dbb 3d76 79bd a8b3 37be feb1 a73e
000000e0: 6970 4fbe 3f47 d23c 3e75 45be ad5f 3138
000000f0: 522a 993a aa98 8fbe b553 0dbe 9eb8 b23e

bias f4 [2]
0.34317344 -0.1843638
00000000: 6eb4 af3e ddc9 3cbe
