ElegantRL/EntornoObservacionesAccionesMejorado/200ksteps_SAC_0/actor__000000050688_57808.723.pt (torch, 27329 bytes, 8 tensors)

state_avg f4 [48]
000000 00 00 00 00 00 00 00 00 00 00 00 00 00 00 00 00
       0.0 0.0 0.0 0.0
000010 00 00 00 00 00 00 00 00 00 00 00 00 00 00 00 00
       0.0 0.0 0.0 0.0
000020 00 00 00 00 00 00 00 00 00 00 00 00 00 00 00 00
       0.0 0.0 0.0 0.0
000030 00 00 00 00 00 00 00 00 00 00 00 00 00 00 00 00
       0.0 0.0 0.0 0.0
000040 00 00 00 00 00 00 00 00 00 00 00 00 00 00 00 00
       0.0 0.0 0.0 0.0
000050 00 00 00 00 00 00 00 00 00 00 00 00 00 00 00 00
       0.0 0.0 0.0 0.0
000060 00 00 00 00 00 00 00 00 00 00 00 00 00 00 00 00
       0.0 0.0 0.0 0.0
000070 00 00 00 00 00 00 00 00 00 00 00 00 00 00 00 00
       0.0 0.0 0.0 0.0
000080 00 00 00 00 00 00 00 00 00 00 00 00 00 00 00 00
       0.0 0.0 0.0 0.0
000090 00 00 00 00 00 00 00 00 00 00 00 00 00 00 00 00
       0.0 0.0 0.0 0.0
0000a0 00 00 00 00 00 00 00 00 00 00 00 00 00 00 00 00
       0.0 0.0 0.0 0.0
0000b0 00 00 00 00 00 00 00 00 00 00 00 00 00 00 00 00
       0.0 0.0 0.0 0.0

state_std f4 [48]
000000 00 00 80 3f 00 00 80 3f 00 00 80 3f 00 00 80 3f
       1.0 1.0 1.0 1.0
000010 00 00 80 3f 00 00 80 3f 00 00 80 3f 00 00 80 3f
       1.0 1.0 1.0 1.0
000020 00 00 80 3f 00 00 80 3f 00 00 80 3f 00 00 80 3f
       1.0 1.0 1.0 1.0
000030 00 00 80 3f 00 00 80 3f 00 00 80 3f 00 00 80 3f
       1.0 1.0 1.0 1.0
000040 00 00 80 3f 00 00 80 3f 00 00 80 3f 00 00 80 3f
       1.0 1.0 1.0 1.0
000050 00 00 80 3f 00 00 80 3f 00 00 80 3f 00 00 80 3f
       1.0 1.0 1.0 1.0
000060 00 00 80 3f 00 00 80 3f 00 00 80 3f 00 00 80 3f
       1.0 1.0 1.0 1.0
000070 00 00 80 3f 00 00 80 3f 00 00 80 3f 00 00 80 3f
       1.0 1.0 1.0 1.0
000080 00 00 80 3f 00 00 80 3f 00 00 80 3f 00 00 80 3f
       1.0 1.0 1.0 1.0
000090 00 00 80 3f 00 00 80 3f 00 00 80 3f 00 00 80 3f
       1.0 1.0 1.0 1.0
0000a0 00 00 80 3f 00 00 80 3f 00 00 80 3f 00 00 80 3f
       1.0 1.0 1.0 1.0
0000b0 00 00 80 3f 00 00 80 3f 00 00 80 3f 00 00 80 3f
       1.0 1.0 1.0 1.0

weight f4 [64, 48]
000000 e7 f2 ca bb 20 5c 16 3d d5 62 90 bd e2 59 82 bd
       -0.006193507 0.03670895 -0.07050101 -0.063648
000010 09 65 13 bd e2 c9 7e 3c 57 a7 ea bb 75 3a 69 3d
       -0.035985027 0.015551062 -0.0071610617 0.056940515
000020 e8 7e 4e bc 24 34 7a 3c 8b f3 f0 bc d7 ed ac bc
       -0.012603499 0.01527122 -0.029413005 -0.021109505
000030 e7 d4 a5 bd 53 ee 6c bd 82 1b 1c bd 3f ab 2f bb
       -0.080972485 -0.05784447 -0.03811217 -0.0026804951
000040 59 93 d1 3c 64 ee 2a 3d 3a e0 71 bd 27 a7 23 bd
       0.025582956 0.041731253 -0.05905173 -0.03995433
000050 23 d5 bc 3c b9 5a 75 3d 5c d9 b2 bc d8 d8 5a 3d
       0.02305085 0.059900973 -0.02183216 0.053429455
000060 a8 0b 96 bc fc be 33 3b 5b db 86 3d a9 55 a1 bd
       -0.018316105 0.0027427068 0.065848075 -0.078776665
000070 fa 60 62 bd 7f 81 d1 bc ce de 14 bd 68 1d 80 3d
       -0.055268265 -0.025574444 -0.036345296 0.06255609
000080 8d 66 68 bd bb b7 2b bd 18 8f 78 bd ca c6 a2 bd
       -0.056738425 -0.041923266 -0.06068334 -0.07948072
000090 c9 8e 53 bd cc cf 7e 3d a3 86 f2 3c 11 a9 05 3d
       -0.051649842 0.06220989 0.029605215 0.032631937
0000a0 e5 9a be ba 26 9b 3c bd 9e a5 fe 3b cf 4f a2 bd
       -0.0014542012 -0.0460464 0.007771208 -0.079253785
0000b0 d0 37 80 bd 89 89 3d bd 62 f3 34 3d ca 79 26 3d
       -0.062606454 -0.046273742 0.04417742 0.04064349
0000c0 5b 18 e2 bd 79 2b 48 3c 05 99 3f bc cd 97 70 bd
       -0.11039802 0.012217396 -0.011694198 -0.05873852
0000d0 fe 99 47 bc cc 6f a3 bd 94 c4 34 3d 4e 3a 86 be
       -0.012182711 -0.07980308 0.044132784 -0.26216358
0000e0 18 eb 79 bd d1 dd 3c bd ba 3d ef bd 29 1a 34 be
       -0.06101522 -0.046109978 -0.11681695 -0.17588104
0000f0 9f 39 8d bb f6 53 c0 bc aa e8 10 bc e2 59 27 be
       -0.0043098475 -0.023477536 -0.008844534 -0.16342881
000100 b7 1f 04 bd 4c 5c a7 3b a3 32 72 bd a8 61 9b bd
       -0.032256808 0.005107438 -0.059130322 -0.07586986
000110 c3 ed 61 3c 2c 66 56 3d c9 c2 08 3d ad 6b 39 be
       0.013789597 0.052343532 0.033388887 -0.18107481
000120 02 d4 2b bd 7f af a4 3d 3a f2 d4 3b 0f 88 30 3b
       -0.041950233 0.08041286 0.006498602 0.0026936566
000130 5a f2 6f bc 3c c3 94 bd 10 98 c3 3d 38 b4 42 be
       -0.014645183 -0.072638005 0.09550488 -0.1901406
000140 d7 94 14 be b6 60 ae 3d d0 7d 0d bb 49 91 11 be
       -0.14509903 0.0851454 -0.0021589883 -0.14215578
000150 f7 d4 3c bc ff 0d d7 bc 3c 61 df 3d 78 33 41 be
       -0.011525384 -0.026251791 0.10907218 -0.1886729
000160 61 1c 4f bd df ad 01 bd 0f 13 08 bd 51 ce 6e bd
       -0.050564174 -0.031659957 -0.0332213 -0.058302227
000170 d0 bd f8 3c 0e 10 0b bd 92 32 98 bd 22 29 7e be
       0.030363947 -0.033950858 -0.074315205 -0.24820378
000180 ae a3 1f 3d ee cf 7e 3c ae 36 7f bd f3 c2 3d bd
       0.038974456 0.015552504 -0.062308006 -0.046328496
000190 89 8a 94 3d 23 d0 52 3d 14 f4 12 bd 29 0f aa bc
       0.07252986 0.051468026 -0.035877302 -0.020759182
0001a0 f2 bc 9b bd f3 c0 1b bb b2 78 76 bd 65 ef 7c bd
       -0.07604398 -0.002376613 -0.060173698 -0.061751742
0001b0 31 ec c5 bb 7c 8c 26 3c 05 a5 0a bd 93 09 3c 3d
       -0.006040119 0.01016533 -0.03384878 0.04590757
0001c0 86 7c 46 bd 7d a0 90 3d 62 46 5a 3d af aa 8b bd
       -0.0484586 0.07061861 0.05328978 -0.06819665
0001d0 49 bb ae bc 38 5d 07 3b 3c 30 22 3c 6e db 91 3c
       -0.021329539 0.0020654928 0.009899195 0.017804828
0001e0 d3 d3 f9 3c ee d4 76 3b 17 cc 20 bd c8 39 12 3d
       0.030496513 0.0037663537 -0.039257135 0.035699636
0001f0 c4 74 9e bd 09 f8 44 bd 73 a7 af bc e3 10 21 bd
       -0.07737115 -0.048088107 -0.02144215 -0.039322745
000200 a5 eb e5 bc 71 5f 86 bd 49 c4 8f bc 44 e3 79 3c
       -0.028066466 -0.06561173 -0.01754965 0.015251938
000210 35 73 59 bd bd af b5 bb 50 58 60 3d b7 99 13 bc
       -0.053088386 -0.0055446313 0.05477172 -0.009008816
000220 3e 3c e7 3a 1a 6c fe bb c7 fc 78 3c 36 88 46 3d
       0.0017641855 -0.0077643516 0.015196986 0.048469745
000230 fd 8f 95 3d 7e 88 46 3d c5 f7 95 3d 5d 7b d8 bb
       0.07302854 0.048470013 0.07322649 -0.006606503
000240 75 1e 91 bd 75 31 19 bd 70 04 5c 3d 8c 0c 06 ba
       -0.07085887 -0.03740068 0.05371517 -0.0005113564
000250 a3 99 20 bd a2 9a 77 bd 40 2c 97 bd e8 57 88 bd
       -0.03920902 -0.060450204 -0.07381487 -0.06657392
000260 36 10 83 bc 33 32 31 3d f5 b0 2e 3d 10 cc 9b bd
       -0.01599894 0.043260764 0.042649228 -0.07607281
000270 5b 8b 49 3d da d5 7c bd fe 9b 88 bc 64 ff 02 bd
       0.049205165 -0.061727382 -0.016675945 -0.03198184
000280 7c f4 78 bc 48 c3 7d bc de f6 90 bd 05 7d 8b bd
       -0.015195008 -0.015488453 -0.07078336 -0.06810955
000290 7b 3a 4a bc b0 b6 85 3a cd c6 12 bd 80 70 f3 3c
       -0.012343044 0.001020154 -0.035834122 0.02971673
0002a0 3c 65 91 bd 4a 73 ae bb d8 15 8e 3d f4 c9 03 bd
       -0.07099387 -0.005323802 0.0693776 -0.03217502
0002b0 38 dd 91 3d 42 08 ea 3c 20 c7 91 bd 4b 73 4c 3d
       0.07122272 0.02856839 -0.07118058 0.04991464
0002c0 25 27 15 bc 06 3e 10 bd 85 2f 81 3d 5c 88 82 bd
       -0.009103571 -0.0352154 0.06307892 -0.06373665
0002d0 c4 b0 0a 3c 1f 49 87 bc 6b be 66 3d 35 64 b4 3c
       0.008464996 -0.016514359 0.05633394 0.022020439
0002e0 5e 41 1b 3d ff 36 e4 3c 5f 65 9b bc b7 e3 87 bc
       0.037904136 0.027858255 -0.018969236 -0.016588075
0002f0 1f 24 85 bd cd 14 2f 3d 1c 46 80 3d 47 19 5d 3d
       -0.0650103 0.042744447 0.06263372 0.053979184
000300 e4 29 88 be cc 07 09 bc ca b9 fb bc 8c f2 2f 3c
       -0.2659446 -0.008363675 -0.03072824 0.01073898
000310 be 3e 23 bd 74 c1 c3 3d 36 f5 f4 bc d9 97 45 3e
       -0.039854757 0.09558383 -0.029902082 0.19296207
000320 7c dd 55 be 48 9c 1f 3d c4 53 0e bd 1e 0d 7a bb
       -0.20885271 0.0389674 -0.034747854 -0.003815479
000330 72 2e 10 bd 51 d6 15 3e 47 ab 97 bd 20 a5 84 3e
       -0.035200544 0.14632536 -0.074057154 0.2590723
000340 b8 3a 44 be e8 0c f8 ba f7 fc c6 3c ca 76 70 3b
       -0.19163024 -0.0018924745 0.024290545 0.0036691898
000350 b8 89 b2 3c c1 0b 63 3d 6d 6a c5 bd df 20 4f 3e
       0.021794185 0.05543113 -0.0963944 0.20227383
000360 9a e4 92 be c4 04 5a bd d5 6c b5 3d 53 6b 78 bd
       -0.28690034 -0.0532272 0.08858649 -0.060649227
000370 85 e7 c7 3b 27 7b 0c 3e 10 c7 89 3d ae 90 5d 3e
       0.0061005973 0.13718854 0.06727421 0.21637222
000380 61 23 94 be 88 c4 de 3c ec 3a 00 bd 3e d0 0b 3b
       -0.28933242 0.027193323 -0.031306192 0.0021333839
000390 58 b3 56 bc 6b 21 b3 3d a7 fa 69 3d e2 a8 9d 3e
       -0.013104282 0.08746608 0.057123806 0.3079291
0003a0 c8 a7 66 be 02 b7 70 3d d2 c8 95 3d 3c 36 74 bd
       -0.22524941 0.05876828 0.07313694 -0.059622034
0003b0 5d 07 39 3d cb 66 ac 3c b0 dd 9c be 35 ce 58 3e
       0.045173038 0.02104511 -0.30637884 0.21172412
0003c0 49 25 b8 bd 28 c7 0a bd 84 ee 6d bd 2a 27 da 3b
       -0.089914866 -0.033881336 -0.058088794 0.0066575008
0003d0 3d ab a8 3c 85 57 2e bd af 2a 1b be 9f 52 bd be
       0.020589465 -0.042563934 -0.15153001 -0.36977097
0003e0 00 18 e9 bd 79 0e da bd 32 0b 98 bd 24 7e ee 3c
       -0.11381531 -0.10647292 -0.0742401 0.029112883
0003f0 a8 cd 4e 3d cf 91 2b bc 78 e7 74 be 5e 6e a4 be
       0.050489098 -0.010471775 -0.23916423 -0.32115453

bias f4 [64]
000000 f8 59 8b 3d 28 73 f5 3d 21 d4 90 bd 29 55 fd bc
       0.068042696 0.11984855 -0.070717104 -0.030924397
000010 31 21 d4 3d 6c 01 ba bd 47 8b d8 3d 96 8d 84 3d
       0.10357893 -0.090823025 0.1057344 0.06472318
000020 34 d1 ad 3d 1e 0d 9f bc ca dc cf bd 15 68 27 3d
       0.08487168 -0.019415434 -0.10149534 0.040870745
000030 1b ce 71 3c 74 a3 7f 3e 27 2e 45 bd 6c 9b 8a 3d
       0.014758612 0.24964696 -0.048139717 0.067679256
000040 84 18 9b 3d d7 97 91 3e 04 b1 24 3e 2a 0e 53 3e
       0.07573035 0.28436157 0.16083151 0.20610872
000050 10 e5 2f 3d 50 e7 ad 3e b0 bb 36 3d 0d 88 d9 3d
       0.04294306 0.3396554 0.044612586 0.10621653
000060 d2 54 d3 bd e2 d8 74 3c 68 6f 53 be 17 c6 4a bd
       -0.103189126 0.014944287 -0.20647967 -0.04950532
000070 b8 f6 39 be 8d 71 ee bd c5 d3 91 3e 89 6c 54 3e
       -0.18160522 -0.11642752 0.2848188 0.20744528
000080 5c 80 7d 3e 72 ce cd 3c 5a e5 7a bd f0 27 b2 3e
       0.24755996 0.025122855 -0.061253883 0.34796095
000090 e8 a2 e4 3c e7 bb ae 3e c1 60 79 be e7 8e 64 bc
       0.027909711 0.34127733 -0.24353315 -0.013950086
0000a0 bd f8 09 ba f2 b1 38 3d 5b 57 b3 3e ae ef 44 3e
       -0.00052632 0.045091577 0.35027584 0.19232056
0000b0 09 19 73 bc 0a c2 97 bc 01 ca 5e 3e 98 4a 12 bd
       -0.014837512 -0.018525142 0.21756746 -0.03571567
0000c0 f1 c7 98 3e 96 1a 6d 3e 85 db d8 3d 09 af 02 3e
       0.29840043 0.23154673 0.10588745 0.12762083
0000d0 8f ee c6 3e 0f b4 cb bd a6 cf 21 3e d0 0d b7 bd
       0.3885388 -0.09946453 0.15801868 -0.089381814
0000e0 84 51 af 3e 5a 29 c2 3d 97 13 5e be 6f fa 2c b8
       0.3424188 0.094805434 -0.2168716 -4.124123e-05
0000f0 69 94 04 be 47 a6 02 3e 87 51 3a 3e 50 38 d1 3e
       -0.12947239 0.12758742 0.18195163 0.40863276

weight f4 [32, 64]
000000 9e 0a a1 3c a5 c9 dd bd ef 0a 68 bc 46 bd 94 3c
       0.019658383 -0.10829476 -0.014162763 0.018156659
000010 33 12 ba bd 1b 6b 38 3e b5 09 3d 3e f4 29 09 3e
       -0.090855025 0.18009607 0.18460734 0.1339491
000020 2b 00 e1 bc 0d 21 2b be d0 97 1a bd 7e 05 88 3d
       -0.0274659 -0.16711827 -0.037742436 0.066416726
000030 b3 30 fa 3c b4 93 14 3d e6 33 e8 bb 3e 0d b2 3c
       0.0305408 0.036273673 -0.007086265 0.02173483
000040 12 1c 48 bf b0 35 90 be 62 0e 21 3e a8 7f 50 bf
       -0.7816783 -0.2816596 0.15728143 -0.8144479
000050 80 5c 3f 3d b5 51 bc 3d 1f 59 14 bf c9 ae eb bd
       0.046719074 0.09195272 -0.5794849 -0.11507947
000060 93 45 23 3e 27 7d 46 bc bb d3 ae be 39 2a 98 bd
       0.15944509 -0.0121148 -0.34145913 -0.07429928
000070 d1 fb f7 bd 0f 4b 51 be 2f 71 8b 3d 0f b6 26 3e
       -0.12108577 -0.20438789 0.068086974 0.16280387
000080 3b 6b 82 bd 7b 23 0f 3d 7e 1e 28 bd 4b cc b2 3d
       -0.06368109 0.034945946 -0.041044705 0.08730372
000090 e4 c1 04 3e fa 4e 33 3d ae b1 e9 3d 9d 15 89 3c
       0.12964588 0.04377649 0.11410843 0.016733939
0000a0 94 4b 78 3c 1e 5b 8c 3e 06 01 3b 3b bc 24 17 bf
       0.015154738 0.27413267 0.0028534546 -0.5904043
0000b0 24 4f 81 3b a1 67 08 3d 74 59 36 be d1 7d 8a 3c
       0.003946202 0.033301953 -0.17807561 0.016905697
0000c0 b6 79 c6 be d4 31 67 3d c2 0c c7 bd 34 7c 33 3d
       -0.38764733 0.056444004 -0.0971923 0.04381962
0000d0 09 70 f2 bc 6a 41 77 3e 4a 9c 6b 3c 9c f2 8a bd
       -0.029594438 0.24146047 0.014380524 -0.06784555
0000e0 66 69 67 bd b8 37 ca 3c 9f bd 1e 3e 64 7d 51 3d
       -0.056497 0.024684772 0.15502022 0.051144972
0000f0 74 2a 0b bd b6 22 b9 bc 4a d2 a4 bd c9 54 22 3d
       -0.033976033 -0.02259956 -0.08047922 0.03963164
000100 6e 7c 02 bd bf bd bc bd ab 3f 91 bc 75 77 78 bd
       -0.031856947 -0.09215879 -0.017730555 -0.060660798
000110 38 a8 da 3d 2b 56 20 3e 83 0c b7 be d2 8b ca 3d
       0.106766164 0.1565787 -0.35751733 0.0988995
000120 30 7f 59 3c 52 12 2f 3e 3a d6 36 3e fb 62 5d 3d
       0.013274953 0.17096832 0.17855158 0.054049473
000130 77 40 4e be 5c 69 4a 3e 7d a8 51 bd f1 8a 52 bb
       -0.20141779 0.19766754 -0.051186074 -0.0032126273
000140 3e 6f 74 bd 0a 77 47 be 56 40 39 3e 1f 49 60 be
       -0.0596764 -0.19479004 0.18090948 -0.21902893
000150 65 d5 20 bd 78 1f 01 3e 7a a0 24 3d fd c7 20 3e
       -0.03926601 0.1260966 0.040192105 0.1570129
000160 d9 6b 2c 3d e4 0a 10 bd e8 09 95 3e 9e ad 03 be
       0.04209504 -0.035166636 0.2910912 -0.12859198
000170 70 23 b3 3d e0 2c 3a 3e 1e 82 08 be 14 74 54 be
       0.087469935 0.18181181 -0.13330886 -0.20747405
000180 1c 91 1a 3e d7 b2 86 bc c5 32 da 3c c8 66 61 39
       0.15094417 -0.0164427 0.026635537 0.00021495961
000190 c2 36 8f 3d 63 78 f8 3d 89 46 a7 3c 3c 02 8b be
       0.06992866 0.12132337 0.020419376 -0.27150142
0001a0 1e a6 0b bc df c7 1d 3e 0e bb f8 3d 8d af 78 3d
       -0.008523492 0.15408276 0.12145053 0.060714293
0001b0 15 a6 c0 3c 35 a8 88 bd 36 11 4b bf e2 be 2e 3d
       0.023516694 -0.06672708 -0.79323137 0.04266251
0001c0 1d 3b 5b 3e 92 01 ee bd f9 90 15 3e 55 4c 16 bf
       0.21409269 -0.11621393 0.14606084 -0.58710223
0001d0 97 c5 21 bc 2b 74 bd bd 89 fb 97 bd ee a5 61 3d
       -0.009873769 -0.09250673 -0.074210234 0.055089884
0001e0 e4 c1 92 bd fd ef db bd 4f 04 c5 3c f3 4b 23 bc
       -0.07165888 -0.107391335 0.024049906 -0.009966838
0001f0 68 bd f5 3c 94 11 0e c0 d9 61 08 c0 3a 50 aa bd
       0.029997543 -2.219823 -2.1309721 -0.08316083
000200 66 5f 7a 3d 8e 24 e3 3c db 77 60 bd f1 ce 2c bd
       0.061126135 0.027727392 -0.054801803 -0.042189542
000210 9d db cb bd f0 e3 17 39 bd f8 57 bd 56 3e ec bc
       -0.09953997 0.00014485396 -0.05272745 -0.028838318
000220 9f 27 3c bc 63 00 a7 bd e0 e3 7b bd 4f a2 49 bd
       -0.011484056 -0.08154371 -0.061496615 -0.049227055
000230 38 dd 15 bd d8 b5 a9 bc 6c 6b 02 bd 73 e3 0f bc
       -0.036587924 -0.020716593 -0.031840727 -0.008782255
000240 29 18 cd bc c2 9b 14 3d 26 88 df bc c5 f2 2e 3d
       -0.025035935 0.036281355 -0.0272866 0.04271199
000250 59 f4 33 bd de 5c d4 bd 49 bd a2 3b 6b ed 4c bd
       -0.0439342 -0.103692755 0.004966412 -0.050031107
000260 cd 0c 9c 3c df e3 18 bd 93 41 5e 3d 6f 90 35 3d
       0.019049073 -0.03732669 0.054261755 0.044327196
000270 fd ff 28 b9 a7 0f d9 bb c9 e6 50 3d 4d f7 2e 3d
       -0.00016117092 -0.0066241804 0.051001344 0.042716313
000280 08 c5 ad bd 5d 1e b2 bb 86 a2 85 bd 8f f1 e7 3c
       -0.08484846 -0.0054357485 -0.065251395 0.028313426
000290 79 8c 91 bc 8b a5 e9 bc 50 9d 04 bd 29 bc 6a bd
       -0.017767178 -0.02852132 -0.032376587 -0.05730835
0002a0 30 48 30 3c b3 5c 5c 3d 4c 26 ae bd 6e 0a fb bc
       0.010759398 0.053799342 -0.08503398 -0.030644622
0002b0 14 4b 7d 3d eb 95 7a 3d d2 4c 1f bd 47 e9 74 3d
       0.06183918 0.06117813 -0.03889162 0.059792783
0002c0 4f 30 0c bd dd ae e2 3c 90 f5 73 bd 2a d2 c3 bd
       -0.03422576 0.027671272 -0.05956036 -0.0956157
0002d0 9b 04 c3 bd 46 44 a0 3c 8d 31 c6 3c e0 bd a6 bd
       -0.09522363 0.019563805 0.02419355 -0.081416845
0002e0 24 58 22 3d 26 88 a6 bd c9 c0 c8 3c cc 3a 75 3d
       0.03963484 -0.08131437 0.02450599 0.059870526
0002f0 0e c9 8d 3c 61 36 1e bd ef ac ad 3c 2d 2b 24 bd
       0.017307784 -0.03862608 0.021200625 -0.040080238
000300 e3 42 4f bd 3a f2 41 bd 25 8f 03 3d 2a b5 55 3d
       -0.050600898 -0.047350146 0.032118935 0.052174725
000310 74 f4 88 3c 33 5e 4d bf 00 bc f7 be 64 2d c3 3d
       0.016718127 -0.8022186 -0.4838562 0.09530142
000320 ea be 53 bc 92 36 10 3d e9 85 13 bd d4 3b 19 bd
       -0.012923935 0.035208292 -0.03601638 -0.037410572
000330 4c 22 bd bc 7c 01 04 3d ca fd af 3b 91 62 21 bd
       -0.023087643 0.032227978 0.00537083 -0.03940064
000340 21 1d 5b be e6 ce e9 3c bc b4 1d 3e 24 78 80 bd
       -0.2139783 0.02854104 0.15400976 -0.06272915
000350 00 66 3f bd b0 68 b5 3d 2c 2e 35 be e3 0a 31 be
       -0.046728134 0.08857858 -0.17693394 -0.17289309
000360 76 9d 55 bf 9f f7 88 3c 92 99 15 be b4 04 ed 3c
       -0.8344339 0.016719637 -0.14609364 0.028932907
000370 3b 54 03 bd 52 c5 0c be 59 8b c0 bb 51 2c bc bc
       -0.03206275 -0.13747147 -0.0058759865 -0.02297035
000380 d5 5e a7 3d cc 26 98 bd e1 a3 26 bd 29 76 2b be
       0.08172385 -0.07429275 -0.04068363 -0.16744293
000390 26 ec 7a bf 3a 66 51 3d 34 11 d0 be 17 59 de be
       -0.98016584 0.05112288 -0.40638125 -0.43427345
0003a0 7a a4 b4 bb 4d ea 9c 3d 8d ce 2f 3e 8a 1c 88 bd
       -0.005512771 0.07661877 0.17168637 -0.066460684
0003b0 cb 7e b5 bc 26 d3 33 bd 4a c3 fc bd 76 b0 91 3b
       -0.022155186 -0.04390254 -0.12341936 0.0044460846
0003c0 30 b2 4b 3e 85 d9 17 3e af 6a 8c 3e 11 d3 c1 3c
       0.19892192 0.14829071 0.27425143 0.023660215
0003d0 f4 b0 d0 3d 38 67 65 be ae f8 9c bb 16 0f a6 bc
       0.10190001 -0.22402656 -0.004790387 -0.020270865
0003e0 3e dd 87 3c 54 cc fd bd b6 df ac bf 10 ba db ba
       0.016584989 -0.12392488 -1.3505771 -0.0016763825
0003f0 3d 94 d7 3c bf 69 f1 bd ba 6a 36 be 4a 83 2d 3c
       0.026315803 -0.117877476 -0.1781415 0.010590384

bias f4 [32]
000000 f2 93 6e 3d 81 da b6 3b e1 34 8c 3c 7b 48 91 3e
       0.05824656 0.005580247 0.017115058 0.2837561
000010 a1 75 c0 3e 68 8e 30 3d 9c 99 89 bd 24 f3 ad 3e
       0.37589744 0.04310456 -0.06718752 0.33974564
000020 1d 12 80 3e c3 73 e0 bc 6c 9a da 3b ac fa f1 3b
       0.2501382 -0.02739895 0.0066712406 0.0073846187
000030 f3 16 53 bc 47 00 1a 3b c6 35 a2 bd 48 70 98 3e
       -0.0128838895 0.00234987 -0.07920413 0.29773164
000040 8e 63 88 3e ee cf 62 3d 74 c9 88 3e f4 63 b2 3d
       0.26638454 0.05537408 0.26716197 0.08710471
000050 a5 6b ab bc fa b0 b5 3b 00 a9 b4 3e 89 38 43 bc
       -0.020925352 0.005544779 0.35285187 -0.0119153345
000060 7c 89 61 3e 45 a5 8b 3e ba c3 9a 3e 43 43 e0 bc
       0.22025102 0.27274528 0.30227453 -0.027375823
000070 6f d0 46 bd 1e fa 4a 3d 19 61 9b 3e 01 80 36 be
       -0.04853862 0.049554937 0.30347517 -0.17822267

weight f4 [2, 32]
000000 82 f9 90 3e c8 36 41 bf 64 ba 34 bc 03 81 32 3f
       0.2831536 -0.75474215 -0.011030767 0.69728106
000010 14 0c 2a 3e f2 f2 0b bc 73 2a 25 3c 97 0e 30 3e
       0.1660617 -0.008541809 0.010080921 0.17193066
000020 2e 57 6d 3e 28 7b 19 3e 14 1e a2 3b ab 9d d6 bf
       0.23177788 0.14988387 0.0049474332 -1.6766866
000030 52 68 7e bb cb 74 f8 bb cc 90 00 3a 29 56 c3 3e
       -0.0038819504 -0.007582282 0.0004904389 0.38151672
000040 29 02 78 3e f6 eb a0 bc ac 98 05 3f 05 06 83 be
       0.24219574 -0.019643765 0.52186084 -0.2559053
000050 03 aa b7 3a ed 79 10 3c 6f 9e fd 3d 08 b3 b4 bc
       0.001401246 0.008818132 0.123837344 -0.022058025
000060 df 42 b8 3e 84 78 19 3e 6c 53 85 3e 56 b9 ea bb
       0.3598852 0.1498738 0.26040208 -0.007163207
000070 58 e8 98 ba bb 50 a1 3e 82 10 ed 3e 9c d7 ef be
       -0.0011665924 0.31506905 0.46301657 -0.46844184
000080 6d 13 df 3b f2 2c 3a bd 94 f1 d4 3b c2 64 b7 be
       0.0068077357 -0.04545302 0.006498525 -0.3581906
000090 a9 78 bc bd 6e 16 2a 3c 40 43 0e 3c 0e 1d b0 bd
       -0.092027016 0.010381324 0.008683026 -0.08599292
0000a0 16 29 23 3d 1e 92 d8 3d 44 28 90 3b ae 8f 5b 3e
       0.039834104 0.10574745 0.0043993313 0.21441528
0000b0 f2 6e 22 3c f9 bd b4 3b bc a0 e2 3b d3 71 bd be
       0.009914147 0.0055158106 0.0069161337 -0.37000903
0000c0 f9 e1 90 be e8 70 0e 3b c0 80 66 bd d4 07 cb bc
       -0.28297403 0.0021734778 -0.05627513 -0.024784006
0000d0 9f 8a 00 bc 46 90 ec 3b 9c 8e cd bd c6 1b 3d bc
       -0.00784555 0.007219347 -0.10036966 -0.011542266
0000e0 eb 8d b7 3e 8c 0d 85 bc f1 bb 1d bc c2 e3 bc bb
       0.35850462 -0.016241811 -0.009627328 -0.0057644555
0000f0 80 44 2f bb 85 45 1a 3f 0b 6e 32 be 38 b1 a2 3e
       -0.002674371 0.6026233 -0.1742479 0.31775832

bias f4 [2]
000000 1b 31 9d 3e 40 a9 8b be
       0.30701527 -0.27277565
