ElegantRL/EntornoObservacionesAccionesMejorado/200ksteps_SAC_0/cri_target.pth (torch, 27573 bytes, 8 tensors)

state_avg f4 [48]
000000 00 00 00 00 00 00 00 00 00 00 00 00 00 00 00 00
       0.0 0.0 0.0 0.0
000010 00 00 00 00 00 00 00 00 00 00 00 00 00 00 00 00
       0.0 0.0 0.0 0.0
000020 00 00 00 00 00 00 00 00 00 00 00 00 00 00 00 00
       0.0 0.0 0.0 0.0
000030 00 00 00 00 00 00 00 00 00 00 00 00 00 00 00 00
       0.0 0.0 0.0 0.0
000040 00 00 00 00 00 00 00 00 00 00 00 00 00 00 00 00
       0.0 0.0 0.0 0.0
000050 00 00 00 00 00 00 00 00 00 00 00 00 00 00 00 00
       0.0 0.0 0.0 0.0
000060 00 00 00 00 00 00 00 00 00 00 00 00 00 00 00 00
       0.0 0.0 0.0 0.0
000070 00 00 00 00 00 00 00 00 00 00 00 00 00 00 00 00
       0.0 0.0 0.0 0.0
000080 00 00 00 00 00 00 00 00 00 00 00 00 00 00 00 00
       0.0 0.0 0.0 0.0
000090 00 00 00 00 00 00 00 00 00 00 00 00 00 00 00 00
       0.0 0.0 0.0 0.0
0000a0 00 00 00 00 00 00 00 00 00 00 00 00 00 00 00 00
       0.0 0.0 0.0 0.0
0000b0 00 00 00 00 00 00 00 00 00 00 00 00 00 00 00 00
       0.0 0.0 0.0 0.0

state_std f4 [48]
000000 00 00 80 3f 00 00 80 3f 00 00 80 3f 00 00 80 3f
       1.0 1.0 1.0 1.0
000010 00 00 80 3f 00 00 80 3f 00 00 80 3f 00 00 80 3f
       1.0 1.0 1.0 1.0
000020 00 00 80 3f 00 00 80 3f 00 00 80 3f 00 00 80 3f
       1.0 1.0 1.0 1.0
000030 00 00 80 3f 00 00 80 3f 00 00 80 3f 00 00 80 3f
       1.0 1.0 1.0 1.0
000040 00 00 80 3f 00 00 80 3f 00 00 80 3f 00 00 80 3f
       1.0 1.0 1.0 1.0
000050 00 00 80 3f 00 00 80 3f 00 00 80 3f 00 00 80 3f
       1.0 1.0 1.0 1.0
000060 00 00 80 3f 00 00 80 3f 00 00 80 3f 00 00 80 3f
       1.0 1.0 1.0 1.0
000070 00 00 80 3f 00 00 80 3f 00 00 80 3f 00 00 80 3f
       1.0 1.0 1.0 1.0
000080 00 00 80 3f 00 00 80 3f 00 00 80 3f 00 00 80 3f
       1.0 1.0 1.0 1.0
000090 00 00 80 3f 00 00 80 3f 00 00 80 3f 00 00 80 3f
       1.0 1.0 1.0 1.0
0000a0 00 00 80 3f 00 00 80 3f 00 00 80 3f 00 00 80 3f
       1.0 1.0 1.0 1.0
0000b0 00 00 80 3f 00 00 80 3f 00 00 80 3f 00 00 80 3f
       1.0 1.0 1.0 1.0

weight f4 [64, 49]
000000 59 b5 68 3e 65 bc f1 3b 63 f9 05 3f 75 2f 87 bd
       0.22725429 0.0073771947 0.5233366 -0.066008486
000010 2b ff c9 3d 27 c7 19 3d ca 85 63 3c 9e 14 42 3d
       0.098631226 0.037543442 0.013886878 0.047382943
000020 00 2c bc 3e c8 aa e7 3a f6 94 08 3f 35 3e b4 bd
       0.3675232 0.0017674798 0.53352296 -0.088009275
000030 44 d8 07 3e 9e b2 51 3d 0e d3 a2 bd 46 d6 10 bd
       0.13266093 0.051195733 -0.07950412 -0.035360597
000040 ba 2b 96 3e cf 6c 70 3b 3e 3b 0b 3f e0 4a ac bc
       0.29330236 0.0036685949 0.5438727 -0.021031797
000050 66 ec 05 3e 21 33 0a bd 8e 55 af bd df ae 60 bd
       0.1307846 -0.033740167 -0.0856124 -0.05485427
000060 d7 26 4a 3e d4 ee 76 3c ef 7c 06 3f 5a e9 2d 3d
       0.19741379 0.0150715895 0.52534384 0.04245887
000070 d4 fb d8 3d 64 13 aa bd b0 a1 ef bd 61 12 7f 3d
       0.105949074 -0.0830448 -0.11700761 0.062273387
000080 29 aa c2 3e ac 78 c8 ba 11 3b 07 3f 6a 74 3a 3e
       0.38020447 -0.0015294752 0.52824503 0.18208471
000090 ad 6d 17 3e 59 b0 a4 bd 44 3d 8c bd fa 3a 91 3d
       0.14787932 -0.08041448 -0.06847623 0.07091327
0000a0 2d 3f 06 bd 24 93 74 3c f8 ce 08 3f f0 60 92 be
       -0.032775093 0.014927659 0.5344081 -0.28589582
0000b0 0e 90 c1 3c 67 4c 31 3e b6 b7 1b be 83 eb 11 bc
       0.023628261 0.17314301 -0.15206799 -0.008906248
0000c0 2e 9f e2 3d db af 51 3e b2 88 65 3c 86 d2 06 3f
       0.11065517 0.2047724 0.0140096415 0.52664983
0000d0 23 80 8a bd a5 6d ad 3d 6b 05 a9 3b 80 3f f7 3c
       -0.067627214 0.08468179 0.0051581166 0.030181646
0000e0 26 f7 6d bb 0f b9 b6 3e 4e 2d 0c bb 60 56 07 3f
       -0.0036310642 0.35688064 -0.0021389308 0.5286617
0000f0 4b c0 c8 bd 29 1a ec 3d 3b 70 ee 3c f6 89 30 bd
       -0.09802302 0.11528427 0.02910625 -0.04310032
000100 e2 fe 3e bd 01 e2 87 3e a1 a1 a7 3c 5d 02 07 3f
       -0.046629794 0.26539615 0.020462813 0.5273798
000110 5e 36 52 bc d3 6f 06 3e 7b 66 d2 bc c8 02 40 bd
       -0.012830345 0.13128595 -0.025683632 -0.046877652
000120 ed 4c ac bd 67 f3 3d 3e 82 d2 86 3c 03 b3 05 3f
       -0.0841311 0.18549882 0.0164578 0.52226275
000130 6f ae 64 3d 4b 3a ca 3d db f9 ad bd 6d fa e3 bd
       0.055830415 0.098744 -0.08494922 -0.11131749
000140 2a cc 5e 3d 82 f3 bd 3e cb 17 13 3c f2 dc 08 3f
       0.054393925 0.37099844 0.008977841 0.53462136
000150 84 55 48 3e ee 2e 14 3e 44 9b 71 bd 79 63 c9 bd
       0.19563872 0.14471027 -0.058985963 -0.09833426
000160 32 b2 74 3d 86 11 60 bd 0d c5 3a 3c 89 0b 06 3f
       0.059740253 -0.05470421 0.01139952 0.5236135
000170 14 ee 96 be fa f8 d0 3c 44 b9 4f 3e 28 c5 2d be
       -0.29478514 0.025509346 0.20285517 -0.1696974
000180 19 20 a1 bb 3d 54 5d 3d aa ec 74 3e 6b 18 77 bc
       -0.0049171564 0.054035414 0.23918405 -0.015081505
000190 3a 0a 0b 3f 51 63 1e bd 7d 0d ab 3d 06 82 12 3d
       0.5431248 -0.038668934 0.08352182 0.03576853
0001a0 cc 12 fa 3b be 82 45 3d b1 2f b7 3e 58 34 dd 3a
       0.0076316353 0.04822039 0.35778573 0.0016876562
0001b0 a2 3b 0c 3f 26 2b c2 bd 66 f8 00 3e dd b6 13 3d
       0.5477849 -0.09480886 0.12594756 0.036063064
0001c0 ea 01 e6 bd d4 b0 81 3b 9c c0 95 3e 0b c4 e1 bb
       -0.11230834 0.003957847 0.29248512 -0.006889825
0001d0 da c5 07 3f 0c 36 14 bd a2 74 03 3e 33 fe 13 bd
       0.5303627 -0.036184356 0.1283746 -0.036131095
0001e0 2d c5 cd bd 8b c5 5c bd 43 21 41 3e d0 0c 53 bb
       -0.10047374 -0.05389933 0.18860345 -0.0032203682
0001f0 46 c3 0b 3f 72 c6 23 3d 39 1f 9c 3d 2e 4b af bd
       0.5459484 0.039984174 0.07623143 -0.08559261
000200 6b d1 04 be 4a 69 7e 3d d2 68 c6 3e 0b fe 04 3b
       -0.12970512 0.06211213 0.38751847 0.0020293023
000210 12 e3 0b 3f e5 1d 20 3e b2 e2 0b 3e f1 82 bd bd
       0.54643357 0.15636404 0.13660696 -0.09253491
000220 29 43 8b bd c5 d1 7a 3d b6 89 4a bd e6 c9 53 bc
       -0.06799919 0.061235208 -0.049447738 -0.012926554
000230 c7 52 08 3f 02 e7 93 be a3 74 fc 3c 26 dc 24 3e
       0.5325131 -0.28887182 0.030817335 0.16099605
000240 88 c1 1f be cb cf db 3a a6 95 10 3e d8 a6 1b 3e
       -0.1560117 0.0016770301 0.14119586 0.15200365
000250 43 e9 46 3c ad 7d 02 3f 52 fe a3 bd 81 ef 97 3d
       0.012140575 0.50973016 -0.08007492 0.074187286
000260 d2 7c a0 bc eb 30 94 3d a3 83 96 bd 84 91 a6 3e
       -0.019590769 0.07235893 -0.073493265 0.32532895
000270 82 b7 c5 3c 9d bb fe 3e 15 5a fe bd 07 b5 fc 3d
       0.024135355 0.49752513 -0.124195255 0.12339216
000280 67 68 34 bc c4 5d 81 39 32 81 f3 bd 0c e5 65 3e
       -0.01101122 0.00024674658 -0.118898764 0.22450656
000290 20 ec 12 3c 2d 0f 05 3f 73 e9 28 bc e9 6e ef 3d
       0.008967429 0.5197628 -0.010309565 0.11691076
0002a0 13 3c b1 bb f7 c5 5c bc 34 28 d8 bd 6f d6 05 3e
       -0.0054087727 -0.013474933 -0.10554543 0.13070081
0002b0 d2 54 1e 3a ae 1b 01 3f 84 f6 98 3d 6c 4b cf 3d
       0.0006039861 0.5043286 0.07468894 0.101218075
0002c0 4f 1d 8b bd 1c 41 c2 bd ba 67 1b 3d ec cf b1 3e
       -0.067926995 -0.09485075 0.03794072 0.34728944
0002d0 0c 46 a7 3c 13 a8 fe 3e 42 f8 4b 3e df a6 22 3e
       0.020419143 0.49737605 0.19918922 0.15883969
0002e0 da 12 81 bd de 37 eb bd 8c 88 75 3c 8f f7 d2 bd
       -0.06302424 -0.11485265 0.014986169 -0.10301124
0002f0 c3 62 8b 3c 03 f7 00 3f 42 7a 90 be 4c 52 20 3d
       0.017014867 0.5037691 -0.28218275 0.039140984
000300 dd 3a 80 3e dd 18 3f be 6d 07 7a bd 6d cc 82 bb
       0.2504491 -0.18661828 -0.061042238 -0.0039916546
000310 d8 50 68 3e 65 e0 35 3c 3c db 09 3f 5a 4d 93 bd
       0.2268709 0.011100863 0.5385015 -0.07192488
000320 51 f9 d1 3d 0c 3e 46 3c 4e 04 a7 3c b0 fe 62 3c
       0.102526315 0.012099754 0.020387795 0.013854668
000330 e0 bb bb 3e 1e 4f 89 3b c4 1d 07 3f e7 c0 d4 bd
       0.36666775 0.0041903397 0.52779794 -0.10388356
000340 48 a9 f8 3d df 5e 06 3d 33 05 5e bd 1d 92 2f bd
       0.12141663 0.03280532 -0.054204177 -0.042863954
000350 aa f8 89 3e 39 5a 1c 3c 0b 23 05 3f 08 88 fc bc
       0.26947528 0.009542995 0.52006596 -0.030826584
000360 a7 bc 02 3e 2a fb fd bc 43 d9 51 bd 06 2e 8b bd
       0.12767278 -0.031003553 -0.051232588 -0.06795888
000370 d2 dd 3b 3e 13 12 02 3c 66 a5 0a 3f e8 98 81 3d
       0.18346336 0.00793888 0.5415863 0.06327993
000380 0a 64 ce 3d 97 5b 9a bd fb 97 01 be 34 eb 5d 3d
       0.10077675 -0.075370006 -0.12655632 0.054179385
000390 ae 91 bb 3e 10 fc 6c 3c f1 4b 05 3f 83 f3 3b 3e
       0.36634582 0.014464393 0.52069 0.18354611
0003a0 8c db 27 3e cb 7b 85 bd 5d 3b 8f bd 1b 39 77 3d
       0.16392344 -0.06517752 -0.069937445 0.060357194
0003b0 41 33 4c bd ba aa 49 3c 34 2b 0a 3f fa 75 91 be
       -0.049853567 0.012308771 0.5397217 -0.2841032
0003c0 79 80 0a 3d d2 67 40 3e 0d 2e 2a be 74 9c 78 bc
       0.033813927 0.18789604 -0.1661913 -0.01517402
0003d0 a6 99 a7 3d bd 06 45 3e fd 4d 68 3c 86 33 09 3f
       0.08183603 0.19240852 0.01417875 0.53594244
0003e0 44 b9 78 bd 6c 90 a4 3d 25 3e ba 3a 00 9a 66 3d
       -0.060723558 0.08035359 0.0014209194 0.05629921
0003f0 10 fc bf bc 91 3e b3 3e 21 f3 1c 3b f3 75 03 3f
       -0.023435622 0.35008672 0.0023948627 0.5135185

bias f4 [64]
000000 eb be 31 3f 44 ff 31 3f f8 04 31 3f db 13 34 3f
       0.6943194 0.6953013 0.69148207 0.703428
000010 f1 31 30 3f f4 ba 34 3f 69 f1 08 bc e6 dc 95 bb
       0.68826205 0.7059777 -0.008358338 -0.0045734523
000020 70 db 33 3f ba b3 13 3f d7 66 30 3f 93 48 2f 3f
       0.7025671 0.57696116 0.6890692 0.68470114
000030 27 bf 32 3f 3d f4 33 3f 32 53 6a be 2e 39 30 3f
       0.69822925 0.70294553 -0.22883299 0.6883725
000040 f4 4a 1f bc 47 6b 0b 3e c4 fb 2e 3f c9 95 30 3f
       -0.00972246 0.13615142 0.68352914 0.68978554
000050 9f 91 2f 3f bd 5e 34 3f e4 f5 30 3f e8 c1 0f 3f
       0.68581575 0.7045706 0.691252 0.5615525
000060 e6 3e 26 bf ea c8 32 3f 17 5d 2f 3f c3 47 35 3f
       -0.64939725 0.6983782 0.6850142 0.70812625
000070 d4 35 2e 3f 68 6b 31 3f 0b e3 fa bb 8e 83 2e 3f
       0.68050885 0.69304514 -0.00765646 0.68169487
000080 ec 9d 9f 3e 17 3e 34 3f c4 2e 32 3f 66 35 b8 3e
       0.31175172 0.7040724 0.6960261 0.3597824
000090 15 11 22 3e 53 c5 33 3f c5 a9 30 3f af 13 7a 3f
       0.15826829 0.7022297 0.6900905 0.97686285
0000a0 b0 b9 32 3f 98 b9 33 3f 20 b4 0a bf f8 ca 2b bb
       0.69814587 0.7020507 -0.541811 -0.0026213508
0000b0 1b df b7 3e 4e bb 2e 3f d8 8e 58 ba ef 31 35 3f
       0.35912403 0.68254554 -0.00082610315 0.7077932
0000c0 ea 6f 2d 3f 3c 79 34 3f 5b 4e 34 3f d4 24 40 bc
       0.6774889 0.7049749 0.7043206 -0.0117275305
0000d0 23 7b 33 3f cb 46 32 3f 84 40 33 3f 57 0a 33 3f
       0.70109767 0.6963927 0.7002032 0.6993765
0000e0 60 7d 33 3f 6c a8 31 3f 2e 89 db 3e c0 85 65 bc
       0.7011318 0.69397616 0.42878097 -0.014008939
0000f0 e8 08 2d 3f 0c 16 33 3f cc 4e 39 bd 80 ba 30 3f
       0.67591715 0.69955516 -0.045241162 0.69034576

weight f4 [32, 64]
000000 b9 fb b4 3e d4 30 c7 3e e3 61 ab 3e 6e e6 cf 3e
       0.353483 0.3890444 0.3347312 0.4060549
000010 7d d7 ba 3e 45 bf ce 3e f4 88 0e bc 3a 56 c1 3b
       0.3649253 0.40380302 -0.008699644 0.0059001716
000020 03 ff ae 3e 91 ac 0d 40 f1 64 b6 3e 5d c5 ce 3e
       0.34178934 2.2136576 0.35623887 0.4038495
000030 4f 94 c6 3e d7 13 dc 3e 88 28 b0 bf bb 58 b0 3e
       0.38785025 0.42983887 -1.3762369 0.34442696
000040 9a 4c 58 3b 08 b0 de 40 db 82 a9 3e bf 68 c2 3e
       0.0033004642 6.958988 0.33107647 0.3797054
000050 82 a3 bc 3e c3 37 ce 3e 9a c6 db 3e d1 4c 08 40
       0.36843497 0.40276918 0.42924958 2.1296885
000060 86 6e ee c0 7a 06 df 3e e0 9d b9 3e 20 be f4 3e
       -7.4509916 0.4355963 0.36253262 0.47801304
000070 97 1a cb 3e e6 54 ec 3e 36 04 e7 ba 1d 36 c8 3e
       0.39668724 0.46158522 -0.0017625156 0.39103785
000080 c2 c6 4b 41 62 17 bd 3e de b3 ae 3e 9a 68 d4 3f
       12.736025 0.36931902 0.34121603 1.6594422
000090 2f f8 13 c0 dd 05 b7 3e 23 ce b8 3e 8c 53 3d 40
       -2.312023 0.3574666 0.3609477 2.9582243
0000a0 09 32 c9 3e ce 72 cd 3e b7 9b 8e bf 2c 18 90 bb
       0.39295986 0.40126652 -1.114127 -0.0043974128
0000b0 af 4a a9 40 42 65 b0 3e 77 42 a8 3b e5 f4 de 3e
       5.2903666 0.34452254 0.0051348764 0.43546215
0000c0 62 42 9a 3e d6 cf bc 3e 3d 9b d5 3e 28 60 45 3c
       0.3012877 0.36877316 0.4172 0.012046851
0000d0 14 f8 bb 3e 12 7c c0 3e 61 20 c7 3e da 3f c6 3e
       0.36712706 0.37594658 0.3889189 0.3872059
0000e0 ea cb ca 3e 16 9f b5 3e a1 3b fe 3f 3c 65 84 bb
       0.396087 0.35472935 1.9861947 -0.0040403884
0000f0 3e 22 a7 3e 90 bb bd 3e 2c a6 9e bf 9b fa bb 3e
       0.32643312 0.3705716 -1.2394462 0.36714634
000100 ee 73 c4 bb 9f 98 7e bc 4d ab 3b bb 43 cb 36 ba
       -0.005995265 -0.015539317 -0.0028636039 -0.00069730374
000110 3c fa 2c 3b 81 67 aa bb bd 81 11 3a 55 74 34 3c
       0.0026394268 -0.005200327 0.00055506435 0.011014064
000120 80 98 86 bb 10 c2 b0 3b df 92 e6 3b 71 6b bd 3b
       -0.004107535 0.005394228 0.0070365514 0.0057806303
000130 e9 6c a6 3a 2b e9 3e 3b d1 4c dc 3b da d9 ac bb
       0.0012697253 0.0029130678 0.0067230244 -0.0052749934
000140 fd 37 17 3c 5b ba fd bb 23 83 f7 bb ed c8 ee 3a
       0.009229657 -0.0077431626 -0.0075534745 0.001821784
000150 6f eb 36 bc b0 d8 14 bc 3c 5c 6e bb 16 4a 60 bb
       -0.01116453 -0.009084865 -0.0036370894 -0.0034223846
000160 df 88 81 39 de 8f af bb 04 bb c3 b9 3e ef f1 3b
       0.00024706774 -0.0053577265 -0.00037332636 0.007383256
000170 78 97 07 bc 82 55 08 3b cf a7 38 3b b5 14 88 3b
       -0.008275859 0.002080292 0.0028176194 0.004152859
000180 c9 ca d0 3b 8e e1 ac bb 97 cc c4 bb 53 99 fc bb
       0.00637183 -0.0052759117 -0.0060058343 -0.0077087074
000190 50 be e3 bb 6b bf 17 bc 50 b6 d7 bb 86 4a 82 3b
       -0.0069501773 -0.009261946 -0.0065830126 0.003976169
0001a0 b0 fe 30 ba 7b be 1e bc 97 7f 47 3b 36 b8 a1 38
       -0.00067518186 -0.009688969 0.003044104 7.71139e-05
0001b0 97 39 ab ba 43 d9 c8 3a 02 63 e3 bb 92 53 b5 bb
       -0.0013063428 0.0015323538 -0.006939293 -0.005533644
0001c0 a0 9b 8d 3b ca bc 50 3b 00 78 34 3b 40 88 4a bb
       0.0043215305 0.0031850808 0.0027537346 -0.0030903965
0001d0 0e 49 48 bb 24 24 59 3b 9d 91 33 bb 23 c3 f3 3a
       -0.0030561122 0.0033133114 -0.0027400025 0.0018597584
0001e0 ff c1 97 3a 93 11 79 3a 50 ac 1f 3b 78 df 07 bc
       0.0011578201 0.0009501215 0.002436418 -0.008293025
0001f0 0e b8 69 bc e2 cc 80 bc 8c c5 af 3b c3 5a 34 bc
       -0.014265073 -0.015722696 0.0053641256 -0.011007967
000200 0f 4f 31 bc a2 27 d6 ba 1a db e9 bb 84 bc df 3a
       -0.010822072 -0.0016338716 -0.0071367146 0.0017069732
000210 c0 24 b2 bb 0c 02 c7 3b 9f b8 32 bc 8b c0 39 bc
       -0.00543651 0.006073242 -0.010908275 -0.01133741
000220 64 bc 03 3c e3 fe 2f bc f8 2a d0 3a 54 92 d1 39
       0.008040521 -0.010741922 0.0015881946 0.0003997261
000230 4c 6b c2 b8 24 b4 0d bc 6c bc 7c 3b 74 c8 1c bc
       -9.2706265e-05 -0.008648906 0.0038564457 -0.009569276
000240 a0 01 1f 3c b9 e7 fe ba ca 0c 03 3c 2c 51 d0 3b
       0.009704977 -0.0019447721 0.007998655 0.0063573327
000250 38 8a 0f b9 4e 33 e9 3a 31 89 99 3b eb b9 73 bc
       -0.00013689033 0.0017791779 0.004685544 -0.014875869
000260 f8 02 09 3c 42 7b ba bb 34 a8 0d 3c 1d 9f 87 bb
       0.008362524 -0.005690963 0.00864606 -0.004138841
000270 84 d6 52 3b 06 ee 9c 3b ac 40 0f 3b dd 24 18 bb
       0.0032171318 0.004789117 0.0021858616 -0.0023215332
000280 f6 a7 9b 3b 47 a8 6e bc 4e 12 27 bb 4b b8 1b bc
       0.004750247 -0.014566488 -0.0025493088 -0.009504388
000290 09 10 16 bc d7 7c 36 bb d5 6f 02 3b bc da eb bc
       -0.0091590965 -0.0027845406 0.0019903083 -0.028790824
0002a0 1c 06 01 3c ce 93 a5 3b 7a ff 28 3c 83 83 b3 bb
       0.007874992 0.00505302 0.010314817 -0.005478324
0002b0 d1 5e 7c bc 9f 10 b6 3b ef d0 2a 3c fa e2 1e bc
       -0.015403465 0.0055561806 0.01042579 -0.00969767
0002c0 76 4a 32 bc 9b ef 93 bb 88 af 05 3c d5 f9 18 bb
       -0.010882011 -0.004514647 0.008159526 -0.002334227
0002d0 28 67 4c bc 18 f1 ad bb 30 82 0b bc 2c 30 08 3c
       -0.012475766 -0.0053082816 -0.008514926 0.008312266
0002e0 03 e5 18 bc 97 48 fc 3b 70 d7 a0 3a 1b cb b8 ba
       -0.009331944 0.007699083 0.0012271237 -0.0014098616
0002f0 b2 92 60 bb 86 47 a7 3b 50 60 4e 3c 2b 10 dd bb
       -0.0034267125 0.005104962 0.012596205 -0.006746312
000300 24 f1 06 3c 27 bd e7 bb 72 91 ea b9 3b 77 f5 3b
       0.008236203 -0.0070721093 -0.00044740323 0.00749102
000310 9d 0c 35 bc 86 a4 59 39 78 4b a7 39 42 92 d2 bb
       -0.0110503705 0.00020756022 0.0003190895 -0.0064261267
000320 1b 3e f5 3b c4 94 d5 3b c2 32 31 bb 40 cc 67 bb
       0.00748421 0.0065179784 -0.002703831 -0.0035369545
000330 98 b8 b3 3b b4 9f bf bb cf 29 a0 3b 67 b6 1a bc
       0.005484652 -0.0058478955 0.0048877965 -0.009442902
000340 9d d5 1a bc e8 15 d3 3b bb e6 d1 3b 82 f3 2d bc
       -0.009450343 0.0064418204 0.006405679 -0.010617139
000350 a2 ca a7 bb 8f aa 44 3b 0c f4 87 3b 36 f1 a4 3b
       -0.0051205913 0.0030008887 0.0041489657 0.0050336374
000360 0c 50 04 3c 1a b6 e7 bb 8f 3d 37 3a 53 20 00 3c
       0.008075725 -0.0070712687 0.0006990069 0.007820207
000370 b2 86 3a bc cc 6b b4 3b 60 c1 3e 3b 2e 15 a4 ba
       -0.011384653 0.0055060145 0.002910696 -0.0012518519
000380 e1 27 30 3c 43 de dd bb cf 40 9e bb fe 92 24 bc
       0.010751695 -0.0067708804 -0.004829503 -0.010044811
000390 20 81 09 3c 1b 44 28 bc b0 2f 0d 3c b4 c2 30 bc
       0.008392602 -0.010270144 0.008617327 -0.010788608
0003a0 77 0c ab 3b 32 4b 00 bc b0 2b 0e 3c 18 00 03 bc
       0.005219992 -0.007830428 0.008677408 -0.007995628
0003b0 69 40 01 bc ce d0 a1 bb 7f 88 17 bc 7a e2 12 3c
       -0.007888892 -0.0049382215 -0.009248852 0.008965129
0003c0 4a e4 2b 3b 78 97 0c bc 68 9c 2c bc 1a cd 89 bb
       0.00262286 -0.008581035 -0.010535337 -0.004205358
0003d0 e4 45 c3 b8 de 63 e3 bb 46 da a3 3b 4e 75 ee bb
       -9.311343e-05 -0.0069393953 0.0050003855 -0.0072771674
0003e0 ae a8 cf 3a 50 ca d7 3b 55 29 1f bc 2a 7a 15 bc
       0.0015843117 0.006585397 -0.009714444 -0.009123364
0003f0 33 8f 4f bc 79 d2 68 39 2e d1 00 3c 75 41 18 bc
       -0.012668419 0.00022203651 0.007862372 -0.00929295

bias f4 [32]
000000 e0 8e 31 3f 30 40 ec 3a b1 5f cf bb 60 f7 cc bb
       0.69358635 0.00180245 -0.006328546 -0.0062550753
000010 07 75 36 3f 51 16 34 3f 66 c8 61 3a 13 cc fa bb
       0.7127232 0.7034655 0.00086129305 -0.007653722
000020 46 c2 a3 bb d6 fb 30 3f 97 39 32 3f f1 38 36 3f
       -0.0049975244 0.6913427 0.69619125 0.71180636
000030 0d 94 0c bc 1c a7 99 3b 25 84 36 3f a3 e8 a6 3b
       -0.00858022 0.0046891104 0.71295387 0.0050936504
000040 18 34 0a 3c 33 49 01 3c df 15 9b 3b 79 54 21 bb
       0.008435272 0.007890987 0.004732832 -0.0024617
000050 5b b6 73 bb 65 fb 33 bc cb b4 15 3b f6 09 34 3f
       -0.003718755 -0.01098523 0.0022843357 0.703277
000060 16 5e ec 3a 00 70 c3 3e b7 15 36 3f 60 c8 34 3f
       0.0018033411 0.38171387 0.71126884 0.7061825
000070 80 50 36 3f f7 2c 38 3f c2 33 8c 3a d7 a2 35 3f
       0.71216583 0.7194361 0.0010696577 0.709516

weight f4 [2, 32]
000000 4f fc 84 40 72 fb e1 bb a2 20 8c bc a9 db 48 bc
       4.1557994 -0.0068964297 -0.017105404 -0.012259402
000010 34 27 85 40 92 3b 84 40 4c 11 87 ba 52 98 69 3b
       4.1610355 4.132272 -0.0010304837 0.0035643768
000020 16 ea a2 bb 16 3e 85 40 d8 7e 85 40 72 7c 85 40
       -0.004971753 4.163829 4.171734 4.171441
000030 d8 cf 67 ba 06 86 49 bc 85 74 85 40 ba 12 6f bb
       -0.0008842922 -0.01230002 4.1704736 -0.0036479668
000040 7d 4b 80 bb 60 0a 4e bc cf 83 38 3c e0 d7 4b 3c
       -0.003915249 -0.012575716 0.011261894 0.012441605
000050 ae 25 6a 3b 4a 4d b3 3b 53 03 76 3b 13 81 87 40
       0.0035728025 0.00547186 0.0037538602 4.234506
000060 bf 67 4f bc 70 4e 3b 41 74 4c 86 40 05 4a 84 40
       -0.012659012 11.70665 4.1968327 4.1340356
000070 fe 75 85 40 31 0f 84 40 7e 76 95 bb 97 f4 85 40
       4.1706533 4.1268544 -0.0045612445 4.186107
000080 90 cd 84 40 69 ea 96 bb c3 9c 95 bc aa 30 f4 3a
       4.150093 -0.0046055806 -0.018263226 0.0018630226
000090 50 24 85 40 92 62 84 40 c4 11 2a bc 4a 6c 33 bb
       4.1606827 4.1370325 -0.010380212 -0.0027377778
0000a0 85 90 96 3b 4b 76 85 40 44 cd 85 40 f5 33 85 40
       0.004594865 4.17069 4.181307 4.1625924
0000b0 ab bf c5 3b 72 54 07 bc 0f 06 85 40 15 96 a7 bb
       0.0060348115 -0.008259879 4.1569896 -0.0051143267
0000c0 66 6f ae ba ad e1 e7 bb a4 4b 56 bc 24 5c 58 bc
       -0.0013308346 -0.007076463 -0.013079558 -0.013205562
0000d0 de 67 c1 bb 11 b8 9e 3a 56 1e a6 bc 81 f1 86 40
       -0.0059022745 0.00121093 -0.020278137 4.2169805
0000e0 fc a1 8d 3b c6 4e 3b 41 06 b8 86 40 fa 4b 84 40
       0.0043222886 11.706732 4.209964 4.1342745
0000f0 0f a8 85 40 f7 98 84 40 1b bf e7 3a c1 96 85 40
       4.176765 4.1436725 0.0017680855 4.1746526

bias f4 [2]
000000 64 a8 32 3f f7 e4 2e 3f
       0.69788194 0.6831812
