ElegantRL/EntornoObservacionesAccionesMejorado/200ksteps_A2C_0/act_target.pth (torch, 26934 bytes, 7 tensors)

state_avg f4 [48]
0	0x00000000	0.0
1	0x00000000	0.0
2	0x00000000	0.0
3	0x00000000	0.0
4	0x00000000	0.0
5	0x00000000	0.0
6	0x00000000	0.0
7	0x00000000	0.0
8	0x00000000	0.0
9	0x00000000	0.0
10	0x00000000	0.0
11	0x00000000	0.0
12	0x00000000	0.0
13	0x00000000	0.0
14	0x00000000	0.0
15	0x00000000	0.0
16	0x00000000	0.0
17	0x00000000	0.0
18	0x00000000	0.0
19	0x00000000	0.0
20	0x00000000	0.0
21	0x00000000	0.0
22	0x00000000	0.0
23	0x00000000	0.0
24	0x00000000	0.0
25	0x00000000	0.0
26	0x00000000	0.0
27	0x00000000	0.0
28	0x00000000	0.0
29	0x00000000	0.0
30	0x00000000	0.0
31	0x00000000	0.0
32	0x00000000	0.0
33	0x00000000	0.0
34	0x00000000	0.0
35	0x00000000	0.0
36	0x00000000	0.0
37	0x00000000	0.0
38	0x00000000	0.0
39	0x00000000	0.0
40	0x00000000	0.0
41	0x00000000	0.0
42	0x00000000	0.0
43	0x00000000	0.0
44	0x00000000	0.0
45	0x00000000	0.0
46	0x00000000	0.0
47	0x00000000	0.0

state_std f4 [48]
0	0x3f800000	1.0
1	0x3f800000	1.0
2	0x3f800000	1.0
3	0x3f800000	1.0
4	0x3f800000	1.0
5	0x3f800000	1.0
6	0x3f800000	1.0
7	0x3f800000	1.0
8	0x3f800000	1.0
9	0x3f800000	1.0
10	0x3f800000	1.0
11	0x3f800000	1.0
12	0x3f800000	1.0
13	0x3f800000	1.0
14	0x3f800000	1.0
15	0x3f800000	1.0
16	0x3f800000	1.0
17	0x3f800000	1.0
18	0x3f800000	1.0
19	0x3f800000	1.0
20	0x3f800000	1.0
21	0x3f800000	1.0
22	0x3f800000	1.0
23	0x3f800000	1.0
24	0x3f800000	1.0
25	0x3f800000	1.0
26	0x3f800000	1.0
27	0x3f800000	1.0
28	0x3f800000	1.0
29	0x3f800000	1.0
30	0x3f800000	1.0
31	0x3f800000	1.0
32	0x3f800000	1.0
33	0x3f800000	1.0
34	0x3f800000	1.0
35	0x3f800000	1.0
36	0x3f800000	1.0
37	0x3f800000	1.0
38	0x3f800000	1.0
39	0x3f800000	1.0
40	0x3f800000	1.0
41	0x3f800000	1.0
42	0x3f800000	1.0
43	0x3f800000	1.0
44	0x3f800000	1.0
45	0x3f800000	1.0
46	0x3f800000	1.0
47	0x3f800000	1.0

weight f4 [64, 48]
0	0x409deeb0	4.9353867
1	0x4029a85a	2.6509004
2	0x3d81b8ec	0.06334099
3	0x3fe0cdf1	1.7562848
4	0x401156c8	2.2709217
5	0x3fa95307	1.3228463
6	0x3cf9da71	0.030499669
7	0x407280b7	3.7891061
8	0x409d72e4	4.9202747
9	0x4027539b	2.6144779
10	0x3e084838	0.133088
11	0x3fe2694a	1.7688382
12	0x400936bd	2.143966
13	0x3f959f25	1.1689192
14	0xbe2debc3	-0.16984467
15	0x40662f29	3.5966284
16	0x409f84a8	4.9849434
17	0x402a3386	2.6593947
18	0x3da9878d	0.082778074
19	0x3fddebc2	1.7337573
20	0x4011fbcf	2.2809942
21	0x3fb5a4f2	1.4190962
22	0xbe6c72df	-0.23090695
23	0x4069ab35	3.6510746
24	0x409d14b4	4.908777
25	0x4025f76c	2.5932264
26	0x3e96f3ff	0.2948303
27	0x3fdb4337	1.7129887
28	0x4008058f	2.1253393
29	0x3fb1075b	1.383037
30	0xbeb3f18e	-0.3514523
31	0x406ac206	3.6680923
32	0x409b20a3	4.847734
33	0x40211d37	2.5174081
34	0x3da3dd26	0.08001165
35	0x3fe7c785	1.8107764
36	0x4008539a	2.1301026
37	0x3fdc2049	1.7197353
38	0xbe9b3483	-0.303135
39	0x406ad527	3.6692598
40	0x409e3fd6	4.9452925
41	0x4020aa60	2.5103989
42	0x3e48f3e2	0.19624284
43	0x3fffd9c8	1.9988337
44	0x4009292b	2.1431377
45	0x3fef4793	1.8693718
46	0xbe36f820	-0.1786809
47	0x40738004	3.8046885
48	0x40829fa6	4.0819883
49	0x40499bf7	3.1501443
50	0x3e413153	0.18866472
51	0x40304467	2.754175
52	0x403c9390	2.9465065
53	0x400139d4	2.0191545
54	0x3f45698b	0.7711417
55	0x4079dc70	3.9040794
56	0x408555db	4.1667304
57	0x404345da	3.0511384
58	0x3c26a2d5	0.010170658
59	0x4020434d	2.5041077
60	0x4039c602	2.9027104
61	0x4001d050	2.0283394
62	0x3ef12ea9	0.4710591
63	0x407daead	3.9637864
64	0x4086d926	4.2140074
65	0x4048d63e	3.1380763
66	0x3ddd6e4c	0.10812053
67	0x40262ace	2.5963626
68	0x40385aba	2.8805375
69	0x400947a9	2.1449988
70	0x3eb62c7e	0.3558082
71	0x40763172	3.846768
72	0x40863318	4.193737
73	0x40510526	3.2659392
74	0x3e60d5f5	0.21956618
75	0x402e79aa	2.7261758
76	0x40330db6	2.7977118
77	0x3fff2557	1.993327
78	0x3ecb26d4	0.3967806
79	0x40744897	3.8169305
80	0x408080bd	4.015715
81	0x405188e7	3.2739809
82	0x3e51c423	0.20484976
83	0x40244ea2	2.5672994
84	0x403273b1	2.7883112
85	0x40102094	2.2519884
86	0x3e91e281	0.2849312
87	0x407907a5	3.8910916
88	0x40864a23	4.19655
89	0x4044d77d	3.0756524
90	0x3e1bbdec	0.15209168
91	0x403d12c2	2.95427
92	0x40393101	2.893616
93	0x4029437c	2.644744
94	0x3e97d386	0.29653567
95	0x407ea451	3.978779
96	0x40605fae	3.5058398
97	0x4039fce5	2.9060605
98	0xbcb0d735	-0.021586994
99	0x40233bbc	2.550521
100	0x4040408a	3.0039392
101	0x4004bec7	2.0741441
102	0x3f827244	1.0191121
103	0x40531d8a	3.298678
104	0x4053fea4	3.312417
105	0x403809f3	2.8756073
106	0xbc93314c	-0.017967843
107	0x401ebc6f	2.480251
108	0x40343761	2.81588
109	0x3ffd7f99	1.9804565
110	0x3f626985	0.8844226
111	0x4056ef0b	3.35834
112	0x4056e246	3.3575606
113	0x403ff904	2.9995737
114	0x3e32e150	0.17468762
115	0x401e4e6f	2.4735372
116	0x402f9fa9	2.74412
117	0x4000d3c3	2.012925
118	0x3f5a61ea	0.85305655
119	0x40525b81	3.286835
120	0x405fbc49	3.495867
121	0x4038b4e3	2.8860404
122	0x3c8fbaa7	0.017545057
123	0x402d3f14	2.706975
124	0x4027e4c4	2.6233377
125	0x40024c7e	2.0359187
126	0x3f34d770	0.7064123
127	0x404d63b8	3.2092113
128	0x40597a6f	3.3980978
129	0x40312b1d	2.7682564
130	0x3d5ed699	0.054403875
131	0x4031a73f	2.775833
132	0x402a4542	2.6604772
133	0x4012e33d	2.2951195
134	0x3f3fc379	0.7490764
135	0x405463e9	3.318598
136	0x405cf421	3.4524004
137	0x403773fa	2.8664536
138	0x3de14b07	0.110006385
139	0x40418b7c	3.0241385
140	0x403a752a	2.9134011
141	0x402e4292	2.7228131
142	0x3f71568c	0.94272685
143	0x405b78c6	3.4292464
144	0xbdf66b6a	-0.12032206
145	0xbd820a91	-0.06349672
146	0x3dbac4d7	0.091195755
147	0xba6398e6	-0.00086821464
148	0xbd885717	-0.06657236
149	0xbdd235a6	-0.10264139
150	0xbe005b8f	-0.12534927
151	0xbde7852d	-0.11304698
152	0xbcde8c6d	-0.02716657
153	0x3d966e22	0.07345225
154	0x3d944ea7	0.07241564
155	0xbe0446fa	-0.129177
156	0x3dab18c3	0.08354332
157	0xbdd6a6a5	-0.10481004
158	0xbce7f6ab	-0.028315863
159	0xbd5e709e	-0.05430662
160	0xbcd35a3b	-0.025799861
161	0xbcd770bd	-0.026298875
162	0xbdf6278c	-0.12019262
163	0xbdecd8ac	-0.115647644
164	0xbcabae23	-0.020957058
165	0x3ae3079b	0.0017320992
166	0xbd793aa5	-0.060846943
167	0x3d4eab6a	0.050456442
168	0xbdf6e4be	-0.12055348
169	0xbc141a0f	-0.009039416
170	0x3df142a2	0.11780287
171	0xbd5fc5bf	-0.054631945
172	0x3df7b270	0.12094581
173	0x3d46af1b	0.048506837
174	0xbdf78c90	-0.12087357
175	0x3dad91b1	0.08475054
176	0xbc7d3e87	-0.015456802
177	0xbd74eaac	-0.059794113
178	0x3ddb5a2d	0.10710559
179	0xbdddab4c	-0.10823688
180	0x3c6b7cad	0.014372987
181	0xbce5bb69	-0.028043466
182	0x3dc3e2fe	0.0956478
183	0x3d1925e6	0.03738966
184	0x3d83cec6	0.06435923
185	0x3d41c049	0.047302518
186	0xbd03edfb	-0.032209378
187	0xbce6c388	-0.028169408
188	0xbde20f91	-0.11038125
189	0x3d94a3d1	0.07257808
190	0x3dd9c8b7	0.106339864
191	0x3dbbb242	0.09164859
192	0x409649b1	4.6964955
193	0x405a5dec	3.4119825
194	0xbdbe0d4c	-0.0927988
195	0x40012d59	2.0183928
196	0x40227e06	2.5389419
197	0x3fc31c3f	1.5242995
198	0x3d94ed4a	0.07271822
199	0x4068b7cc	3.636218
200	0x40995d09	4.792607
201	0x405f82c5	3.4923565
202	0xbdcc0864	-0.09962538
203	0x3ff78b69	1.933942
204	0x401f5c11	2.4899943
205	0x3fc43fc2	1.5331957
206	0xbd1ffc02	-0.039058693
207	0x406a5496	3.6614127
208	0x409a8ae9	4.829457
209	0x405b120c	3.4229765
210	0x3a238969	0.0006238432
211	0x3ffdf47e	1.9840238
212	0x4022c324	2.5431604
213	0x3fb8fc77	1.4452046
214	0xbdb26d85	-0.087122954
215	0x4060f8f8	3.5151958
216	0x40959dda	4.675519
217	0x40557df2	3.335812
218	0x3de0d641	0.10978366
219	0x3ff5f7e7	1.9216279
220	0x401f81a0	2.4922867
221	0x3fd9d4b7	1.701804
222	0xbd9f170a	-0.07768066
223	0x40605400	3.505127
224	0x40953352	4.6625147
225	0x405e3af9	3.4723494
226	0xbdc00fdb	-0.09378024
227	0x400596d6	2.0873313
228	0x401d01c5	2.453233
229	0x3fde4374	1.7364335
230	0xbe55ca87	-0.2087804
231	0x4069a359	3.650595
232	0x40999e53	4.8005767
233	0x4061a96f	3.5259664
234	0x3dab1d89	0.08355243
235	0x400f86d6	2.2426047
236	0x40261965	2.5953
237	0x4000803a	2.0078263
238	0xbe012192	-0.12610462
239	0x406ce06e	3.701198
240	0x4077fcec	3.8748121
241	0x404695c3	3.1028907
242	0xbc78d1b0	-0.015186712
243	0x401ea7b5	2.478986
244	0x40347101	2.8193972
245	0x3fdd6f59	1.7299606
246	0x3f4c0fcb	0.797116
247	0x406185b8	3.5237865
248	0x40753e81	3.83194
249	0x403eb29d	2.9796517
250	0xbd2e883a	-0.042610385
251	0x401ca86e	2.4477801
252	0x4033b5bf	2.807968
253	0x3fe53ba3	1.7908825
254	0x3ef403f6	0.47659272
255	0x40615e64	3.5213861

bias f4 [64]
0	0x4068e1bd	3.638778
1	0x407a6340	3.9123077
2	0x4069a765	3.650842
3	0xbd5713c6	-0.05250909
4	0x40789e14	3.8846483
5	0x40672b67	3.612024
6	0x407564b8	3.8342724
7	0x3f89d66c	1.0768561
8	0x407218d3	3.7827652
9	0x404100f7	3.015684
10	0x407c42e0	3.9415817
11	0x407ebc96	3.9802604
12	0x4075c2a2	3.8400044
13	0x405e6cf8	3.475401
14	0x4077bdb5	3.8709538
15	0x403b0de4	2.9227228
16	0x4035eaa5	2.8424466
17	0x407992b7	3.8995798
18	0x40726d17	3.7879083
19	0x4084842c	4.1411343
20	0x406e3ac9	3.722338
21	0x407425fe	3.8148189
22	0x40798071	3.8984644
23	0x403e9357	2.977743
24	0x4038c255	2.886861
25	0x3c3f4dc5	0.011676257
26	0x40733b7b	3.8005054
27	0x404452ca	3.067553
28	0x406249e0	3.535759
29	0x403a7ef1	2.913998
30	0x4075f42a	3.8430276
31	0x407dcbe9	3.9655707
32	0x406efdad	3.7342331
33	0xbd863f29	-0.065550156
34	0x406f2159	3.7364104
35	0x3f98d588	1.1940165
36	0x4077b064	3.870141
37	0x4076e342	3.8576207
38	0x4072077c	3.7817068
39	0x4072b51d	3.7923043
40	0x4072563a	3.7865129
41	0x4065ed08	3.5925922
42	0x4057f9e3	3.3746269
43	0x40648202	3.570435
44	0x403a4378	2.910368
45	0x3f8f575a	1.1198533
46	0x4082e8ed	4.0909333
47	0x403e8090	2.9765968
48	0x3fa20861	1.2658807
49	0x40793267	3.8937013
50	0x3f8bc1f8	1.091857
51	0x3ee770c8	0.45203233
52	0x3f9bd2b8	1.2173681
53	0x40390156	2.8907065
54	0x4046b10e	3.1045566
55	0x406cb0ab	3.698283
56	0x407580d1	3.8359873
57	0x40767110	3.8506508
58	0x4074a3ff	3.8225095
59	0x403cbe96	2.9491324
60	0x403ec312	2.9806561
61	0x4071bc97	3.7771356
62	0x40747074	3.8193636
63	0x3f870992	1.0549796

weight f4 [32, 64]
0	0x40995265	4.791308
1	0x408c716b	4.388845
2	0x404e81b7	3.2266672
3	0x3cfc8ba8	0.030828312
4	0x4099cc8d	4.8062196
5	0x408a6db4	4.3258915
6	0x408c4c7a	4.3843355
7	0xc0840e1b	-4.126722
8	0x408c8f40	4.3924866
9	0x4090107c	4.5020123
10	0x4082d7e1	4.0888524
11	0x408b42dd	4.351912
12	0x40806013	4.011728
13	0x4094baa8	4.647785
14	0x4087b6fc	4.241087
15	0x4093a928	4.614399
16	0x4091aa9a	4.5520754
17	0x408978c3	4.2959914
18	0x408bd5b9	4.369839
19	0x40830b47	4.0951266
20	0x40869415	4.2055764
21	0x408db87d	4.4287705
22	0x408275fa	4.0769014
23	0x409163ec	4.5434475
24	0x40958093	4.671945
25	0xbcb04d1d	-0.021521145
26	0x4089e2fa	4.308957
27	0x4095cbea	4.681142
28	0x40941565	4.6276116
29	0x40961eca	4.6912584
30	0x408e5628	4.448017
31	0x40840679	4.12579
32	0x4093d577	4.6198077
33	0x3d6345e5	0.05548658
34	0x4086d58a	4.213567
35	0xc07998d6	-3.8999534
36	0x408b12e6	4.346057
37	0x408aee8c	4.3416195
38	0x40870955	4.219889
39	0x4083b78d	4.116156
40	0x408d74a9	4.4204907
41	0x4096edcb	4.7165275
42	0x40979262	4.736619
43	0x409254e7	4.572864
44	0x4092e9ea	4.591054
45	0xc07e754a	-3.9759088
46	0x40814f3f	4.0409236
47	0x40978c85	4.7359033
48	0xc07a5b55	-3.9118245
49	0x40894ad8	4.290386
50	0xc082ade0	-4.083725
51	0xc0328b11	-2.789738
52	0xc07638f2	-3.8472257
53	0x408d4727	4.4149356
54	0x4097d689	4.7449384
55	0x407b3fb7	3.9257638
56	0x408afa43	4.3430495
57	0x408ab1be	4.334197
58	0x4084b3ce	4.146949
59	0x40964e43	4.6970534
60	0x4095666b	4.668752
61	0x408a546e	4.3228064
62	0x408de278	4.433895
63	0xc05ee2ad	-3.4825852
64	0x408f3f8b	4.4765067
65	0x407fefaa	3.999003
66	0x40509400	3.2590332
67	0xbdd2f19c	-0.102999896
68	0x408ce003	4.402345
69	0x4071ca77	3.7779825
70	0x408124dc	4.0357494
71	0xc07fb1cd	-3.995227
72	0x40832c1b	4.099134
73	0x40aa73b5	5.3266244
74	0x408332c0	4.099945
75	0x4083f467	4.1235843
76	0x4075c203	3.8399665
77	0x408def90	4.4354935
78	0x407d61d2	3.9590955
79	0x40a9caa0	5.3059845
80	0x40aa313d	5.3185105
81	0x4081f85c	4.0615673
82	0x4082e9e2	4.09105
83	0x4085333a	4.1625032
84	0x40663a67	3.5973146
85	0x4083988f	4.112373
86	0x4084bd4a	4.1481066
87	0x40a88ea1	5.2674108
88	0x40a65538	5.1979027
89	0xbd901c40	-0.07036638
90	0x40830fab	4.0956626
91	0x40a9dd34	5.3082523
92	0x408eae52	4.4587793
93	0x40aa3c15	5.319834
94	0x4084712a	4.138814
95	0x40811812	4.0341883
96	0x408f9290	4.486641
97	0xbcea2a8a	-0.028584737
98	0x4081ce28	4.0564156
99	0xc07d5a52	-3.9586377
100	0x4082320b	4.0686088
101	0x40828efd	4.0799546
102	0x4080dc6b	4.0269065
103	0x40812fa4	4.0370655
104	0x4082402a	4.0703325
105	0x408b4644	4.3523273
106	0x408eca8a	4.462224
107	0x408eb64b	4.4597526
108	0x40abd08b	5.369207
109	0xc07cf13f	-3.9522245
110	0x40809183	4.0177627
111	0x40ab2ec6	5.3494596
112	0xc073e4b5	-3.8108342
113	0x40845c1e	4.136245
114	0xc070f081	-3.7646792
115	0xc02104a3	-2.515908
116	0xc07f8ce7	-3.992975
117	0x409f9be7	4.987781
118	0x40a806e4	5.250841
119	0x4075a5bd	3.8382409
120	0x4072f5d4	3.7962542
121	0x407c6dbd	3.944198
122	0x407acddd	3.918815
123	0x40a8473a	5.2586946
124	0x40a8dca3	5.276933
125	0x4083c546	4.117831
126	0x40812ca1	4.036698
127	0xc074b347	-3.8234422
128	0x409bf9a5	4.874224
129	0x408f6829	4.481465
130	0x4050f2e2	3.2648244
131	0xbd92b387	-0.071631484
132	0x409476e8	4.639515
133	0x4086e99e	4.2160177
134	0x408c6f0d	4.388556
135	0xc080e9ca	-4.0285387
136	0x408f3fcc	4.4765377
137	0x4099f7b9	4.8114896
138	0x40882d59	4.2555356
139	0x4089ea35	4.3098397
140	0x4086f9fc	4.2180157
141	0x40972660	4.7234344
142	0x408a8ae1	4.329453
143	0x40a00444	5.0005207
144	0x409cabc0	4.8959656
145	0x4091ea4f	4.559852
146	0x408cb6a0	4.397293
147	0x40901118	4.5020866
148	0x407f32d6	3.9874778
149	0x408bc5d8	4.367901
150	0x408e11e8	4.439686
151	0x409b7e2e	4.859153
152	0x409f2d3a	4.974271
153	0xbd8863e4	-0.066596776
154	0x4091d438	4.5571556
155	0x40a18a2e	5.0481176
156	0x4094a5f9	4.6452603
157	0x409df130	4.935692
158	0x40924de1	4.5720067
159	0x408e484c	4.4463253
160	0x4093164a	4.596471
161	0x3c6c07e4	0.014406178
162	0x408a6c8f	4.325752
163	0xc07d3615	-3.956426
164	0x408e90b5	4.4551644
165	0x408ea9f8	4.458248
166	0x4088706e	4.2637243
167	0x408ab5ae	4.3346777
168	0x40901a89	4.503239
169	0x409962c6	4.7933073
170	0x4092b6fd	4.5848374
171	0x4095cbbd	4.6811204
172	0x40a32c0c	5.099127
173	0xc07b1292	-3.9230084
174	0x408b7fad	4.3593354
175	0x40a14b78	5.0404625
176	0xc0809580	-4.0182495
177	0x409071ac	4.513876
178	0xc08097fb	-4.0185523
179	0xc035b420	-2.839119
180	0xc082f329	-4.0921826
181	0x409c9038	4.892605
182	0x409eab2a	4.958394
183	0x4080d981	4.026551
184	0x408a8b36	4.3294935
185	0x408a535f	4.322677
186	0x408c8237	4.3908954
187	0x40a0fed0	5.031105
188	0x409e7bee	4.952628
189	0x408ef97b	4.467954
190	0x4091c162	4.5548563
191	0xc064a92a	-3.572825
192	0x408e3888	4.444401
193	0x407e898b	3.977145
194	0x40577fd2	3.3671765
195	0x3db56b26	0.088583276
196	0x409273e1	4.5766454
197	0x406db5ce	3.7142215
198	0x407c18d6	3.9390159
199	0xc07b65ce	-3.9280887
200	0x4084aae2	4.1458597
201	0x40a67c74	5.202692
202	0x4080de82	4.0271616
203	0x407d4d11	3.9578288
204	0x40804705	4.0086694
205	0x408e3467	4.443897
206	0x407f21e3	3.9864433
207	0x40a465ea	5.1374407
208	0x40a61988	5.1906166
209	0x4081f9d3	4.061746
210	0x40817393	4.045358
211	0x40853f6f	4.1639934
212	0x406890cf	3.6338384
213	0x4081cede	4.0565023
214	0x4081c234	4.0549564
215	0x40aa4d9d	5.3219743
216	0x40a845f2	5.2585382
217	0x3cceec32	0.025259111
218	0x40837b28	4.1087837
219	0x40aa70f0	5.3262863
220	0x408a2b1e	4.3177633
221	0x40a96a7c	5.2942486
222	0x40835d5a	4.1051455
223	0x4081ec03	4.06006
224	0x408af16a	4.3419695
225	0xbdb815ee	-0.08988558
226	0x407a2f27	3.909128
227	0xc0810f20	-4.0330963
228	0x408093cd	4.018042
229	0x4080f222	4.029557
230	0x407c383f	3.940933
231	0x407f9d82	3.9939885
232	0x4082574d	4.073157
233	0x408c1618	4.377697
234	0x408f9970	4.48748
235	0x40894563	4.28972
236	0x40a75f9f	5.2304225
237	0xc07b6eb1	-3.928631
238	0x4083915c	4.111494
239	0x40a8937f	5.268005
240	0xc0745095	-3.8174183
241	0x4085d00b	4.181646
242	0xc079b58f	-3.9017065
243	0xc020983c	-2.5092916
244	0xc079bbf1	-3.902096
245	0x40a83608	5.2565956
246	0x40a7df1b	5.2459846
247	0x40716463	3.771752
248	0x4074ea13	3.8267868
249	0x4082d9c3	4.0890822
250	0x4081c170	4.054863
251	0x40a90fa4	5.2831593
252	0x40a94e23	5.290788
253	0x40888bd7	4.2670703
254	0x408216ab	4.065267
255	0xc075ebb3	-3.842511

bias f4 [32]
0	0x405e8001	3.4765627
1	0x404e45a3	3.2230003
2	0x406498da	3.5718293
3	0x404feb7d	3.248748
4	0x3f115085	0.5676349
5	0x3dd4f974	0.10399142
6	0x406259a4	3.5367212
7	0x3dd14a59	0.10219259
8	0x3f1355af	0.5755262
9	0x3ecb72fb	0.3973616
10	0x3ce7ab3c	0.028279893
11	0x40609901	3.5093386
12	0x3f074f42	0.5285531
13	0x40659b3f	3.5876005
14	0x404a8605	3.16443
15	0x3f0aae4a	0.54172194
16	0x3ef10671	0.47075227
17	0x406e1774	3.7201815
18	0x40591181	3.3916934
19	0x406c1f7f	3.6894224
20	0x4054a56d	3.3225968
21	0x40551f11	3.3300211
22	0x3f1d2444	0.6138346
23	0x404d566a	3.2083993
24	0x3d2c8810	0.042121947
25	0x404dd296	3.2159781
26	0x3effdd46	0.49973506
27	0xbd0f5490	-0.034992754
28	0xbd06fc98	-0.032955736
29	0x40681413	3.6262252
30	0x3f027626	0.5096153
31	0x40673b79	3.613005

weight f4 [1, 32]
0	0xc0a49de7	-5.144275
1	0xc0ad015d	-5.4064164
2	0xc09e6946	-4.9503508
3	0xc0ad0e51	-5.4079976
4	0x40691b3b	3.642287
5	0x3ca9ca28	0.020726278
6	0xc09defcb	-4.9355216
7	0xbce67e5d	-0.028136427
8	0x4066c32c	3.6056623
9	0x406ae585	3.6702588
10	0xbc2b54f9	-0.010457271
11	0xc09d1929	-4.9093213
12	0x406a21be	3.6583095
13	0xc09e6088	-4.9492836
14	0xc0a4b036	-5.14651
15	0x40688b6c	3.6335096
16	0x406b6d18	3.6785336
17	0xc09dd604	-4.932375
18	0xc0ac6bd9	-5.388165
19	0xc09dcefa	-4.9315157
20	0xc0ac0c5e	-5.3765097
21	0xc0ac450b	-5.383428
22	0x4069ff81	3.6562197
23	0xc0add7f9	-5.432614
24	0xbca413d3	-0.020028984
25	0xc0ad2f84	-5.4120502
26	0x4067e63e	3.6234279
27	0xbc27d945	-0.010244672
28	0xbda45b75	-0.080252565
29	0xc09f14fb	-4.971311
30	0x4065ecba	3.5925736
31	0xc09cfc59	-4.905804
