ElegantRL/EntornoObservacionesAccionesMejorado/200ksteps_A2C_0/cri_target.pth (torch, 27189 bytes, 7 tensors)

state_avg f4 [48]
00000000: 0000 0000 0000 0000 0000 0000 0000 0000
00000010: 0000 0000 0000 0000 0000 0000 0000 0000
00000020: 0000 0000 0000 0000 0000 0000 0000 0000
00000030: 0000 0000 0000 0000 0000 0000 0000 0000
00000040: 0000 0000 0000 0000 0000 0000 0000 0000
00000050: 0000 0000 0000 0000 0000 0000 0000 0000
00000060: 0000 0000 0000 0000 0000 0000 0000 0000
00000070: 0000 0000 0000 0000 0000 0000 0000 0000
00000080: 0000 0000 0000 0000 0000 0000 0000 0000
00000090: 0000 0000 0000 0000 0000 0000 0000 0000
000000a0: 0000 0000 0000 0000 0000 0000 0000 0000
000000b0: 0000 0000 0000 0000 0000 0000 0000 0000
0.0 0.0 0.0 0.0 0.0 0.0 0.0 0.0
0.0 0.0 0.0 0.0 0.0 0.0 0.0 0.0
0.0 0.0 0.0 0.0 0.0 0.0 0.0 0.0
0.0 0.0 0.0 0.0 0.0 0.0 0.0 0.0
0.0 0.0 0.0 0.0 0.0 0.0 0.0 0.0
0.0 0.0 0.0 0.0 0.0 0.0 0.0 0.0

state_std f4 [48]
00000000: 0000 803f 0000 803f 0000 803f 0000 803f
00000010: 0000 803f 0000 803f 0000 803f 0000 803f
00000020: 0000 803f 0000 803f 0000 803f 0000 803f
00000030: 0000 803f 0000 803f 0000 803f 0000 803f
00000040: 0000 803f 0000 803f 0000 803f 0000 803f
00000050: 0000 803f 0000 803f 0000 803f 0000 803f
00000060: 0000 803f 0000 803f 0000 803f 0000 803f
00000070: 0000 803f 0000 803f 0000 803f 0000 803f
00000080: 0000 803f 0000 803f 0000 803f 0000 803f
00000090: 0000 803f 0000 803f 0000 803f 0000 803f
000000a0: 0000 803f 0000 803f 0000 803f 0000 803f
000000b0: 0000 803f 0000 803f 0000 803f 0000 803f
1.0 1.0 1.0 1.0 1.0 1.0 1.0 1.0
1.0 1.0 1.0 1.0 1.0 1.0 1.0 1.0
1.0 1.0 1.0 1.0 1.0 1.0 1.0 1.0
1.0 1.0 1.0 1.0 1.0 1.0 1.0 1.0
1.0 1.0 1.0 1.0 1.0 1.0 1.0 1.0
1.0 1.0 1.0 1.0 1.0 1.0 1.0 1.0

weight f4 [64, 48]
00000000: d6d2 6d40 ccfe 0d40 cbe0 5e3e 2d72 bd3f
00000010: 6a37 f63f be1d b63f 9ee2 bb3f ba10 db3f
00000020: 6fac 6340 3674 1a40 67b2 943e 154e b83f
00000030: e669 0240 758d bd3f 81d6 bf3f f443 c13f
00000040: 0616 6040 de27 1240 1909 8b3e 213c c33f
00000050: d13e 0040 7118 ac3f 6bea aa3f 8e79 d23f
00000060: cdd3 6b40 5e75 1840 4e2c 6d3e 1197 b13f
00000070: 4977 ff3f 628a ae3f b546 a13f 5d9b bd3f
00000080: 7c3b 6540 2784 1140 1a8f 623e 938f c03f
00000090: b79a 0640 32b9 c53f 0968 b23f 77a7 c23f
000000a0: 95a9 6740 1f73 1840 1a0b b03e 8c63 ba3f
000000b0: b0e7 fe3f c23d b93f e9e9 a03f 41a1 cd3f
000000c0: 0b96 2f3f ba43 87be 0c6c a93e eb22 f0be
000000d0: 6c5d c1be ca76 6dbe 62aa 04be bad9 51be
000000e0: cdc7 543f d3a5 31be a36f 853e 3e4b eebe
000000f0: e2eb 83be 0d53 81be 927f 4cbe 7718 9bbe
00000100: 60bd 303f 0c7e 2ebe 7aff 903e 62b1 fbbe
00000110: cb88 b3be 5b62 8fbe f9cc 3dbd cd4a e2be
00000120: f8e7 453f 15fe f2bd 7b7a 673e a23e c5be
00000130: 8416 3dbe e7aa a3be 765e 6fbd 6799 d5be
00000140: 4d5e 173f 63e4 21bc bf50 7b3e e95a a6be
00000150: 8a2c 1cbe ae8b b3be 9604 b0be 2cea 0dbf
00000160: 7f4e 393f 120b c9bd ce24 b93e f75b 16bf
00000170: 8107 85be deb8 a6be 5402 6ebe ceb1 bfbe
00000180: 0830 503f 04ea 25be bc7f 513e 5644 d5be
00000190: 95e2 5dbe 35ab a1be e985 80bc 9f5e 94be
000001a0: 870f 4a3f 2821 5fbd bf94 be3e da4e abbe
000001b0: 0f32 33be 97b7 a1be 93bb 32be c954 b0be
000001c0: 86fc 1e3f 7ef4 1ebc 32eb 8c3e 4ab0 99be
000001d0: c819 7bbe b240 8dbe 2945 75be 3e7e b3be
000001e0: da0e 123f 64db 45be 043a cc3e d725 fabe
000001f0: d3ca 58be fe04 95be a818 98be 6ff2 afbe
00000200: d205 3f3f 9abd 03bd e848 a43e 8bda 90be
00000210: da4c 62be 6326 9abe 075c 3ebe 2ed5 ffbe
00000220: 6b55 223f 61db 64be 8dbd cc3e 0480 c4be
00000230: 102c 91be 7bd6 e3be ba77 84be e9a7 14bf
00000240: 532f 5b40 9b78 1040 a2ba ab3e 2fb5 ac3f
00000250: 4a88 f73f 9fc2 a63f 218f a13f af50 d43f
00000260: 8401 5440 6432 1140 24e5 dc3e 7566 ad3f
00000270: 61a7 e63f 2e07 973f 7619 983f b6cc c03f
00000280: 2eb1 5640 8ae4 1440 5a94 853e d446 b43f
00000290: c1fa dc3f aa5a a93f 0393 a93f 7384 b43f
000002a0: 0297 5740 356c 0e40 2b00 433e 137b a33f
000002b0: 031b f43f 0fc6 b33f bb9e 973f a02a c03f
000002c0: 7e14 5140 5327 0440 23c2 de3e d0f0 bf3f
000002d0: 815c eb3f 6e41 a43f 6d3a 983f 04d8 c93f
000002e0: 46d9 4f40 26a2 0740 7385 8c3e 9059 ab3f
000002f0: c1c7 f23f 3ec2 c23f 809b 993f b656 b33f
00000300: dbfe d73d 9d1e ae3d 1e9b b23c 276d 3a3d
00000310: f757 463d 7f3e b73d fc4d 33be 088c 7ebd
00000320: b497 11bd 5adc 45bd 8de1 dfbd ab63 1bbe
00000330: fbbd d3bd 0177 43bd 5498 9b3d 806e df3d
00000340: 212c 983c 923c d7bd 0b11 98bd 8a63 73bc
00000350: d318 01be dc7a 22bd 8ad3 49bb 2df7 0d3e
00000360: 3f57 5fbd f587 de3d 582e 28bc ccd9 fabd
00000370: d0b6 fd3d cc8e 9f3d 48a6 09be 8ef2 76bd
00000380: d0a3 2e3d b48a d7bd 02c8 903d 2932 c8bd
00000390: 55c0 3dbd a55f a8bd ff68 d73d 6d3b 03bd
000003a0: 501e 3fbd a170 6e3d 2d67 e5bd 903f 0fbd
000003b0: af5b e0bd 3ed2 2cbe 07e7 51bd 615d ea3c
000003c0: fa06 503f e61e 51be ffd5 7c3e f320 9ebe
000003d0: 5ffd 43be f472 4cbe 5912 00be 10c4 b9be
000003e0: 0b69 3a3f 918a 3bbe 5eb4 b43e 0296 f3be
000003f0: c4c4 15be a9d4 66be edfe 2abe f6a3 98be
3.7159934 2.2186766 0.21765439 1.4800469 1.9235661 1.4227827 1.4678533 1.711448
3.5573995 2.413343 0.2904236 1.4398829 2.0377135 1.4808794 1.4987336 1.5098863
3.5013442 2.2836833 0.27155378 1.5252725 2.003834 1.3444959 1.3352789 1.6443346
3.6848023 2.3821635 0.23161432 1.3874227 1.9958278 1.3635981 1.2599703 1.4813038
3.5817556 2.273691 0.22124901 1.5043815 2.103193 1.5447142 1.3937999 1.5207356
3.6197255 2.3820264 0.3438347 1.4561629 1.9914455 1.4471972 1.2571384 1.6064836
0.6858832 -0.2641886 0.33090246 -0.4690164 -0.37766588 -0.23189846 -0.12955621 -0.20493212
0.8311737 -0.17348413 0.26061735 -0.4654178 -0.25765902 -0.25258675 -0.19970539 -0.30292103
0.69038963 -0.1704027 0.28319913 -0.4915877 -0.35065302 -0.28004727 -0.046338055 -0.44197693
0.7730708 -0.118648686 0.22605316 -0.38524348 -0.1846562 -0.31966326 -0.058439694 -0.417186
0.59128267 -0.009881112 0.24542521 -0.32491234 -0.15251365 -0.35067505 -0.343785 -0.5543544
0.723854 -0.098165646 0.36160892 -0.5873408 -0.25982288 -0.32562917 -0.23243076 -0.37440342
0.8132329 -0.16202551 0.20458883 -0.416537 -0.21668465 -0.31575933 -0.015688853 -0.2897844
0.7892994 -0.05447498 0.3722286 -0.33458596 -0.17499565 -0.3158538 -0.17454366 -0.34439686
0.6210407 -0.009701846 0.2752319 -0.3001731 -0.24521554 -0.2758842 -0.23952164 -0.35057253
0.5705391 -0.19321972 0.39888012 -0.48856995 -0.21171121 -0.2910537 -0.2970631 -0.3436465
0.74618256 -0.03216324 0.32086873 -0.28291735 -0.22099629 -0.30107412 -0.18589793 -0.4996733
0.6341159 -0.22349311 0.39988366 -0.38378918 -0.2835393 -0.44499573 -0.25872594 -0.5806871
3.4247634 2.2573612 0.33540827 1.3492793 1.9338467 1.3028144 1.2621804 1.6587123
3.3125925 2.2687006 0.4314357 1.3546892 1.801983 1.1799066 1.188277 1.5062473
3.3545642 2.326449 0.26089746 1.4084115 1.7264024 1.3230793 1.324799 1.410292
3.3685918 2.2253544 0.19043033 1.2771934 1.9070743 1.4044818 1.1845316 1.5013008
3.2668757 2.0649002 0.4350749 1.4995365 1.8387605 1.2832468 1.189283 1.5769048
3.2476363 2.1192718 0.27445564 1.3386707 1.896721 1.5215528 1.200058 1.4010837
0.10546657 0.08501933 0.021802481 0.045514252 0.048423734 0.08947467 -0.17510217 -0.062145263
-0.035545066 -0.048305847 -0.10931692 -0.15174739 -0.1033897 -0.047720913 0.07597414 0.10909748
0.01857573 -0.105096 -0.07425126 -0.014855275 -0.12607126 -0.03966795 -0.0030796253 0.13863821
-0.054526564 0.108657755 -0.010264955 -0.12248573 0.12388384 0.07790908 -0.13442338 -0.060289912
0.042636693 -0.105245024 0.070693985 -0.09775192 -0.046326 -0.08221368 0.10518073 -0.032039095
-0.046659768 0.05821288 -0.1120132 -0.034972727 -0.10954987 -0.16877076 -0.051245715 0.02860898
0.81260645 -0.20421943 0.24691008 -0.30884513 -0.19139622 -0.19965726 -0.12506999 -0.36282396
0.7281653 -0.18314578 0.3529386 -0.47575384 -0.14625841 -0.22542061 -0.16698809 -0.29812592

bias f4 [64]
00000000: 96b2 3040 8aa8 a23e 7fd0 a73e eaa3 2e40
00000010: bdfe b9bd c82e 933e 45b1 0840 cfff 3e3d
00000020: 6867 a0bc bdca 463e 8555 c83e daaf 013e
00000030: cf8e 6c3e 538a 893e a7ff 813e 84da b23e
00000040: a092 a83e 9fe0 a93d 2b2b 583b 2876 723e
00000050: 98d7 8b40 14fa 253e f84c a53e 18b3 fe3d
00000060: d98c 003e 5f80 1cbe fa3e 273e e29c 763e
00000070: 9624 7e40 8124 563e 5c93 e53d 8244 2640
00000080: e448 5c3e 3976 3a3e 78b3 483e 9d6c 8140
00000090: 4da0 1fbd 1653 1f3d de54 123d 19d0 c7bd
000000a0: f103 a73e 5287 3b40 91d9 5540 ed22 a23e
000000b0: 432e 8f40 a8fb 5d40 d642 8d3e 2bdf b83d
000000c0: 7d58 9140 9000 4040 e91b 96bc 71b1 58bd
000000d0: 1068 2d3e d05c 423e 186c ba3e d54c 2940
000000e0: 0b2f 983d a255 d0bd 760d 5140 dca8 6140
000000f0: c0c1 593d 60a2 b23e 8273 f93d 542e b53e
2.7609 0.3176921 0.32776257 2.7287545 -0.090817906 0.2874663 2.1358197 0.046630677
-0.019580558 0.19413276 0.39127746 0.12664738 0.23101352 0.26863346 0.2539036 0.3493234
0.32924366 0.08294796 0.0032984714 0.23677886 4.3700676 0.16208678 0.32285285 0.12436503
0.12553729 -0.15283345 0.16332617 0.24083284 3.970983 0.20912363 0.11209747 2.5979314
0.2151218 0.18209161 0.19599712 4.0445085 -0.038971234 0.038897596 0.035725467 -0.09756488
0.32620195 2.9301343 3.3414042 0.3166727 4.474397 3.4684849 0.27590054 0.09026941
4.542052 3.0000343 -0.018323855 -0.052903596 0.16934228 0.18980718 0.36410594 2.6453145
0.07430848 -0.10172583 3.2664466 3.5259314 0.05316329 0.34889507 0.121802345 0.35386908

weight f4 [32, 64]
00000000: b31a 5340 e917 3d3d 219f 423d a792 4140
00000010: 4dee bdbb 325d f73d e242 1540 4451 743c
00000020: 4ef1 823d 583f 433e f34f 5b3d d1c1 8b3d
00000030: 4e9b 3d3e 1cbe 3c3e 5e3b ae3d f2f3 533d
00000040: b31d 433e 7cf9 943d 3915 d0bd 8ad2 773e
00000050: e86f a240 6210 013e d6e9 2e3e c7a7 713e
00000060: 7f1a 7c3d 0ba9 01bd bc5b 3c3e 4b2c b83c
00000070: 6c27 9940 ab7b 0e3d 13af 153e bc1a 4040
00000080: 4741 843e ec07 ed3d 0f9b 723e a0dd 9840
00000090: 6eed e4bd 4cc6 d5bd b6d8 27bd ce04 d53a
000000a0: efc7 a53e da7e 4f40 fd81 8040 f712 653e
000000b0: 14da a040 bb4e 8740 ddd2 073e d441 b23d
000000c0: 2285 9340 526f 6f40 5032 7fbd 01ca 433c
000000d0: 6fa1 343e e1d7 333e fd20 033e 175b 4440
000000e0: c527 b13d 5534 243d 8395 6540 3d73 8540
000000f0: e274 643d 8acb 463e 766a df3d d5a0 553d
00000100: cc82 4e40 08b2 223c 7bb9 1bbc d1b7 4f40
00000110: c30a 873d cc2b a33b ff06 2140 fa7c a1bd
00000120: 63f0 59bd 8ec1 313e 2926 bcbd 7819 f6bc
00000130: ee32 e0bd b450 5b3d 82c4 8c3d 5703 b13d
00000140: 3805 62bd 655f ddbd 2ebf 7a3d 5365 bebd
00000150: 7d10 9e40 4e18 dabd aa87 bc3d d88d acbc
00000160: 8813 8a3c 70bc 25b9 d613 dd3d 6049 80bd
00000170: 6100 9840 942f 04be a95f 5b3d 8934 3a40
00000180: 3fe7 cdbd 51a1 5f3d 7926 8c3d 3783 9940
00000190: de54 dd3c 8687 9b3d 031f 5e3d e8c2 10bd
000001a0: 3fe0 463d 7538 5f40 c55f 8640 75a7 8c3d
000001b0: e8e4 9e40 0ddf 8a40 6fcd babd c06d e43c
000001c0: 9d6b 9640 69d5 7840 787c 8f3d 9dc1 d03d
000001d0: 621a dcbd 1b72 c33d b25c b33d 4770 4b40
000001e0: b9ac d83c 7419 8e3d 7a75 8f40 c531 8440
000001f0: 291b e6bd 0bdf 8dbd d9ab ba3d 2e16 d43d
00000200: 1956 7e3e ae81 283f fbaa 1d3f 3ee9 d53e
00000210: 6c03 b4bc cbe9 0e3f 626c c23e 65c9 1cbc
00000220: 7381 b63d 0983 303f 4e57 823f f75a 113f
00000230: b0fe e53e 2250 113f e211 223f 416b ec3e
00000240: 1c45 f83e ee92 193f c0e3 91bd 0661 0a3f
00000250: 9519 9dbe 58a0 f33e b034 be3e 8767 0f3f
00000260: edf1 203f ae4c bd3d 5e15 253f 88af eb3e
00000270: 3db5 f83d 1eae 1e3f 26a5 0b3f 95d7 bd3e
00000280: e6c2 323f c205 d33e 5ee1 bf3e 2200 7f3b
00000290: 4780 f03d 962b de3c c731 d9bc fb25 b3bd
000002a0: 0e69 2b3f e88a 6e3e 9499 833e a3b7 023f
000002b0: 7155 c7be 5750 fa3d 1307 e03e 0651 143f
000002c0: 20eb 85bf d4c7 a23e b048 e0bc e0f3 803d
000002d0: ec87 0c3f 4496 123f 010c 0f3f c9e8 b33e
000002e0: c729 1c3f e2ac bd3d 7740 1e3c 4481 963e
000002f0: fad8 c6bc e206 123f 9e97 f93e ee2b 133f
00000300: dadc 4640 c5be 8f3e a6fa 1b3e d568 3f40
00000310: fc3b 0f3d b074 d63e 5d8f 1c40 441b 133d
00000320: 23b4 d23d bf7b 8e3e 6030 af3e 123d e63e
00000330: 2cdd e23e 085b b13e f912 c63e 96e6 cf3e
00000340: c9b2 a43e 5ded be3e bb77 43bd 4897 953e
00000350: 487f 9c40 ef1f 893e 9a92 763e 18c5 a33e
00000360: 425f 8c3e c91b b73a e24a 643e 8e19 c03e
00000370: fc03 9340 c5ce 6a3e 2ead be3e 3173 3940
00000380: ce18 b33e 33a5 dc3e cb50 ad3e 4254 9040
00000390: d188 58bd f762 14bd e1a2 5bbd 4be6 05bd
000003a0: f289 b13e 0ddf 4d40 939d 6c40 10c5 d03e
000003b0: 96a5 9e40 027d 7940 5cf8 ce3e f5ba 773e
000003c0: 7e34 9640 c3c7 6240 feeb 993d 03ea 853d
000003d0: 8123 9c3e bc59 993e 44c2 db3e 0639 4240
000003e0: 5cad b13e 8fc1 703d 9546 5240 ed2c 8040
000003f0: fcb4 abbd a081 353e 0775 2f3e 4254 c83e
3.2985046 0.04616538 0.04751504 3.024576 -0.00579623 0.120783225 2.3322072 0.014911953
0.063936815 0.19067132 0.053543042 0.06824077 0.18516275 0.18431896 0.08507417 0.051746316
0.19054298 0.07274148 -0.10160298 0.24201408 5.0761604 0.12603906 0.17081389 0.23599158
0.061548706 -0.031655353 0.18394369 0.022482058 4.7860622 0.034785908 0.14617567 3.0016317
0.25831053 0.115737766 0.23691963 4.777054 -0.111780986 -0.10438213 -0.040978156 0.0016252042
0.323791 3.2421174 4.0158677 0.22370516 5.026621 4.2283607 0.13264032 0.08703962
4.6100016 3.7411695 -0.06230384 0.011950017 0.17639707 0.1756282 0.12805553 3.0680597
0.086501636 0.04008897 3.5872505 4.170317 0.05577553 0.19413581 0.10908978 0.052155335
3.2267332 0.009930141 -0.009504671 3.2455943 0.065938495 0.004979586 2.516052 -0.078851655
-0.053207766 0.17358992 -0.09186966 -0.030041441 -0.10947214 0.05354376 0.068734184 0.08643215
-0.05518076 -0.10809211 0.06121748 -0.0929667 4.9395127 -0.10649167 0.09205563 -0.02106373
0.016855016 -0.00015805825 0.10794799 -0.06263995 4.7500463 -0.12908775 0.053558026 2.9094565
-0.10053872 0.054597203 0.068432756 4.7972674 0.027018007 0.075942084 0.054228794 -0.035342127
0.0485537 3.4878209 4.1991906 0.068678774 4.9654427 4.339728 -0.091212146 0.027884364
4.7006364 3.8880255 0.070061624 0.10193179 -0.107472196 0.09543248 0.087579146 3.1787279
0.026449548 0.069384485 4.4830904 4.1310754 -0.11235649 -0.06927308 0.091148086 0.10355793
0.24837531 0.65822875 0.6158902 0.41779512 -0.021974288 0.5582549 0.37973315 -0.009569501
0.08911409 0.68949944 1.0182893 0.56779426 0.44920874 0.567629 0.63308537 0.46175578
0.48490226 0.5998982 -0.07123518 0.54054296 -0.3068358 0.4758327 0.37149572 0.56017345
0.6286915 0.09243141 0.6448573 0.46032357 0.121439435 0.6198443 0.5454887 0.3707854
0.6982864 0.4121533 0.3747663 0.0038909991 0.11743217 0.027120393 -0.026512993 -0.087474786
0.66957176 0.23295176 0.25703108 0.5106146 -0.38932374 0.12222355 0.43755397 0.5793613
-1.046238 0.31793082 -0.02737841 0.062965155 0.548949 0.5726054 0.5587769 0.35138538
0.6100125 0.092614904 0.009658924 0.29395497 -0.024273384 0.5704175 0.48748487 0.57488906
3.1072297 0.28075233 0.15232334 2.9907734 0.034969315 0.418859 2.4462502 0.035914674
0.102882646 0.27828786 0.34216595 0.44968468 0.44309366 0.34639764 0.3868635 0.4060561
0.32167652 0.3729047 -0.047721606 0.2921698 4.8905373 0.26782176 0.24079362 0.31986308
0.27416426 0.0013970073 0.2229419 0.37519497 4.5942364 0.22930439 0.372415 2.8976557
0.34979862 0.43094787 0.33850703 4.5102854 -0.052864853 -0.036227193 -0.05362213 -0.032690328
0.34675556 3.216739 3.6971176 0.40775347 4.957713 3.8982549 0.40423858 0.24192412
4.6939077 3.5434425 0.07515715 0.06538775 0.30495837 0.29951274 0.4292165 3.0347304
0.34702575 0.05877834 3.285558 4.005484 -0.083841294 0.1772523 0.17134486 0.39126784

bias f4 [32]
00000000: c54e 5840 e3d4 6940 18e6 08be a8af 5e40
00000010: e35a 81bd 2c32 6a40 ec00 cebd 1e41 40be
00000020: aadd 6640 6fa1 5e40 f80a 67be 10d2 83be
00000030: 0d24 30be 7b95 84be 277a 15be 601e 9bbe
00000040: c7b4 62bd 336a 7740 d86b 13be 3c9a 12be
00000050: 2f01 98bd 2abb 21be 40c9 92be 1221 0fbe
00000060: 0000 e5bd 85e0 c6bd 6072 82bc 3ece 57be
00000070: 5ab9 8140 430c 6640 0070 19be a6ab 9ebe
3.3798077 3.6536186 -0.13369024 3.4794712 -0.063161634 3.6593122 -0.100587696 -0.1877484
3.6072793 3.4786031 -0.22562778 -0.25746202 -0.17201252 -0.25895295 -0.14597379 -0.30296612
-0.055348184 3.865857 -0.14396608 -0.14316648 -0.07422101 -0.15794054 -0.28669167 -0.13977459
-0.111816406 -0.097107925 -0.015923679 -0.21074769 4.053876 3.5944984 -0.14984131 -0.30990332

weight f4 [1, 32]
00000000: e03f b7c0 daca b2c0 e0a8 183f f05b b6c0
00000010: dcab 173f b30c b5c0 6290 223f a0d9 153f
00000020: 0f5f b2c0 a98f b6c0 e107 323f fac7 293f
00000030: 7c22 243f 38c8 213f 98c2 243f 7507 263f
00000040: fc2e 1639 fd75 adc0 a5ff 1e3f 8142 163f
00000050: f2f2 113f b20a 243f d1cd 223f 72d6 333f
00000060: e49a 1b3f 1b39 1c3f a696 12bd 503c 113f
00000070: 8620 aec0 dbb9 b4c0 8537 483d 6701 1e3f
-5.7265472 -5.587262 0.5963268 -5.698723 0.5924661 -5.6578 0.6350156 0.58535194
-5.574104 -5.7050366 0.6954327 0.66320765 0.6411512 0.63196135 0.64359426 0.6485513
0.00014322618 -5.420653 0.6210883 0.58695227 0.5701133 0.6407882 0.635953 0.7024909
0.6078322 0.61024636 -0.0357882 0.56732655 -5.44147 -5.6476874 0.048881073 0.6172089
