ElegantRL/EntornoObservacionesAccionesMejorado/2Msteps_TD3_0/act.pth (torch, 26069 bytes, 7 tensors)

state_avg f4 [48]
00000000: 0000 0000 0000 0000 0000 0000 0000 0000
00000010: 0000 0000 0000 0000 0000 0000 0000 0000
00000020: 0000 0000 0000 0000 0000 0000 0000 0000
00000030: 0000 0000 0000 0000 0000 0000 0000 0000
00000040: 0000 0000 0000 0000 0000 0000 0000 0000
00000050: 0000 0000 0000 0000 0000 0000 0000 0000
00000060: 0000 0000 0000 0000 0000 0000 0000 0000
00000070: 0000 0000 0000 0000 0000 0000 0000 0000
00000080: 0000 0000 0000 0000 0000 0000 0000 0000
00000090: 0000 0000 0000 0000 0000 0000 0000 0000
000000a0: 0000 0000 0000 0000 0000 0000 0000 0000
000000b0: 0000 0000 0000 0000 0000 0000 0000 0000
0.0 0.0 0.0 0.0 0.0 0.0 0.0 0.0
0.0 0.0 0.0 0.0 0.0 0.0 0.0 0.0
0.0 0.0 0.0 0.0 0.0 0.0 0.0 0.0
0.0 0.0 0.0 0.0 0.0 0.0 0.0 0.0
0.0 0.0 0.0 0.0 0.0 0.0 0.0 0.0
0.0 0.0 0.0 0.0 0.0 0.0 0.0 0.0

state_std f4 [48]
00000000: 0000 803f 0000 803f 0000 803f 0000 803f
00000010: 0000 803f 0000 803f 0000 803f 0000 803f
00000020: 0000 803f 0000 803f 0000 803f 0000 803f
00000030: 0000 803f 0000 803f 0000 803f 0000 803f
00000040: 0000 803f 0000 803f 0000 803f 0000 803f
00000050: 0000 803f 0000 803f 0000 803f 0000 803f
00000060: 0000 803f 0000 803f 0000 803f 0000 803f
00000070: 0000 803f 0000 803f 0000 803f 0000 803f
00000080: 0000 803f 0000 803f 0000 803f 0000 803f
00000090: 0000 803f 0000 803f 0000 803f 0000 803f
000000a0: 0000 803f 0000 803f 0000 803f 0000 803f
000000b0: 0000 803f 0000 803f 0000 803f 0000 803f
1.0 1.0 1.0 1.0 1.0 1.0 1.0 1.0
1.0 1.0 1.0 1.0 1.0 1.0 1.0 1.0
1.0 1.0 1.0 1.0 1.0 1.0 1.0 1.0
1.0 1.0 1.0 1.0 1.0 1.0 1.0 1.0
1.0 1.0 1.0 1.0 1.0 1.0 1.0 1.0
1.0 1.0 1.0 1.0 1.0 1.0 1.0 1.0

weight f4 [64, 48]
00000000: dec7 f6b1 1922 0a35 3bee 53b5 5483 3db5
00000010: 5b5b c6b4 9f19 8a34 4244 a3b2 792a 4c35
00000020: 7ecd b6b3 5446 8834 15a0 9bb4 a773 4ab4
00000030: 6b07 76b5 e887 2ab5 c648 d4b4 009e 1833
00000040: 6e98 cb34 7982 1a35 3291 2eb5 4542 e0b4
00000050: ae09 bb34 03d1 5535 47f8 53b4 d9ad 4035
00000060: 4701 26b4 21f6 d933 a825 6935 b4df 6eb5
00000070: f619 22b5 be5c 82b4 66bd c8b4 a776 5e35
00000080: c0e6 26b5 d317 edb4 c5e6 33b5 4d29 71b5
00000090: 774e 16b5 2458 5d35 abce e534 fd99 f934
000000a0: 88ac 5833 d405 04b5 df41 2e34 7d6c 70b5
000000b0: ad0d 3ab5 80c0 04b5 2278 2235 08f5 1635
000000c0: 35b4 8c3c a6a2 c4bc 5155 4a3b 2975 433c
000000d0: f457 3f3d 4b64 3b3d a09e 923d 5ee1 2c3b
000000e0: 4dbc 883c efa4 c4bc 1042 4a3b 4a11 453c
000000f0: c9ad 3c3d 5ddd 3d3d 3eef 913d 2dde 333b
00000100: 9fb8 823c dea2 c4bc 104b 4a3b a541 1d3d
00000110: 626c 383d 775b 463d ff5c 923d e661 e23a
00000120: 0be5 833c b7a0 c4bc d459 4a3b 520f 7a3d
00000130: 8670 343d e216 703d 68e6 523d d607 9d3a
00000140: 06e9 953c 9ba0 c4bc 6157 4a3b b4a0 823d
00000150: bd9b 383d dfc9 713d e728 523d a679 4f3b
00000160: 34e9 933c 76a4 c4bc 2650 4a3b 3046 5d3d
00000170: a6e0 3c3d fda8 653d 0474 1d3d 1112 653b
00000180: 20df 963c b787 d1bc c7e7 593b 0a3f 523c
00000190: 3bed 4b3d 6114 483d d8bc 9b3d c755 3a3b
000001a0: cbb3 923c 1688 d1bc 47e8 593b 93e6 533c
000001b0: 6b70 483d e21a 4b3d c1e6 9a3d 4fd0 413b
000001c0: 813d 8c3c a386 d1bc 0900 5a3b 568f 283d
000001d0: 8afa 433d 34e8 533d 4467 9b3d 6721 f43a
000001e0: 7ac0 8d3c f787 d1bc 36ec 593b 84f1 843d
000001f0: d538 403d f109 803d 5f9c 613d 8d58 a93a
00000200: 61f9 a03c 5189 d1bc e6f0 593b 95c9 8a3d
00000210: 6139 443d 624f 813d 743d 603d c28c 5f3b
00000220: 2d59 9f3c 3088 d1bc 92f7 593b e86d 6c3d
00000230: e49c 483d 33de 743d 9b7f 283d fdda 763b
00000240: 1650 67b5 0b2a f4b4 be54 2f35 e0a6 d5b1
00000250: 28fe ffb4 444f 45b5 97fa 70b5 8551 59b5
00000260: 70ea 50b4 7634 0d35 c336 0b35 a354 78b5
00000270: 4e9c 2035 3a7c 49b5 3ebc 59b4 e8cf d0b4
00000280: 9965 46b4 e437 4ab4 7410 67b5 0952 5eb5
00000290: 7f27 21b4 2e1c 5532 66f3 e9b4 0102 c234
000002a0: d1c1 67b5 c805 8bb3 e977 6235 520f d2b4
000002b0: a682 6835 a27e ba34 245f 68b5 8ded 2235
000002c0: 5db8 edb3 62e7 e5b4 8fe7 4d35 c213 50b5
000002d0: b90c dd33 42a6 57b4 f6e1 3735 dac2 8f34
000002e0: b376 f734 01dc b534 4bb0 77b4 c89c 58b4
000002f0: 3b31 54b5 0e86 0b35 1672 4c35 a52f 3035
00000300: 54f5 3eb5 1059 0632 4372 3bb5 895d 17b5
00000310: 9da9 1fb5 dd9a 9c34 a7d0 21b5 de44 75b3
00000320: 13ae bf31 de96 1c35 4f95 48b5 f966 3ab5
00000330: fc25 1fb5 5c7d 2a35 374d cab4 3678 4f35
00000340: 2491 a734 fdc3 b933 876d fbb2 272e 72b4
00000350: 056d b533 57f3 88b4 3c4e 22b3 5b24 b933
00000360: e8c0 52b5 6e5a 10b5 c2f9 4935 5aa1 5ab5
00000370: f8fc e0b3 5a05 7535 744f a834 1dbf 1cb2
00000380: fb81 68b5 7462 ec34 fe5b 3db5 22b7 a5b4
00000390: 8810 c0b4 c04e 40b4 721d afb2 8e8d 4a35
000003a0: ab37 b633 4141 5d35 648f 1735 f08b 2cb5
000003b0: 48aa d334 e6f0 3fb5 b5fb e9b4 25dd 8334
000003c0: 318a 883c 3d76 bfbc 0244 443b 14cd 3d3c
000003d0: fc74 3a3d e55a 363d e29f 8e3d 88b5 273b
000003e0: 43a6 843c ba77 bfbc 0d40 443b 4d49 3f3c
000003f0: c1da 373d a0b7 383d f40c 8e3d 335e 2e3b
-7.1822646e-09 5.1458625e-07 -7.8950296e-07 -7.0599094e-07 -3.6946844e-07 2.5723145e-07 -1.9006738e-08 7.605773e-07
-8.512414e-08 2.5383144e-07 -2.8987475e-07 -1.885479e-07 -9.1652936e-07 -6.3527705e-07 -3.9541027e-07 3.5533958e-08
3.7922604e-07 5.7559333e-07 -6.503134e-07 -4.177147e-07 3.4838507e-07 7.9652835e-07 -1.9741229e-07 7.1778555e-07
-1.546042e-07 1.01496205e-07 8.685406e-07 -8.898744e-07 -6.038748e-07 -2.4281866e-07 -3.7390708e-07 8.2874107e-07
-6.2175604e-07 -4.4162024e-07 -6.701851e-07 -8.9839597e-07 -5.5993536e-07 8.2457177e-07 4.2804945e-07 4.6491905e-07
5.0448335e-08 -4.9182313e-07 1.6228977e-07 -8.956484e-07 -6.93103e-07 -4.9453956e-07 6.052452e-07 5.623592e-07
0.017175773 -0.024003338 0.0030873606 0.011929789 0.046714738 0.045749944 0.071591616 0.0026379446
0.016691351 -0.024004428 0.003086213 0.012028048 0.046064172 0.046353687 0.0712571 0.002744566
0.015957175 -0.024003442 0.0030867495 0.03839268 0.045025237 0.04842707 0.07146644 0.0017271608
0.016100427 -0.024002416 0.0030876296 0.061049767 0.044052623 0.058615573 0.051489264 0.0011980485
0.01829959 -0.024002364 0.0030874836 0.06378308 0.0450704 0.05903041 0.05130854 0.0031658201
0.018055536 -0.024004202 0.0030870526 0.054022014 0.04611268 0.056069363 0.03844072 0.0034953395
0.018416941 -0.02557741 0.0033249722 0.0128324125 0.049786787 0.04884756 0.076043785 0.0028432475
0.017907998 -0.025577586 0.003325002 0.012933391 0.048935335 0.049586184 0.07563544 0.0029573624
0.017119171 -0.025576895 0.003326418 0.04115232 0.047846355 0.051735118 0.07588056 0.0018625677
0.017303694 -0.025577528 0.0033252365 0.06491378 0.0469292 0.06251896 0.055080768 0.0012920067
0.019650163 -0.025578173 0.003325516 0.0677673 0.047906283 0.06313969 0.054746106 0.0034110998
0.019451702 -0.025577635 0.0033259136 0.057722002 0.048977748 0.05978222 0.04113732 0.0037667148
-8.6170746e-07 -4.5479132e-07 6.5315896e-07 -6.2180874e-09 -4.7682374e-07 -7.3503566e-07 -8.9771623e-07 -8.0957426e-07
-1.9456797e-07 5.2602934e-07 5.1861224e-07 -9.251036e-07 5.98321e-07 -7.505911e-07 -2.0278182e-07 -3.889429e-07
-1.8477148e-07 -1.8833049e-07 -8.607815e-07 -8.282082e-07 -1.5008662e-07 1.2404639e-08 -4.3576728e-07 3.6136774e-07
-8.6336246e-07 -6.4737435e-08 8.4366053e-07 -3.9126695e-07 8.6616853e-07 3.4737337e-07 -8.656518e-07 6.0695385e-07
-1.1069708e-07 -4.2822927e-07 7.6705413e-07 -7.751479e-07 1.0293429e-07 -2.008392e-07 6.850163e-07 2.67776e-07
4.60937e-07 3.387395e-07 -2.3067803e-07 -2.0173604e-07 -7.9047794e-07 5.197661e-07 7.616194e-07 6.563444e-07
-7.1137515e-07 7.820077e-09 -6.98292e-07 -5.6387995e-07 -5.9478936e-07 2.9169942e-07 -6.0280803e-07 -5.7106142e-08
5.5786216e-09 5.833407e-07 -7.472308e-07 -6.9440244e-07 -5.928739e-07 6.3512357e-07 -3.7681613e-07 7.728844e-07
3.1211778e-07 8.650384e-08 -2.9270053e-08 -2.2554796e-07 8.4483e-08 -2.5509027e-07 -3.7789718e-08 8.621347e-08
-7.851181e-07 -5.377577e-07 7.524178e-07 -8.1446126e-07 -1.04768276e-07 9.12774e-07 3.1350248e-07 -9.123849e-09
-8.661588e-07 4.403006e-07 -7.0541853e-07 -3.0866892e-07 -3.5774815e-07 -1.7910043e-07 -2.0386071e-08 7.5456853e-07
8.4851614e-08 8.242387e-07 5.6460544e-07 -6.427863e-07 3.9425709e-07 -7.15036e-07 -4.3582773e-07 2.4561555e-07
0.016667457 -0.02337181 0.0029947762 0.011584539 0.04552172 0.044520278 0.06964089 0.0025590379
0.016192561 -0.02337252 0.0029945404 0.011675191 0.044886354 0.045096993 0.06936064 0.002660644

bias f4 [64]
00000000: a865 7035 f550 aa3d 4f33 b53d 89e1 c9b4
00000010: 7049 fe34 102c a63d 44b6 a73d 1952 a83d
00000020: c59c a73d f03d cb34 657d f53b d8bc 1635
00000030: 10d9 9bb4 49e8 ac3d 6509 103d bc2c af3d
00000040: c6fe 5438 45a6 a63d 6a70 af3d 09a4 9f3d
00000050: b3b1 1635 3033 57b4 ab5c 933d 2778 a032
00000060: fdc7 b43d e301 8634 3c81 983d b0c3 1835
00000070: 9d69 ab3d 6602 c7b4 1fbb ac3d 9896 853a
00000080: ebbc b23d 2ac1 ab3d fd03 373d b79a 0135
00000090: 0f02 523d c3d6 ae3d 5b32 0d3a 670e ba3d
000000a0: b224 ac3d cd66 a83d bcb6 a73d 4f27 ab3d
000000b0: 2ae0 0eb4 5e27 6cb4 8e17 a93d de90 3f3c
000000c0: 9630 ad3d 74c7 a63d 6340 a63d f6eb 4db5
000000d0: c6e3 b13d f066 af3d bae7 7e3d e3fc 09b5
000000e0: 9ad1 363c ecc4 af3d 8e81 8db5 333d fb37
000000f0: f865 5d3c 5331 b03b b357 a23d b291 a73d
8.9554896e-07 0.083162226 0.08847677 -3.7603266e-07 4.736462e-07 0.08113873 0.08189061 0.08218784
0.08184198 3.7856762e-07 0.007491755 5.615416e-07 -2.9028934e-07 0.084427424 0.03516521 0.08553454
5.0782015e-05 0.08137182 0.08566363 0.07794959 5.613794e-07 -2.0042057e-07 0.071954094 1.868109e-08
0.08827207 2.4960818e-07 0.074465245 5.6909175e-07 0.083697535 -3.7068384e-07 0.08434128 0.0010191975
0.087274395 0.083864525 0.044681538 4.8281385e-07 0.051271494 0.08537056 0.00053862267 0.09084778
0.084054366 0.08222733 0.08189151 0.08357107 -1.3306331e-07 -2.1993534e-07 0.08256446 0.011692254
0.08456533 0.081435114 0.081177495 -7.671182e-07 0.086860225 0.08564556 0.06223271 -5.1404476e-07
0.011158371 0.08582482 -1.0543024e-06 2.995003e-05 0.013513081 0.0053769737 0.079268835 0.08182086

weight f4 [32, 64]
00000000: 315a 8034 a40b 27b2 e7bd 21b4 6c10 6d34
00000010: ecb2 c5b4 f403 9235 aab3 4635 85c4 3534
00000020: 422e acb4 b116 63b5 4e93 adb4 35df 6635
00000030: c8ed 35b5 bb6f 81b5 d229 9432 e287 7934
00000040: 9ac5 50b5 6263 50b5 d15d d831 08a8 20b4
00000050: be34 2d35 1cbe e534 bd4c 27b5 af23 44b5
00000060: 5890 4735 8b2e 1eb4 31e1 b0b4 b2d1 8c34
00000070: 3a41 7bb4 544d f734 da1d 8234 e59e 99b4
00000080: d48b 33b5 4946 d534 a1f2 ddb4 c51a 5033
00000090: 888a 3934 a3a0 0ab5 7850 2935 5cba feb4
000000a0: e045 6534 6170 1c33 ab16 9234 3993 93b5
000000b0: 261a 4e33 c865 e034 84c9 ecb4 9ac7 8134
000000c0: db8f 41b4 8a0b 3e35 83d2 f8b4 8d40 d333
000000d0: 0ccc e7b4 709a eab3 6fcf b134 5b59 2eb5
000000e0: 6785 2435 fbe3 3b35 33ac f634 5384 3835
000000f0: f8f1 53b4 a7cb 8534 d437 6f33 3632 0eb5
00000100: 5274 abb4 8aa0 b5b4 c725 4bb4 1502 46b5
00000110: 3df3 1fb5 b631 2334 e58a 3fb4 94d2 8db5
00000120: 1eae 0534 1dfc c634 e667 6d35 0246 4335
00000130: 80af 03b5 b094 dcb4 d28c d2b4 a31c dd33
00000140: d86e 8234 9c1e 2534 dd69 e734 8575 1f35
00000150: da56 d6b4 2bf8 5035 edb6 3d35 e484 f333
00000160: 52f8 0bb5 91c5 08b5 c033 5234 716c 8c34
00000170: 8b1e 2e35 9f27 0035 b879 9d34 e715 cfb2
00000180: 79c4 1435 a614 ccb4 b4ad cf34 3c89 9fb4
00000190: efc0 bcb2 ff96 e734 2d94 1835 9bb1 beb3
000001a0: 623b 54b3 f2f7 11b5 7849 b234 677f a334
000001b0: a188 9934 601a 56b5 32e4 1bb5 31b3 1635
000001c0: c0d6 c1b4 12af 0d35 50ab 8334 9149 3eb4
000001d0: 7e70 1db5 fe62 30b5 4edf f334 f830 0435
000001e0: 1b4e 37b4 9fae 35b5 6177 e1b4 ac18 c532
000001f0: da39 c134 28a2 78b4 9f89 1cb5 6a8e 18b5
00000200: 7186 4735 bbd0 7434 1f5d 4db5 f9b7 09b5
00000210: 5fda 36b5 36ba d834 6ba6 dab4 3c45 a6b4
00000220: 5164 63b4 0605 50b5 1cab 23b5 2971 34b5
00000230: c2ef 8eb4 c24f 08b4 9e46 cfb4 0eef cbb3
00000240: 36e8 beb3 f08c 3c35 3318 f7b4 1560 6035
00000250: c725 22b5 93be 0ab5 02c3 a234 a83e 0db5
00000260: 392b 0835 cac3 f6b4 2752 2335 5c18 5135
00000270: 3189 34b3 eee4 4234 0e7e 4e35 4ebe fa34
00000280: 588b 7fb5 380b 11b4 ae5c 4db5 81ce 4835
00000290: 73a9 58b4 b247 fbb3 8924 c1b4 3468 e7b4
000002a0: 1bcc 8b33 420c 2035 2c2d 06b5 2c66 b3b4
000002b0: 85d9 4935 20db 4b35 34c0 3eb4 e2fd 5835
000002c0: 3ceb a332 1e0b 2f35 6edc b4b4 2b1f 3eb5
000002d0: 11b0 aab4 9bfd 8234 f326 f534 1ea7 44b5
000002e0: 6d67 2335 3f93 4cb5 10fb 0c35 3d0a 5535
000002f0: 4fc0 3b34 ebd7 45b4 ca2c d834 f0a4 72b4
00000300: 422d 25b5 7bb6 2eb5 2e5c d734 344e 2a35
00000310: f67b 1033 0a8f 04b5 c0c7 60b5 7aec 05b5
00000320: 59ef c734 9fbd 19b5 1bb0 cf34 efdf fcb4
00000330: bec8 4835 997d e4b4 184f 0fb4 24a8 5eb5
00000340: 685d 42b5 5212 8532 4ddd b133 5a12 1735
00000350: 243f 45b5 2d0e a234 f731 3431 664b ee34
00000360: 78a1 6bb4 f6e0 8434 5783 b134 ed94 df34
00000370: 1262 b3b4 e6a4 9634 ed1a 44b4 2000 8934
00000380: 2f1e 09b5 d243 41b5 9c8b 25b5 6012 d7b4
00000390: f4a0 afb4 65d4 2a33 e539 b0b1 3f4b d3b4
000003a0: 56f8 24b3 3716 afb4 c5e3 fb34 211d 89b5
000003b0: ad9e a4b4 0a16 0fb5 0671 2934 404a a833
000003c0: 0b93 74b4 c756 6435 150a 36b5 565b 0db4
000003d0: b6a2 0d34 a54e 5335 c41a 4835 9463 2734
000003e0: 7ca0 a4b4 a240 c734 2763 2535 95a2 55b3
000003f0: e4ce 0035 51a9 2c35 58bb 03b5 7c28 25b4
2.390748e-07 -9.723326e-09 -1.506338e-07 2.2078319e-07 -3.6824292e-07 1.0878998e-06 7.4022194e-07 1.6928432e-07
-3.2071154e-07 -8.459711e-07 -3.233094e-07 8.6006486e-07 -6.777377e-07 -9.643767e-07 1.7248485e-08 2.3239366e-07
-7.7773586e-07 -7.763066e-07 6.297093e-09 -1.496229e-07 6.452427e-07 4.2792897e-07 -6.2324017e-07 -7.3067616e-07
7.4343325e-07 -1.4731829e-07 -3.2946403e-07 2.6229606e-07 -2.3399926e-07 4.60636e-07 2.4236107e-07 -2.8614082e-07
-6.6886173e-07 3.972548e-07 -4.1340994e-07 4.845312e-08 1.7279865e-07 -5.1642763e-07 6.3074503e-07 -4.744678e-07
2.1352707e-07 3.642379e-08 2.7211112e-07 -1.0995201e-06 4.7986894e-08 4.1797307e-07 -4.4105047e-07 2.4173352e-07
-1.802686e-07 7.079731e-07 -4.6346767e-07 9.837195e-08 -4.3175567e-07 -1.0924566e-07 3.3119747e-07 -6.495008e-07
6.1288887e-07 6.9994684e-07 4.5946362e-07 6.87379e-07 -1.9738934e-07 2.4921357e-07 5.56973e-08 -5.297219e-07
-3.1935866e-07 -3.3830685e-07 -1.8919592e-07 -7.376378e-07 -5.9586074e-07 1.5198643e-07 -1.7838791e-07 -1.0566605e-06
1.2449934e-07 3.706381e-07 8.844057e-07 7.2745036e-07 -4.905669e-07 -4.1086378e-07 -3.9218008e-07 1.02963234e-07
2.4295036e-07 1.5377958e-07 4.310413e-07 5.940313e-07 -3.99238e-07 7.784717e-07 7.067418e-07 1.1339742e-07
-5.214289e-07 -5.0951445e-07 1.95766e-07 2.6155934e-07 6.4864497e-07 4.774137e-07 2.933209e-07 -2.4107932e-08
5.54202e-07 -3.8012985e-07 3.868314e-07 -2.971591e-07 -2.1973817e-08 4.3136967e-07 5.6840037e-07 -8.879871e-08
-4.9414105e-08 -5.437752e-07 3.320854e-07 3.0453813e-07 2.859788e-07 -7.9759593e-07 -5.807407e-07 5.614011e-07
-3.6105303e-07 5.2781354e-07 2.4525298e-07 -1.7721892e-07 -5.8650755e-07 -6.570916e-07 4.5424753e-07 4.924509e-07
-1.7071618e-07 -6.768186e-07 -4.1996375e-07 2.2945038e-08 3.5991144e-07 -2.3155792e-07 -5.8314794e-07 -5.683165e-07
7.4328915e-07 2.2800207e-07 -7.650396e-07 -5.130419e-07 -6.8118055e-07 4.0368622e-07 -4.072675e-07 -3.0970284e-07
-2.1177517e-07 -7.749335e-07 -6.097123e-07 -6.7219895e-07 -2.6624008e-07 -1.2695003e-07 -3.8608135e-07 -9.496408e-08
-8.8898034e-08 7.024055e-07 -4.6024942e-07 8.358632e-07 -6.0404676e-07 -5.168633e-07 3.0316738e-07 -5.261777e-07
5.0726845e-07 -4.5963526e-07 6.084178e-07 7.7894015e-07 -4.203429e-08 1.8150942e-07 7.6924414e-07 4.6704594e-07
-9.5197674e-07 -1.3508259e-07 -7.650332e-07 7.480631e-07 -2.0178213e-07 -1.17011396e-07 -3.5975634e-07 -4.310292e-07
6.5098185e-08 5.962248e-07 -4.9984624e-07 -3.3415688e-07 7.519487e-07 7.594226e-07 -1.7765052e-07 8.083572e-07
1.908267e-08 6.520876e-07 -3.3687996e-07 -7.082587e-07 -3.1793073e-07 2.439891e-07 4.5663145e-07 -7.325888e-07
6.0872736e-07 -7.6210193e-07 5.251941e-07 7.936358e-07 1.7485694e-07 -1.8425605e-07 4.0265724e-07 -2.259801e-07
-6.153315e-07 -6.5085595e-07 4.011394e-07 6.3443736e-07 3.3640355e-08 -4.938198e-07 -8.373718e-07 -4.989048e-07
3.7240787e-07 -5.7272877e-07 3.8684888e-07 -4.710159e-07 7.4797924e-07 -4.2559694e-07 -1.3346687e-07 -8.294612e-07
-7.2406556e-07 1.5491569e-08 8.282459e-08 5.627859e-07 -7.34801e-07 3.0185166e-07 2.622185e-09 4.4385814e-07
-2.1944822e-07 2.4750597e-07 3.3064381e-07 4.1645345e-07 -3.3412704e-07 2.8059657e-07 -1.8263718e-07 2.551833e-07
-5.10804e-07 -7.1996794e-07 -6.167045e-07 -4.006024e-07 -3.27134e-07 3.977438e-08 -5.128856e-09 -3.935656e-07
-3.8410086e-08 -3.2612454e-07 4.6918117e-07 -1.0215773e-06 -3.0662832e-07 -5.330372e-07 1.5780469e-07 7.8366156e-08
-2.2777765e-07 8.5062896e-07 -6.7814955e-07 -1.3164876e-07 1.3190842e-07 7.871807e-07 7.4544755e-07 1.5589313e-07
-3.0664148e-07 3.7113665e-07 6.1611576e-07 -4.9740795e-08 4.798478e-07 6.432138e-07 -4.9073924e-07 -1.538155e-07

bias f4 [32]
00000000: 410d f334 ea4a f5b4 1212 c134 0e20 50b3
00000010: 4db0 c53d 5f7c 4d35 7fb0 28b5 b7d4 3f35
00000020: 46eb c53d 0039 5fb5 cdda 6034 cb10 c13d
00000030: 3556 c53d 217a be3d 796e 54b5 43e1 8134
00000040: 0535 96b4 f107 4235 5f2d 3435 2afa 9934
00000050: 4db4 fb34 5e91 3c34 6bfe c43d 7e5e f3b3
00000060: 391f c53d 4d88 c23d 6c83 04b4 bc89 86b4
00000070: 209e e9b4 9db6 c434 e905 c53d 36b0 c53d
4.527192e-07 -4.5689313e-07 3.59622e-07 -4.8457927e-08 0.09652767 7.6549435e-07 -6.284171e-07 7.1462586e-07
0.096640155 -8.315692e-07 2.0941225e-07 0.09427031 0.09635583 0.09300638 -7.9136913e-07 2.4192022e-07
-2.7978254e-07 7.228219e-07 6.712125e-07 2.868049e-07 4.688358e-07 1.7561749e-07 0.09618839 -1.1332757e-07
0.09625096 0.094986536 -1.2341269e-07 -2.505966e-07 -4.3514683e-07 3.6640714e-07 0.09620268 0.0965275

weight f4 [1, 32]
00000000: 3eb2 96b4 166d 1fb3 180f 80b3 74a2 3fb4
00000010: 27e4 ae3e 53f7 1234 2f74 4e33 8a42 a8b3
00000020: 7a1c af3e 36db 4ab4 4519 c4b4 e7ac ab3e
00000030: 938d ae3e 8638 aa3e 3837 5fb4 9341 8133
00000040: 252f 2834 88ab 54b4 5b4d 3ab3 25d6 4433
00000050: 2235 b7b3 6dc9 38b3 9c3a ae3e 8f33 34b3
00000060: 0c5b ae3e 7a64 ac3e 2760 7932 358f 9db3
00000070: 4edc 94b4 b161 41b4 f341 ae3e 44e4 ae3e
-2.8069365e-07 -3.7119285e-08 -5.96321e-08 -1.7847361e-07 0.3415844 1.3687286e-07 4.806878e-08 -7.835213e-08
0.34201413 -1.8892464e-07 -3.652623e-07 0.33530352 0.34092388 0.3324625 -2.0788582e-07 6.0189585e-08
1.566337e-07 -1.9806441e-07 -4.3376854e-08 4.582957e-08 -8.5312664e-08 -4.3024034e-08 0.3402909 -4.1956408e-08
0.34053838 0.33670408 1.451557e-08 -7.3369314e-08 -2.772744e-07 -1.8010066e-07 0.3403469 0.34158528
