ElegantRL/EntornoObservacionesAccionesMejorado/2Msteps_TD3_0/cri.pth (torch, 26885 bytes, 8 tensors)

state_avg f4 [48]
0.0 0.0 0.0 0.0 0.0 0.0 0.0 0.0
0.0 0.0 0.0 0.0 0.0 0.0 0.0 0.0
0.0 0.0 0.0 0.0 0.0 0.0 0.0 0.0
0.0 0.0 0.0 0.0 0.0 0.0 0.0 0.0
0.0 0.0 0.0 0.0 0.0 0.0 0.0 0.0
0.0 0.0 0.0 0.0 0.0 0.0 0.0 0.0
00000000: 0000 0000 0000 0000 0000 0000 0000 0000
00000010: 0000 0000 0000 0000 0000 0000 0000 0000
00000020: 0000 0000 0000 0000 0000 0000 0000 0000
00000030: 0000 0000 0000 0000 0000 0000 0000 0000
00000040: 0000 0000 0000 0000 0000 0000 0000 0000
00000050: 0000 0000 0000 0000 0000 0000 0000 0000
00000060: 0000 0000 0000 0000 0000 0000 0000 0000
00000070: 0000 0000 0000 0000 0000 0000 0000 0000
00000080: 0000 0000 0000 0000 0000 0000 0000 0000
00000090: 0000 0000 0000 0000 0000 0000 0000 0000
000000a0: 0000 0000 0000 0000 0000 0000 0000 0000
000000b0: 0000 0000 0000 0000 0000 0000 0000 0000

state_std f4 [48]
1.0 1.0 1.0 1.0 1.0 1.0 1.0 1.0
1.0 1.0 1.0 1.0 1.0 1.0 1.0 1.0
1.0 1.0 1.0 1.0 1.0 1.0 1.0 1.0
1.0 1.0 1.0 1.0 1.0 1.0 1.0 1.0
1.0 1.0 1.0 1.0 1.0 1.0 1.0 1.0
1.0 1.0 1.0 1.0 1.0 1.0 1.0 1.0
00000000: 0000 803f 0000 803f 0000 803f 0000 803f
00000010: 0000 803f 0000 803f 0000 803f 0000 803f
00000020: 0000 803f 0000 803f 0000 803f 0000 803f
00000030: 0000 803f 0000 803f 0000 803f 0000 803f
00000040: 0000 803f 0000 803f 0000 803f 0000 803f
00000050: 0000 803f 0000 803f 0000 803f 0000 803f
00000060: 0000 803f 0000 803f 0000 803f 0000 803f
00000070: 0000 803f 0000 803f 0000 803f 0000 803f
00000080: 0000 803f 0000 803f 0000 803f 0000 803f
00000090: 0000 803f 0000 803f 0000 803f 0000 803f
000000a0: 0000 803f 0000 803f 0000 803f 0000 803f
000000b0: 0000 803f 0000 803f 0000 803f 0000 803f

weight f4 [64, 49]
-0.046535216 -0.2059292 0.21861216 0.024865981 0.08183146 0.14517966 -0.12506628 0.11968134
0.17497468 -0.2059292 0.21861216 -0.05093832 0.082346015 0.12025723 -0.16667779 0.09922892
0.072957255 -0.2059292 0.21861216 -0.09042547 0.04136414 0.035210982 0.27940613 0.079122506
0.01085527 -0.2059292 0.21861216 0.026536923 -0.014934834 -0.0010031804 0.06716587 0.37547237
0.28219947 -0.2059292 0.21861216 0.19394268 0.061507188 -0.01161704 -0.12482563 0.47087112
-0.26715177 -0.2059292 0.21861216 -0.21544841 -0.113149285 0.33402058 0.41458988 0.1012693
0.09484326 -0.046535134 -0.20593086 0.21861246 0.024866048 0.08183043 0.14517899 -0.12507123
0.11968147 0.17497472 -0.20593086 0.21861246 -0.05093785 0.08234487 0.12025621 -0.16668375
0.09922909 0.07295748 -0.20593086 0.21861246 -0.090425864 0.041363023 0.03520998 0.27940005
0.079122536 0.010855266 -0.20593086 0.21861246 0.026535476 -0.014936039 -0.0010045364 0.067163356
0.3754727 0.28219917 -0.20593086 0.21861246 0.19394115 0.061506048 -0.011618477 -0.1248295
0.47087038 -0.26715168 -0.20593086 0.21861246 -0.21544981 -0.11315045 0.3340199 0.41458791
0.1012697 0.094842434 -4.2962183e-12 -3.7623593e-12 2.1427022e-12 -2.5043925e-12 2.5024172e-14 1.0069395e-12
3.917242e-12 3.518893e-12 3.6013013e-12 2.5644e-13 3.5622705e-12 -2.953834e-12 -2.525343e-12 -9.989078e-13
-3.664194e-12 5.628945e-12 -9.66745e-13 1.8343749e-12 -1.9619309e-13 -8.629547e-14 -3.3633521e-12 -4.6320565e-13
-5.644643e-12 -3.01734e-12 4.8553284e-12 -5.918081e-12 1.0382435e-12 1.0051812e-12 -6.03907e-12 1.2323862e-12
2.9300325e-12 4.569767e-12 1.1809015e-12 4.9321693e-12 2.3751408e-13 2.4042266e-12 1.8625162e-12 -4.652302e-12
-1.3850418e-12 -4.4428376e-12 4.902522e-12 3.010073e-12 -2.6759998e-12 -1.1545987e-12 1.6845887e-12 -5.501401e-12
1.7816609e-13 3.0098187e-12 7.9062326e-13 -9.744727e-13 4.4508186e-12 2.3707247e-12 -6.002045e-12 3.3194437e-12
-5.354179e-12 3.1519533e-12 4.9198597e-12 1.8750715e-13 -1.7375255e-12 -3.633357e-12 -3.1950339e-12 -1.5567287e-12
-3.0056515e-12 5.8719895e-12 -3.1149605e-12 2.2256231e-12 -5.456114e-12 2.8245782e-12 4.976056e-12 -4.9166157e-12
-2.0008693e-12 1.1112487e-12 -6.4332988e-12 -4.3865523e-12 2.5891613e-12 5.567304e-12 -2.2782084e-12 -4.511323e-13
-6.4833672e-12 -6.4477525e-12 5.0937596e-12 4.960712e-12 -1.528124e-12 -2.8685411e-12 -8.018135e-13 2.534253e-12
-6.4901673e-12 -3.885633e-12 -2.4736515e-12 -3.1403634e-12 2.2832476e-13 4.2285073e-12 9.845457e-13 -6.1042677e-12
5.443062e-12 4.6886783e-12 1.5933721e-12 2.6941674e-12 1.6762778e-12 5.032665e-12 -6.1641573e-12 -4.233123e-12
-1.1125299e-12 -1.5015782e-12 -4.7514844e-12 -6.616975e-12 -5.4748614e-12 -1.1189903e-12 5.2604223e-12 3.8934108e-12
1.5097665e-12 -4.1637045e-12 -3.1201276e-12 1.9609497e-13 -6.5599162e-12 -4.2701503e-13 1.1872401e-12 5.3635876e-12
-1.9677062e-12 5.856749e-12 -8.904544e-14 -4.6418546e-12 5.308419e-12 5.3310685e-12 -5.081289e-12 -3.930609e-12
2.7080827e-12 -4.1697817e-12 4.0263617e-12 -3.2301046e-12 -2.6167844e-12 -1.9502956e-12 5.923842e-12 -2.416351e-12
-1.5343852e-12 3.556325e-12 -4.5924913e-12 -2.8259743e-13 -5.50292e-12 -5.962619e-12 -1.5363318e-12 4.369203e-13
5.076256e-12 -6.3014776e-12 -1.9443962e-12 1.469288e-12 2.5336788e-12 -0.04653445 -0.20593578 0.21861397
0.024866669 0.08182685 0.14517686 -0.12508555 0.11968196 0.17497522 -0.20593578 0.21861397
00000000: b69b 3ebd 1bdf 52be dedb 5f3e beb3 cb3c
00000010: 4197 a73d faa9 143e 6011 00be 7e1b f53d
00000020: 902c 333e 1bdf 52be dedb 5f3e b3a4 50bd
00000030: 07a5 a83d 6c49 f63d 95ad 2abe 8838 cb3d
00000040: 9d6a 953d 1bdf 52be dedb 5f3e fd30 b9bd
00000050: 726d 293d 6439 103d 520e 8f3e fb0a a23d
00000060: 4dda 313c 1bdf 52be dedb 5f3e f663 d93c
00000070: 3cb1 74bc 267d 83ba 428e 893d ea3d c03e
00000080: 737c 903e 1bdf 52be dedb 5f3e e998 463e
00000090: f6ee 7b3d 6655 3ebc 94a4 ffbd 0516 f13e
000000a0: 1ec8 88be 1bdf 52be dedb 5f3e 829e 5cbe
000000b0: d0ba e7bd bf04 ab3e 2045 d43e 4766 cf3d
000000c0: 2f3d c23d a09b 3ebd 8adf 52be f2db 5f3e
000000d0: e2b3 cb3c b696 a73d cda9 143e ac12 00be
000000e0: 8f1b f53d 932c 333e 8adf 52be f2db 5f3e
000000f0: 35a4 50bd 6da4 a83d e348 f63d 25af 2abe
00000100: 9f38 cb3d bb6a 953d 8adf 52be f2db 5f3e
00000110: 3231 b9bd 466c 293d 5738 103d 860d 8f3e
00000120: ff0a a23d 49da 313c 8adf 52be f2db 5f3e
00000130: ed60 d93c 4ab6 74bc a6aa 83ba f18c 893d
00000140: f53d c03e 697c 903e 8adf 52be f2db 5f3e
00000150: 8298 463e c4ed 7b3d 6d5b 3ebc 9ca6 ffbd
00000160: ec15 f13e 1bc8 88be 8adf 52be f2db 5f3e
00000170: e09e 5cbe 6cbb e7bd a804 ab3e de44 d43e
00000180: 7d66 cf3d c03c c23d e528 97ac 5260 84ac
00000190: 7ec7 162c 203b 30ac d065 e128 d2b6 8d2b
000001a0: 61d3 892c be9e 772c 476b 7d2c e65c 902a
000001b0: 29ac 7a2c 8bdb 4fac 89b4 31ac 7295 8cab
000001c0: 20ec 80ac 070d c62c a90e 88ab 2915 012c
000001d0: cfe4 5caa f451 c2a9 c4ac 6cac 7c61 02ab
000001e0: 6d9a c6ac 9153 54ac e9d4 aa2c 5639 d0ac
000001f0: aa1e 922b 7877 8d2b 1b7b d4ac 6471 ad2b
00000200: c62e 4e2c cdc8 a02c 7632 a62b 0889 ad2c
00000210: 63b5 852a b22e 292c 1c10 032c 36b0 a3ac
00000220: 64ed c2ab 8651 9cac fe7d ac2c a8d0 532c
00000230: 874e 3cac cd7e a2ab b415 ed2b 3790 c1ac
00000240: e198 482a 13cc 532c 698a 5e2b 1425 89ab
00000250: 6999 9c2c 2ed3 262c 9e2d d3ac c895 692c
00000260: 2862 bcac 8bcc 5d2c 281a ad2c 421d 532a
00000270: f488 f4ab beac 7fac 9dd4 60ac 1017 dbab
00000280: 0181 53ac 2e9a ce2c 2432 5bac 439d 1c2c
00000290: 4ef8 bfac 14c3 462c 5414 af2c f0fc acac
000002a0: 75cc 0cac f464 9c2b 015a e2ac 8d56 9aac
000002b0: 2f32 362c d1e1 c32c 8e50 20ac 04f7 fdaa
000002c0: fb1c e4ac 31dc e2ac 8238 b32c 1f8a ae2c
000002d0: 7810 d7ab 0bdb 49ac c0b0 61ab 0b55 322c
000002e0: 3b5a e4ac acb6 88ac 5811 2eac c2fb 5cac
000002f0: 1189 802a 02c7 942c ff8f 8a2b 5bc6 d6ac
00000300: be82 bf2c dcf7 a42c 483f e02b ce95 3d2c
00000310: 46ea eb2b 3712 b12c cbe1 d8ac 95f0 94ac
00000320: 1d93 9cab 0e54 d3ab 912d a7ac 6ad0 e8ac
00000330: 2ba1 c0ac e07b 9dab ac15 b92c bafc 882c
00000340: 127b d42b 517f 92ac 398f 5bac 87c8 5c2a
00000350: 79ce e6ac 5a63 f0aa d516 a72b e7b6 bc2c
00000360: 0b77 0aac e810 ce2c 3483 c8a9 1c52 a3ac
00000370: fdc5 ba2c ff91 bb2c 2fc8 b2ac c74b 8aac
00000380: 7b90 3e2c 0eb6 92ac 3eaa 8d2c 644c 63ac
00000390: cc23 38ac 673d 09ac 3a6d d02c 1c09 2aac
000003a0: 0ef2 d7ab 0e41 7a2c 7c95 a1ac 9516 9faa
000003b0: e69d c1ac 7fca d1ac 3038 d8ab daf6 f52a
000003c0: d99a b22c aab6 ddac 21d3 08ac aec8 ce2b
000003d0: b34a 322c e89a 3ebd d4e0 52be 57dc 5f3e
000003e0: 2fb5 cb3c d694 a73d 3ea9 143e 6d16 00be
000003f0: d11b f53d b42c 333e d4e0 52be 57dc 5f3e

bias f4 [64]
0.28316864 0.28316835 -5.190529e-12 -5.3193804e-12 -1.8366516e-13 0.28316748 -6.3710964e-12 0.2831679
0.28316832 0.28316802 0.22702391 0.28316867 2.3554912e-12 0.2831685 0.28316867 0.28316855
-0.16562027 -3.3702945e-12 0.28316724 0.2831685 0.12938438 -2.1925244e-12 0.2831685 -0.16561311
0.28316888 0.28316832 -2.2343037e-12 0.2831677 0.28316894 -0.02249765 0.28316846 0.28316814
0.2831679 -1.6664797e-12 0.28316933 0.28316787 -6.2707686e-12 0.283168 -3.8548587e-12 0.28316793
0.28316903 1.0009274 0.2831674 0.2831691 0.28316835 0.2831678 0.28316823 -2.4590271e-12
0.2831678 0.2831681 -3.6458362e-12 0.2831684 0.28316838 0.28316757 0.2831684 0.28316906
0.03395154 0.28316852 0.283168 0.28316844 3.2501534e-12 0.22702393 0.28316897 0.28316844
00000000: 7bfb 903e 71fb 903e 21a0 b6ac b828 bbac
00000010: e1c9 4eaa 54fb 903e bc29 e0ac 62fb 903e
00000020: 70fb 903e 66fb 903e f578 683e 7cfb 903e
00000030: c2c0 252c 76fb 903e 7cfb 903e 78fb 903e
00000040: 5c98 29be d429 6dac 4cfb 903e 76fb 903e
00000050: 577d 043e 0249 1aac 76fb 903e 7c96 29be
00000060: 83fb 903e 70fb 903e a339 1dac 5bfb 903e
00000070: 85fb 903e fe4c b8bc 75fb 903e 6afb 903e
00000080: 62fb 903e 4289 eaab 92fb 903e 61fb 903e
00000090: 10a2 dcac 65fb 903e 7ba1 87ac 63fb 903e
000000a0: 88fb 903e 641e 803f 51fb 903e 8afb 903e
000000b0: 71fb 903e 5ffb 903e 6dfb 903e e509 2dac
000000c0: 5ffb 903e 69fb 903e c646 80ac 73fb 903e
000000d0: 72fb 903e 57fb 903e 73fb 903e 89fb 903e
000000e0: c510 0b3d 77fb 903e 65fb 903e 74fb 903e
000000f0: 8fb5 642c f678 683e 86fb 903e 74fb 903e

weight f4 [32, 64]
0.24850743 0.24850781 5.949606e-13 5.002028e-12 4.0590578e-12 0.24851121 4.279003e-12 0.24850874
0.2485083 0.2485088 0.30545008 0.24850811 -4.5373874e-12 0.24850819 0.24850778 0.24850783
-1.3526701 -4.0823725e-12 0.24851093 0.24850795 -1.7640378 -6.8549268e-12 0.248508 -1.3526664
0.24850723 0.24850807 7.895366e-13 0.24850908 0.24850717 -1.5724291 0.24850842 0.24850868
0.24850862 2.966144e-12 0.2485065 0.24850881 2.0766895e-12 0.24850842 3.808651e-12 0.24850929
0.2485072 2.1425922 0.24851009 0.24850725 0.24850811 0.24850868 0.2485084 2.2905135e-12
0.24850865 0.24850862 4.3088597e-12 0.248508 0.24850842 0.24850988 0.24850778 0.24850719
10.731869 0.24850774 0.24850845 0.24850845 -5.007068e-12 0.30545053 0.24850734 0.24850851
-2.7050849e-12 3.1326205e-12 -6.012996e-13 2.769543e-12 -6.1413125e-13 1.7894335e-12 -2.4205917e-12 -5.305714e-12
2.2140371e-12 -3.2536272e-12 3.3580237e-12 -3.3474384e-13 -2.250485e-12 4.2781278e-12 4.0636383e-12 -3.9542644e-12
2.4808855e-12 1.5837541e-12 -4.085423e-12 8.318408e-14 -4.6631895e-12 1.9491838e-13 -5.944749e-12 4.8031917e-12
1.4784106e-12 3.4551411e-12 1.0703997e-12 -3.2986931e-12 1.6070865e-12 2.9851087e-12 1.9253251e-12 -1.6380936e-12
4.7322276e-12 -3.5214535e-12 -6.046811e-12 6.230112e-13 4.9887104e-12 7.2318426e-14 -1.851153e-12 -5.635432e-12
2.4957176e-12 -5.7131036e-12 -3.027526e-12 1.92528e-12 -4.148688e-12 -4.7488393e-12 -3.7574254e-12 2.6367593e-12
-2.8209741e-12 -2.0808964e-12 -1.428854e-12 1.8450935e-12 3.9015982e-12 -4.2976847e-13 -9.640501e-13 -1.7854726e-12
1.886982e-12 2.7620035e-12 4.9103695e-13 2.5729982e-12 -1.735599e-12 -1.0724509e-12 -5.6436396e-12 1.6638344e-12
0.2485074 0.24850793 -5.401435e-12 7.764291e-14 2.0627523e-12 0.24851108 -9.197326e-13 0.24850874
0.24850848 0.24850877 0.3054502 0.24850847 4.697946e-12 0.24850816 0.24850784 0.24850789
-1.3526698 4.4291875e-12 0.24851081 0.24850768 -1.764038 -5.434442e-12 0.24850804 -1.3526667
0.24850762 0.24850813 -7.3967525e-13 0.2485095 0.24850726 -1.5724288 0.24850854 0.24850859
0.24850863 4.5034094e-12 0.24850653 0.24850899 -1.7532952e-12 0.24850854 -1.6490458e-12 0.2485092
0.24850702 2.142592 0.24851052 0.24850737 0.24850793 0.24850883 0.24850833 -3.0923755e-12
0.2485087 0.2485088 4.549046e-12 0.24850804 0.2485084 0.24850965 0.2485079 0.24850719
10.731868 0.24850789 0.24850836 0.24850845 -3.6986954e-12 0.30545053 0.24850748 0.2485084
-6.0360753e-12 -7.0394398e-12 7.059276e-13 -1.0632643e-12 1.6919156e-12 -3.7467737e-12 4.276093e-12 -7.52981e-12
-7.2562668e-12 2.2451598e-12 -4.2554692e-12 -1.3789995e-12 2.01197e-12 -1.8217765e-12 -6.095608e-12 -2.1524612e-12
-6.840466e-12 4.6571943e-12 -7.1379697e-13 1.8135281e-12 7.4104703e-13 2.1427363e-12 -7.5339447e-13 -1.228128e-13
-6.26937e-12 1.7440922e-12 -1.186735e-12 1.8440514e-12 -3.1243313e-12 5.544135e-13 1.4571033e-12 -1.3816758e-12
-3.5024687e-12 2.2518849e-12 -8.3749336e-12 -2.8724505e-12 -1.1240313e-12 -6.6094703e-12 -4.681782e-13 -1.2665367e-12
-8.241373e-12 1.2586877e-12 9.31982e-13 2.557827e-12 -5.0656094e-12 -6.470479e-12 7.8743907e-13 5.1891265e-12
-5.178325e-12 -5.7066886e-12 -4.0735162e-13 2.538539e-12 -2.9897406e-12 -7.732592e-12 -5.050628e-12 -6.0324267e-12
1.4006272e-12 -6.6545723e-12 1.5153902e-12 -6.388591e-13 -4.9294705e-13 -3.216377e-12 2.566164e-13 -5.588187e-12
00000000: bb78 7e3e d578 7e3e 6e77 272b 43fe af2c
00000010: bed0 8e2c b979 7e3e d58d 962c 1379 7e3e
00000020: f678 7e3e 1779 7e3e f463 9c3e e978 7e3e
00000030: 27a5 9fac ee78 7e3e d378 7e3e d678 7e3e
00000040: 4b24 adbf bea2 8fac a679 7e3e de78 7e3e
00000050: fecb e1bf b12f f1ac e278 7e3e 2c24 adbf
00000060: ae78 7e3e e678 7e3e 1c3c 5e2b 2a79 7e3e
00000070: aa78 7e3e 5b45 c9bf fe78 7e3e 0f79 7e3e
00000080: 0b79 7e3e 4db9 502c 7d78 7e3e 1879 7e3e
00000090: 5022 122c fe78 7e3e 4701 862c 3879 7e3e
000000a0: ac78 7e3e 3b20 0940 6e79 7e3e af78 7e3e
000000b0: e978 7e3e 0f79 7e3e fc78 7e3e 392e 212c
000000c0: 0d79 7e3e 0b79 7e3e c29a 972c e278 7e3e
000000d0: fe78 7e3e 6079 7e3e d378 7e3e ab78 7e3e
000000e0: bcb5 2b41 d078 7e3e 0079 7e3e 0079 7e3e
000000f0: a92b b0ac 0364 9c3e b578 7e3e 0479 7e3e
00000100: 7a5a 3eac 4670 5c2c 3440 29ab a7e3 422c
00000110: d2dc 2cab 23d7 fb2b 8155 2aac a0ad baac
00000120: 8ccc 1b2c 23f4 64ac c74c 6c2c ac71 bcaa
00000130: 225d 1eac f385 962c 00fa 8e2c d920 8bac
00000140: a993 2e2c c1e4 de2b 38be 8fac 5b50 bb29
00000150: 4712 a4ac 6675 5b2a 8a29 d1ac 4eff a82c
00000160: 5b11 d02b 4a22 732c 37a5 962b f91f 68ac
00000170: 652d e22b f00e 522c 937b 072c 8b8a e6ab
00000180: 1e80 a62c decc 77ac d5c0 d4ac b05c 2f2b
00000190: 4f86 af2c bcd8 a229 6843 02ac 7547 c6ac
000001a0: da9e 2f2c 1003 c9ac 0f0b 55ac c37a 072c
000001b0: 0ff8 91ac be15 a7ac e133 84ac a28b 392c
000001c0: 2782 46ac 196e 12ac e417 c9ab 40d6 012c
000001d0: 7946 892c 2af0 f1aa 91ad 87ab 6e48 fbab
000001e0: d9c8 042c d55b 422c f136 0a2b 040f 352c
000001f0: 8b43 f4ab 1eef 96ab 6391 c6ac f429 ea2b
00000200: b978 7e3e dd78 7e3e cd0b beac 17d6 ae29
00000210: 3e27 112c b079 7e3e dc70 81ab 1379 7e3e
00000220: 0279 7e3e 1579 7e3e f863 9c3e 0179 7e3e
00000230: 564b a52c ec78 7e3e d778 7e3e da78 7e3e
00000240: 4924 adbf 93d6 9b2c 9e79 7e3e cc78 7e3e
00000250: ffcb e1bf 1a35 bfac e478 7e3e 2f24 adbf
00000260: c878 7e3e ea78 7e3e 3833 50ab 4679 7e3e
00000270: b078 7e3e 5945 c9bf 0679 7e3e 0979 7e3e
00000280: 0c79 7e3e 1b73 9e2c 7f78 7e3e 2479 7e3e
00000290: 1ec1 f6ab 0679 7e3e 2315 e8ab 3279 7e3e
000002a0: a078 7e3e 3a20 0940 8b79 7e3e b778 7e3e
000002b0: dd78 7e3e 1979 7e3e f878 7e3e 499b 59ac
000002c0: 1179 7e3e 1779 7e3e 2a0e a02c e478 7e3e
000002d0: fc78 7e3e 5079 7e3e db78 7e3e ab78 7e3e
000002e0: bbb5 2b41 da78 7e3e fa78 7e3e 0079 7e3e
000002f0: e322 82ac 0364 9c3e bf78 7e3e fc78 7e3e
00000300: 2260 d4ac a3ad f7ac 72b3 462b 22a4 95ab
00000310: af1d ee2b f0d3 83ac 9f73 962c 4077 04ad
00000320: a44e ffac 34fd 1d2c dcb9 95ac b113 c2ab
00000330: 6e94 0d2c 3532 00ac 5b78 d6ac 4b77 17ac
00000340: 71ad f0ac 47dc a32c 7eea 48ab 3c3b ff2b
00000350: 1196 502b 1bc8 162c cb0f 54ab 6146 0aaa
00000360: 7795 dcac 8b75 f52b a204 a7ab 7ac3 012c
00000370: f3da 5bac b40d 1c2b ae11 cd2b 1e74 c2ab
00000380: de76 76ac 5a76 1e2c 5955 13ad 7821 4aac
00000390: 7f31 9eab d18c e8ac cbc7 03ab cb3f b2ab
000003a0: d8fb 10ad 0125 b12b 312a 832b b7fd 332c
000003b0: f43a b2ac e5a8 e3ac f7a4 5d2b 7f93 b62c
000003c0: 3532 b6ac 48c9 c8ac 8e51 e5aa 41a2 322c
000003d0: 6162 52ac 8008 08ad 03b4 b1ac 453f d4ac
000003e0: ea1e c52b 0f23 eaac b045 d52b a6d2 33ab
000003f0: 94c0 0aab 1955 62ac 5276 902a ea9d c4ac

bias f4 [32]
0.32233545 3.8872443e-12 0.3223352 2.0703071e-13 0.32233548 0.32233515 -4.352426e-12 0.3223354
-2.145517e-12 0.3223354 -1.6546175e-12 0.32233524 0.32233548 0.3223354 0.3223354 -5.125405e-12
-4.509744e-12 -4.047658e-12 0.32233536 1.6618371 -4.69391e-12 0.3223355 0.3223354 -4.705436e-12
3.3176344e-12 -7.890028e-13 -2.5605395e-12 1.3205176e-12 -8.028869e-12 0.3223355 3.172385e-12 3.7299577e-12
00000000: 2709 a53e 2fc5 882c 1f09 a53e 8a18 692a
00000010: 2809 a53e 1d09 a53e 2b23 99ac 2509 a53e
00000020: 33fa 16ac 2509 a53e e1dd e8ab 2009 a53e
00000030: 2809 a53e 2509 a53e 2509 a53e 8b55 b4ac
00000040: 2aac 9eac 106a 8eac 2409 a53e 14b7 d43f
00000050: fc26 a5ac 2909 a53e 2509 a53e cd8e a5ac
00000060: 3075 692c a515 5eab 942e 34ac a9d8 b92b
00000070: d03e 0dad 2909 a53e 9c3c 5f2c 793c 832c

weight f4 [2, 32]
4.3911943 -5.815286e-12 4.3911943 -3.285467e-12 4.391194 4.391193 -6.460858e-12 4.3911934
4.3790275e-12 4.391194 2.027304e-12 4.391194 4.3911934 4.3911934 4.391194 -4.2884807e-14
-5.109926e-13 -3.640311e-12 4.3911924 2.288896 -2.1998646e-12 4.391194 4.391194 4.3889436e-12
-2.9775874e-12 -3.0486692e-12 -1.8105691e-12 7.715755e-13 -2.2992722e-15 4.3911934 -1.3658007e-11 -2.3387312e-12
4.391193 -3.3015184e-13 4.391193 2.9823425e-12 4.3911943 4.391194 6.1560557e-12 4.391194
-4.23179e-12 4.3911934 -2.8860833e-12 4.391194 4.391192 4.391194 4.3911934 -2.2997804e-13
-6.093751e-14 -8.316407e-12 4.391193 2.2888966 5.304478e-12 4.3911924 4.391195 -6.5908164e-12
2.5663618e-12 -3.6303907e-12 -2.0249072e-12 -1.6301225e-12 -4.103817e-12 4.391194 -1.2937461e-11 -8.789395e-13
00000000: aa84 8c40 719b ccac aa84 8c40 b631 67ac
00000010: a984 8c40 a784 8c40 3c52 e3ac a884 8c40
00000020: c612 9a2c a984 8c40 aaa8 0e2c a984 8c40
00000030: a884 8c40 a884 8c40 a984 8c40 d122 41a9
00000040: e6d4 0fab 0215 80ac a684 8c40 467d 1240
00000050: 3dcd 1aac a984 8c40 a984 8c40 176c 9a2c
00000060: 7287 51ac f187 56ac a0d0 feab e02d 592b
00000070: 16ae 25a7 a884 8c40 3246 70ad d692 24ac
00000080: a784 8c40 e5db b9aa a784 8c40 1bdd 512c
00000090: aa84 8c40 a984 8c40 d298 d82c a984 8c40
000000a0: 93e4 94ac a884 8c40 0e17 4bac a984 8c40
000000b0: a584 8c40 a984 8c40 a884 8c40 5477 81aa
000000c0: 1538 89a9 c44d 12ad a784 8c40 487d 1240
000000d0: 7ea2 ba2c a684 8c40 ab84 8c40 cce4 e7ac
000000e0: 7797 342c 4e77 7fac 7c7d 0eac 5a6b e5ab
000000f0: e663 90ac a984 8c40 2599 63ad 4466 77ab

bias f4 [2]
0.32308117 0.3230914
00000000: e56a a53e 3c6c a53e
