ElegantRL/EntornoObservacionesAccionesMejorado/2Msteps_TD3_0/cri_target.pth (torch, 27573 bytes, 8 tensors)

state_avg f4 [48]
000000 00 00 00 00 00 00 00 00 00 00 00 00 00 00 00 00
       0.0 0.0 0.0 0.0
000010 00 00 00 00 00 00 00 00 00 00 00 00 00 00 00 00
       0.0 0.0 0.0 0.0
000020 00 00 00 00 00 00 00 00 00 00 00 00 00 00 00 00
       0.0 0.0 0.0 0.0
000030 00 00 00 00 00 00 00 00 00 00 00 00 00 00 00 00
       0.0 0.0 0.0 0.0
000040 00 00 00 00 00 00 00 00 00 00 00 00 00 00 00 00
       0.0 0.0 0.0 0.0
000050 00 00 00 00 00 00 00 00 00 00 00 00 00 00 00 00
       0.0 0.0 0.0 0.0
000060 00 00 00 00 00 00 00 00 00 00 00 00 00 00 00 00
       0.0 0.0 0.0 0.0
000070 00 00 00 00 00 00 00 00 00 00 00 00 00 00 00 00
       0.0 0.0 0.0 0.0
000080 00 00 00 00 00 00 00 00 00 00 00 00 00 00 00 00
       0.0 0.0 0.0 0.0
000090 00 00 00 00 00 00 00 00 00 00 00 00 00 00 00 00
       0.0 0.0 0.0 0.0
0000a0 00 00 00 00 00 00 00 00 00 00 00 00 00 00 00 00
       0.0 0.0 0.0 0.0
0000b0 00 00 00 00 00 00 00 00 00 00 00 00 00 00 00 00
       0.0 0.0 0.0 0.0

state_std f4 [48]
000000 00 00 80 3f 00 00 80 3f 00 00 80 3f 00 00 80 3f
       1.0 1.0 1.0 1.0
000010 00 00 80 3f 00 00 80 3f 00 00 80 3f 00 00 80 3f
       1.0 1.0 1.0 1.0
000020 00 00 80 3f 00 00 80 3f 00 00 80 3f 00 00 80 3f
       1.0 1.0 1.0 1.0
000030 00 00 80 3f 00 00 80 3f 00 00 80 3f 00 00 80 3f
       1.0 1.0 1.0 1.0
000040 00 00 80 3f 00 00 80 3f 00 00 80 3f 00 00 80 3f
       1.0 1.0 1.0 1.0
000050 00 00 80 3f 00 00 80 3f 00 00 80 3f 00 00 80 3f
       1.0 1.0 1.0 1.0
000060 00 00 80 3f 00 00 80 3f 00 00 80 3f 00 00 80 3f
       1.0 1.0 1.0 1.0
000070 00 00 80 3f 00 00 80 3f 00 00 80 3f 00 00 80 3f
       1.0 1.0 1.0 1.0
000080 00 00 80 3f 00 00 80 3f 00 00 80 3f 00 00 80 3f
       1.0 1.0 1.0 1.0
000090 00 00 80 3f 00 00 80 3f 00 00 80 3f 00 00 80 3f
       1.0 1.0 1.0 1.0
0000a0 00 00 80 3f 00 00 80 3f 00 00 80 3f 00 00 80 3f
       1.0 1.0 1.0 1.0
0000b0 00 00 80 3f 00 00 80 3f 00 00 80 3f 00 00 80 3f
       1.0 1.0 1.0 1.0

weight f4 [64, 49]
000000 b7 df 40 bd 0e f6 52 be df ef 5f 3e 31 1f ca 3c
       -0.04708835 -0.20601675 0.21868847 0.024673076
000010 e0 08 a7 3d 43 b8 14 3e 85 1d 01 be 0e ac f3 3d
       0.0815599 0.14523415 -0.12608917 0.11898051
000020 e5 a5 32 3e 0e f6 52 be df ef 5f 3e 0c db 51 bd
       0.17446096 -0.20601675 0.21868847 -0.05123429
000030 dd 19 a8 3d c2 38 f6 3d eb a6 2a be f6 ea c9 3d
       0.08208058 0.120225444 -0.16665237 0.09859268
000040 fb 62 94 3d 0e f6 52 be df ef 5f 3e 44 34 ba bd
       0.072454415 -0.20601675 0.21868847 -0.09092
000050 2d 64 28 3d 39 98 0f 3d d5 93 8e 3e 09 41 a0 3d
       0.04111116 0.03505728 0.27847162 0.078249045
000060 27 1f 2a 3c 0e f6 52 be df ef 5f 3e 4c 54 d6 3c
       0.010383404 -0.20601675 0.21868847 0.026163243
000070 40 6b 78 bc 8b 46 9f ba 75 07 86 3d 56 cb bf 3e
       -0.015162289 -0.0012151761 0.06544391 0.3745982
000080 3a 47 90 3e 0e f6 52 be df ef 5f 3e 87 0e 46 3e
       0.28179342 -0.20601675 0.21868847 0.19341479
000090 02 37 7b 3d e5 04 45 bc ce a3 01 be 30 9d f0 3e
       0.061331756 -0.012025093 -0.12660143 0.46994925
0000a0 28 02 89 be 0e f6 52 be df ef 5f 3e b9 22 5d be
       -0.26759458 -0.20601675 0.21868847 -0.21595277
0000b0 74 09 e8 bd 8a b0 aa 3e aa 5a d3 3e 6e 7f cd 3d
       -0.11329928 0.33337814 0.4128011 0.10034071
0000c0 b4 04 c2 3d 98 df 40 bd 81 f6 52 be f4 ef 5f 3e
       0.09473553 -0.047088236 -0.20601846 0.21868879
0000d0 63 1f ca 3c 55 08 a7 3d 10 b8 14 3e d1 1e 01 be
       0.02467317 0.08155886 0.1452334 -0.12609412
0000e0 1f ac f3 3d e9 a5 32 3e 81 f6 52 be f4 ef 5f 3e
       0.11898064 0.17446102 -0.20601846 0.21868879
0000f0 93 da 51 bd 39 19 a8 3d 30 38 f6 3d 7b a8 2a be
       -0.05123384 0.08207936 0.12022436 -0.16665833
000100 0a eb c9 3d 18 63 94 3d 81 f6 52 be f4 ef 5f 3e
       0.09859283 0.07245463 -0.20601846 0.21868879
000110 7c 34 ba bd f9 62 28 3d 35 97 0f 3d 09 93 8e 3e
       -0.09092042 0.041110013 0.03505631 0.27846554
000120 0c 41 a0 3d 22 1f 2a 3c 81 f6 52 be f4 ef 5f 3e
       0.07824907 0.010383399 -0.20601846 0.21868879
000130 47 51 d6 3c 43 70 78 bc f8 73 9f ba 1b 06 86 3d
       0.026161803 -0.015163484 -0.0012165299 0.06544133
000140 63 cb bf 3e 31 47 90 3e 81 f6 52 be f4 ef 5f 3e
       0.3745986 0.28179315 -0.20601846 0.21868879
000150 2c 0e 46 3e c2 35 7b 3d e5 0a 45 bc d8 a4 01 be
       0.19341344 0.061330564 -0.012026523 -0.12660539
000160 1e 9d f0 3e 26 02 89 be 81 f6 52 be f4 ef 5f 3e
       0.4699487 -0.26759452 -0.20601846 0.21868879
000170 19 23 5d be 0d 0a e8 bd 6b b0 aa 3e 68 5a d3 3e
       -0.2159542 -0.11330042 0.3333772 0.41279912
000180 b2 7f cd 3d 52 04 c2 3d 45 40 97 ac 92 74 84 ac
       0.100341216 0.0947348 -4.2988135e-12 -3.7646075e-12
000190 1d de 16 2c 9d 55 30 ac 16 88 e1 28 a0 cc 8d 2b
       2.143958e-12 -2.505863e-12 2.5039036e-14 1.0075447e-12
0001a0 67 e8 89 2c 23 c4 77 2c 20 92 7d 2c b5 72 90 2a
       3.919576e-12 3.5209689e-12 3.6034578e-12 2.5659132e-13
0001b0 4f d2 7a 2c 76 fb 4f ac ca cf 31 ac 85 aa 8c ab
       3.5643882e-12 -2.9556058e-12 -2.526856e-12 -9.994927e-13
0001c0 aa ff 80 ac 65 2b c6 2c af 23 88 ab ae 28 01 2c
       -3.6663632e-12 5.6323162e-12 -9.673285e-13 1.8354584e-12
0001d0 48 06 5d aa 8c 6f c2 a9 96 d0 6c ac 09 75 02 ab
       -1.9630922e-13 -8.634681e-14 -3.3653406e-12 -4.6347697e-13
0001e0 cb b8 c6 ac b8 73 54 ac 9b ee aa 2c 41 59 d0 ac
       -5.6480146e-12 -3.0191249e-12 4.858181e-12 -5.9216247e-12
0001f0 3e 35 92 2b 48 8d 8d 2b ce 9b d4 ac de 8b ad 2b
       1.0388702e-12 1.0057866e-12 -6.0427e-12 1.233121e-12
000200 08 4e 4e 2c f2 e0 a0 2c 7b 4b a6 2b 82 a3 ad 2c
       2.9317677e-12 4.5724475e-12 1.1815959e-12 4.9351087e-12
000210 a2 c9 85 2a 64 48 29 2c 5c 24 03 2c 26 c9 a3 ac
       2.3765457e-13 2.405653e-12 1.8636403e-12 -4.6550706e-12
000220 fc 0a c3 ab a8 69 9c ac 78 98 ac 2c 93 f0 53 2c
       -1.3858632e-12 -4.445517e-12 4.9054615e-12 3.011845e-12
000230 55 6b 3c ac be 97 a2 ab 86 39 ed 2b ce ad c1 ac
       -2.6775988e-12 -1.1552909e-12 1.6855829e-12 -5.504686e-12
000240 3e b7 48 2a fe eb 53 2c 18 ac 5e 2b 1a 3a 89 ab
       1.7827143e-13 3.0115905e-12 7.910907e-13 -9.750562e-13
000250 8b b1 9c 2c e0 ec 26 2c 89 4d d3 ac 9a b9 69 2c
       4.453498e-12 2.372151e-12 -6.005589e-12 3.321432e-12
000260 f6 7e bc ac 05 ee 5d 2c a2 34 ad 2c 2d 3d 53 2a
       -5.357377e-12 3.1538116e-12 4.922799e-12 1.8761789e-13
000270 5a ae f4 ab db d3 7f ac e2 f6 60 ac 8a 38 db ab
       -1.7385635e-12 -3.6355283e-12 -3.1969362e-12 -1.5576579e-12
000280 ed a0 53 ac 60 b9 ce 2c 9d 53 5b ac 65 b5 1c 2c
       -3.0074235e-12 5.875453e-12 -3.1168187e-12 2.2269628e-12
000290 b6 15 c0 ac 72 e1 46 2c ce 2e af 2c 6a 17 ad ac
       -5.4593786e-12 2.826264e-12 4.9789955e-12 -4.919555e-12
0002a0 40 e2 0c ac 16 7d 9c 2b 46 7c e2 ac f1 6d 9a ac
       -2.002079e-12 1.1119185e-12 -6.4371035e-12 -4.389149e-12
0002b0 37 4e 36 2c 68 ff c3 2c b2 68 20 ac f7 1d fe aa
       2.5907174e-12 5.570589e-12 -2.2795485e-12 -4.5140256e-13
0002c0 07 40 e4 ac 76 fe e2 ac c6 53 b3 2c 98 a4 ae 2c
       -6.487258e-12 -6.451557e-12 5.0967867e-12 4.963651e-12
0002d0 2c 31 d7 ab 71 f9 49 ac 06 d3 61 ab 4c 70 32 2c
       -1.5290317e-12 -2.8702286e-12 -8.022891e-13 2.5357659e-12
0002e0 47 7d e4 ac b2 cb 88 ac d2 2b 2e ac 3b 1d 5d ac
       -6.4940583e-12 -3.887967e-12 -2.4751212e-12 -3.1422215e-12
0002f0 8b 9c 80 2a 96 dd 94 2c 05 a5 8a 2b 0e e7 d6 ac
       2.284599e-13 4.231014e-12 9.851292e-13 -6.107898e-12
000300 8f 9f bf 2c ce 10 a5 2c 8e 61 e0 2b 9c b2 3d 2c
       5.446261e-12 4.6914478e-12 1.5943234e-12 2.6957664e-12
000310 18 0e ec 2b 7b 2d b1 2c 7e 02 d9 ac 29 07 95 ac
       1.677272e-12 5.035692e-12 -6.1677876e-12 -4.2356296e-12
000320 3f ab 9c ab f9 73 d3 ab 43 47 a7 ac b9 f3 e8 ac
       -1.1131997e-12 -1.5024641e-12 -4.754337e-12 -6.6208952e-12
000330 c2 be c0 ac 02 94 9d ab b6 31 b9 2c c0 11 89 2c
       -5.4781466e-12 -1.1196601e-12 5.2635353e-12 3.895745e-12
000340 c6 9b d4 2b e5 95 92 ac b3 b0 5b ac 01 ea 5c 2a
       1.5106742e-12 -4.166211e-12 -3.121986e-12 1.9621112e-13
000350 85 f1 e6 ac f1 87 f0 aa 87 30 a7 2b b5 d3 bc 2c
       -6.5638072e-12 -4.2726892e-13 1.1879533e-12 5.3667856e-12
000360 11 8c 0a ac 30 30 ce 2c 92 a1 c8 a9 0e 6b a3 ac
       -1.9688732e-12 5.860222e-12 -8.909812e-14 -4.644624e-12
000370 52 e2 ba 2c cd ae bb 2c 73 e3 b2 ac cd 60 8a ac
       5.3115646e-12 5.3342664e-12 -5.084316e-12 -3.932943e-12
000380 49 ad 3e 2c a2 cc 92 ac 0c c0 8d 2c aa 6e 63 ac
       2.7096817e-12 -4.1722884e-12 4.0287825e-12 -3.2320071e-12
000390 d6 3f 38 ac 6d 52 09 ac 25 8d d0 2c ce 22 2a ac
       -2.6183409e-12 -1.9514626e-12 5.9273858e-12 -2.4177773e-12
0003a0 c2 12 d8 ab 34 67 7a 2c 6e ae a1 ac b7 2e 9f aa
       -1.5352929e-12 3.5584426e-12 -4.595261e-12 -2.827649e-13
0003b0 7e bb c1 ac 6a ea d1 ac e4 58 d8 ab 3b 1c f6 2a
       -5.5062057e-12 -5.9661625e-12 -1.5372395e-12 4.3717967e-13
0003c0 1a b6 b2 2c 23 d8 dd ac 27 e8 08 ac f0 e7 ce 2b
       5.0792816e-12 -6.3051938e-12 -1.9455633e-12 1.4701556e-12
0003d0 f7 65 32 2c e0 de 40 bd c4 f7 52 be 59 f0 5f 3e
       2.5351923e-12 -0.04708755 -0.20602328 0.21869029
0003e0 a6 20 ca 3c 75 06 a7 3d 82 b7 14 3e 8b 22 01 be
       0.024673771 0.081555285 0.14523128 -0.12610833
0003f0 59 ac f3 3d 0b a6 32 3e c4 f7 52 be 59 f0 5f 3e
       0.11898107 0.17446153 -0.20602328 0.21869029

bias f4 [64]
000000 f5 fa 90 3e e8 fa 90 3e 2b bc b6 ac 86 45 bb ac
       0.28316465 0.28316426 -5.193642e-12 -5.3225783e-12
000010 08 e9 4e aa c9 fa 90 3e 02 4c e0 ac d5 fa 90 3e
       -1.8377324e-13 0.28316334 -6.3749015e-12 0.2831637
000020 e6 fa 90 3e da fa 90 3e 01 8d 68 3e f5 fa 90 3e
       0.2831642 0.28316385 0.22710039 0.28316465
000030 ae d9 25 2c ec fa 90 3e f5 fa 90 3e ef fa 90 3e
       2.3568747e-12 0.28316438 0.28316465 0.28316447
000040 e6 e5 28 be a6 4d 6d ac c3 fa 90 3e ec fa 90 3e
       -0.1649395 -3.372283e-12 0.28316316 0.28316438
000050 56 35 04 3e 63 60 1a ac ec fa 90 3e 47 e9 28 be
       0.12910971 -2.1938222e-12 0.28316438 -0.16495238
000060 ff fa 90 3e e6 fa 90 3e c5 51 1d ac ce fa 90 3e
       0.28316495 0.2831642 -2.2356433e-12 0.2831635
000070 01 fb 90 3e d8 b3 bb bc ea fa 90 3e e1 fa 90 3e
       0.283165 -0.022912905 0.28316432 0.28316405
000080 d5 fa 90 3e 14 ad ea ab 0d fb 90 3e d5 fa 90 3e
       0.2831637 -1.6674739e-12 0.28316537 0.2831637
000090 8a c3 dc ac d8 fa 90 3e 27 b6 87 ac d7 fa 90 3e
       -6.2744853e-12 0.2831638 -3.8571537e-12 0.28316376
0000a0 04 fb 90 3e 04 b0 7f 3f c7 fa 90 3e 06 fb 90 3e
       0.2831651 0.99877954 0.28316328 0.28316516
0000b0 e8 fa 90 3e d4 fa 90 3e e4 fa 90 3e 5e 24 2d ac
       0.28316426 0.28316367 0.28316414 -2.4604967e-12
0000c0 d4 fa 90 3e e1 fa 90 3e 55 5a 80 ac e9 fa 90 3e
       0.28316367 0.28316405 -3.6480077e-12 0.2831643
0000d0 e9 fa 90 3e ca fa 90 3e e9 fa 90 3e 05 fb 90 3e
       0.2831643 0.28316337 0.2831643 0.28316513
0000e0 5f c5 0b 3d ee fa 90 3e d8 fa 90 3e ea fa 90 3e
       0.034123775 0.28316444 0.2831638 0.28316432
0000f0 9b d8 64 2c 01 8d 68 3e 02 fb 90 3e ea fa 90 3e
       3.252099e-12 0.22710039 0.28316504 0.28316432

weight f4 [32, 64]
000000 bf 45 7e 3e e0 45 7e 3e 20 91 27 2b bd 18 b0 2c
       0.24831294 0.24831343 5.953172e-13 5.0049674e-12
000010 8c e6 8e 2c c6 46 7e 3e 6a a4 96 2c 1f 46 7e 3e
       4.0614786e-12 0.24831685 4.28151e-12 0.24831437
000020 03 46 7e 3e 24 46 7e 3e e0 54 9c 3e f3 45 7e 3e
       0.24831395 0.24831444 0.30533504 0.24831371
000030 49 bd 9f ac fa 45 7e 3e da 45 7e 3e e0 45 7e 3e
       -4.5400667e-12 0.24831381 0.24831334 0.24831343
000040 63 2b ad bf 8c b8 8f ac b3 46 7e 3e ea 45 7e 3e
       -1.3528866 -4.0847933e-12 0.24831657 0.24831358
000050 dd c3 e1 bf 48 54 f1 ac ed 45 7e 3e 50 2b ad bf
       -1.7637898 -6.858989e-12 0.24831362 -1.3528843
000060 b2 45 7e 3e f2 45 7e 3e 9a 5d 5e 2b 37 46 7e 3e
       0.24831274 0.2483137 7.900014e-13 0.24831472
000070 af 45 7e 3e 62 44 c9 bf 08 46 7e 3e 1c 46 7e 3e
       0.2483127 -1.5723994 0.24831402 0.24831432
000080 15 46 7e 3e 38 d9 50 2c 85 45 7e 3e 27 46 7e 3e
       0.24831422 2.9679158e-12 0.24831207 0.24831448
000090 e4 38 12 2c 08 46 7e 3e 86 15 86 2c 47 46 7e 3e
       2.0779429e-12 0.24831402 3.8108986e-12 0.24831496
0000a0 af 45 7e 3e ae fa 08 40 77 46 7e 3e b4 45 7e 3e
       0.2483127 2.1403003 0.24831568 0.24831277
0000b0 f3 45 7e 3e 1c 46 7e 3e 07 46 7e 3e a5 46 21 2c
       0.24831371 0.24831432 0.24831401 2.2918692e-12
0000c0 17 46 7e 3e 15 46 7e 3e 23 b2 97 2c ed 45 7e 3e
       0.24831425 0.24831422 4.3114553e-12 0.24831362
0000d0 08 46 7e 3e 71 46 7e 3e dc 45 7e 3e af 45 7e 3e
       0.24831402 0.24831559 0.24831337 0.2483127
0000e0 0c c3 2b 41 d7 45 7e 3e 0b 46 7e 3e 0b 46 7e 3e
       10.735119 0.2483133 0.24831407 0.24831407
0000f0 25 46 b0 ac e4 54 9c 3e b9 45 7e 3e 11 46 7e 3e
       -5.0100085e-12 0.30533516 0.24831285 0.24831416
000100 48 77 3e ac c0 91 5c 2c e6 59 29 ab 3e 01 43 2c
       -2.7066838e-12 3.1344788e-12 -6.016562e-13 2.7711856e-12
000110 4c f7 2c ab 48 fd fb 2b 33 6f 2a ac c6 c9 ba ac
       -6.144987e-13 1.7904922e-12 -2.422018e-12 -5.3088393e-12
000120 ed e3 1b 2c 2f 17 65 ac 98 70 6c 2c 7a 8e bc aa
       2.215335e-12 -3.2555727e-12 3.360012e-12 -3.3494372e-13
000130 44 75 1e ac 87 9c 96 2c d0 0f 8f 2c df 35 8b ac
       -2.2518246e-12 4.2806344e-12 4.06606e-12 -3.9565985e-12
000140 22 ae 2e 2c 04 07 df 2b 08 d4 8f ac 29 6d bb 29
       2.482355e-12 1.584705e-12 -4.0878446e-12 8.3234045e-14
000150 36 2b a4 ac e0 96 5b 2a 75 49 d1 ac 00 19 a9 2c
       -4.6659577e-12 1.9503453e-13 -5.9482926e-12 4.8060445e-12
000160 47 31 d0 2b 64 47 73 2c ce bb 96 2b 05 43 68 ac
       1.4792966e-12 3.4572007e-12 1.0710267e-12 -3.3006386e-12
000170 aa 4f e2 2b db 2e 52 2c e3 8f 07 2c 97 ad e6 ab
       1.6080377e-12 2.9868805e-12 1.9264527e-12 -1.6390664e-12
000180 d0 99 a6 2c 45 f2 77 ac 88 e1 d4 ac 2a 77 2f 2b
       4.7350804e-12 -3.5235298e-12 -6.0504414e-12 6.2337863e-13
000190 c8 a0 af 2c ae f1 a2 29 ed 56 02 ac d3 65 c6 ac
       4.9916495e-12 7.23617e-14 -1.8522365e-12 -5.6388032e-12
0001a0 54 b9 2f 2c 6e 21 c9 ac c2 2b 55 ac 12 8f 07 2c
       2.4971874e-12 -5.716475e-12 -3.029341e-12 1.9264074e-12
0001b0 a3 0e 92 ac 70 2f a7 ac 20 48 84 ac ab a7 39 2c
       -4.1511946e-12 -4.751692e-12 -3.759673e-12 2.6383156e-12
0001c0 85 a0 46 ac ad 84 12 ac 42 36 c9 ab bf e9 01 2c
       -2.8226599e-12 -2.0821498e-12 -1.4296969e-12 1.8461758e-12
0001d0 7f 5b 89 2c c1 14 f2 aa 92 c2 87 ab 94 6e fb ab
       3.9039323e-12 -4.3002236e-13 -9.646331e-13 -1.7865314e-12
0001e0 18 dd 04 2c 6c 79 42 2c f7 4b 0a 2b 48 2a 35 2c
       1.888106e-12 2.763646e-12 4.913287e-13 2.5745118e-12
0001f0 eb 68 f4 ab f0 05 97 ab c1 af c6 ac c6 4d ea 2b
       -1.7366363e-12 -1.0730843e-12 -5.647011e-12 1.6648286e-12
000200 bd 45 7e 3e e8 45 7e 3e 9b 28 be ac 90 f0 ae 29
       0.2483129 0.24831355 -5.404633e-12 7.768883e-14
000210 0d 3d 11 2c bd 46 7e 3e 61 84 81 ab 1f 46 7e 3e
       2.063963e-12 0.24831672 -9.202744e-13 0.24831437
000220 0e 46 7e 3e 21 46 7e 3e e0 54 9c 3e 0e 46 7e 3e
       0.24831411 0.2483144 0.30533504 0.24831411
000230 46 64 a5 2c f6 45 7e 3e e1 45 7e 3e e2 45 7e 3e
       4.7007146e-12 0.24831375 0.24831344 0.24831346
000240 60 2b ad bf f8 ed 9b 2c aa 46 7e 3e d2 45 7e 3e
       -1.3528862 4.431785e-12 0.24831644 0.24831322
000250 e0 c3 e1 bf e8 51 bf ac f0 45 7e 3e 52 2b ad bf
       -1.7637901 -5.43764e-12 0.24831367 -1.3528845
000260 cb 45 7e 3e f4 45 7e 3e 23 53 50 ab 52 46 7e 3e
       0.24831311 0.24831372 -7.401182e-13 0.24831513
000270 b4 45 7e 3e 60 44 c9 bf 13 46 7e 3e 14 46 7e 3e
       0.24831277 -1.5723991 0.24831419 0.2483142
000280 16 46 7e 3e 3d 8b 9e 2c 8a 45 7e 3e 34 46 7e 3e
       0.24831423 4.5060886e-12 0.24831215 0.24831468
000290 83 e6 f6 ab 13 46 7e 3e 2e 38 e8 ab 40 46 7e 3e
       -1.7543331e-12 0.24831419 -1.6500184e-12 0.24831486
0002a0 ac 45 7e 3e ac fa 08 40 90 46 7e 3e bb 45 7e 3e
       0.24831265 2.1402998 0.24831605 0.24831288
0002b0 e8 45 7e 3e 27 46 7e 3e 04 46 7e 3e c2 bc 59 ac
       0.24831355 0.24831448 0.24831396 -3.0942336e-12
0002c0 1e 46 7e 3e 24 46 7e 3e 4e 26 a0 2c f0 45 7e 3e
       0.24831435 0.24831444 4.551726e-12 0.24831367
0002d0 07 46 7e 3e 61 46 7e 3e e2 45 7e 3e af 45 7e 3e
       0.24831401 0.24831535 0.24831346 0.2483127
0002e0 09 c3 2b 41 e2 45 7e 3e 06 46 7e 3e 0b 46 7e 3e
       10.735116 0.24831346 0.248314 0.24831407
0002f0 68 36 82 ac e4 54 9c 3e c4 45 7e 3e 07 46 7e 3e
       -3.7008625e-12 0.30533516 0.24831301 0.24831401
000300 63 80 d4 ac 03 d3 f7 ac d0 d1 46 2b b6 ba 95 ab
       -6.039656e-12 -7.0435892e-12 7.0634904e-13 -1.063891e-12
000310 46 42 ee 2b 30 e8 83 ac 33 8a 96 2c 80 8b 04 ad
       1.6929312e-12 -3.749022e-12 4.2785996e-12 -7.5343065e-12
000320 b7 75 ff ac 56 15 1e 2c 70 d0 95 ac 48 31 c2 ab
       -7.260605e-12 2.2464994e-12 -4.257976e-12 -1.3798207e-12
000330 3c aa 0d 2c ba 45 00 ac 0e 99 d6 ac ab 8e 17 ac
       2.0131804e-12 -1.82286e-12 -6.0992383e-12 -2.1537587e-12
000340 08 d2 f0 ac 36 f5 a3 2c db 08 49 ab 2f 62 ff 2b
       -6.8445284e-12 4.6599625e-12 -7.1421834e-13 1.8146091e-12
000350 fc b5 50 2b ba de 16 2c be 2f 54 ab 67 5b 0a aa
       7.4149e-13 2.143992e-12 -7.5383786e-13 -1.2288574e-13
000360 f0 b6 dc ac eb 9a f5 2b 54 1e a7 ab ff d6 01 2c
       -6.2730862e-12 1.7451295e-12 -1.1874481e-12 1.845135e-12
000370 6c fc 5b ac 4f 25 1c 2b e0 30 cd 2b b6 91 c2 ab
       -3.1261894e-12 5.547411e-13 1.4579692e-12 -1.3824972e-12
000380 43 9c 76 ac 7c 8e 1e 2c ed 6b 13 ad 22 40 4a ac
       -3.5045445e-12 2.2532245e-12 -8.379947e-12 -2.8741527e-12
000390 a1 49 9e ab e4 af e8 ac 0a dc 03 ab 0c 5b b2 ab
       -1.1247011e-12 -6.6133644e-12 -4.6845915e-13 -1.2672931e-12
0003a0 a8 11 11 ad 45 40 b1 2b 70 3e 83 2b fb 18 34 2c
       -8.246216e-12 1.2594445e-12 9.32544e-13 2.5593405e-12
0003b0 38 56 b2 ac 5e cb e3 ac 70 c6 5d 2b 87 af b6 2c
       -5.0686365e-12 -6.4743063e-12 7.879036e-13 5.1922386e-12
0003c0 3f 4e b6 ac a5 e7 c8 ac 9a 74 e5 aa 85 bd 32 2c
       -5.181438e-12 -5.7100596e-12 -4.075948e-13 2.5400526e-12
0003d0 4c 82 52 ac 86 1d 08 ad 47 cf b1 ac 4f 5f d4 ac
       -2.9915124e-12 -7.7372605e-12 -5.053655e-12 -6.0359838e-12
0003e0 48 3d c5 2b e0 46 ea ac 64 66 d5 2b ea ed 33 ab
       1.4014701e-12 -6.6585487e-12 1.5162979e-12 -6.3923747e-13
0003f0 9a d5 0a ab 5e 77 62 ac 21 8c 90 2a 82 bb c4 ac
       -4.932388e-13 -3.2182794e-12 2.5676772e-13 -5.5914726e-12

bias f4 [32]
000000 7b 08 a5 3e 35 da 88 2c 74 08 a5 3e 5c 3c 69 2a
       0.32233033 3.8895783e-12 0.32233012 2.0715499e-13
000010 7d 08 a5 3e 73 08 a5 3e 8f 3a 99 ac 7a 08 a5 3e
       0.3223304 0.3223301 -4.355023e-12 0.3223303
000020 2e 11 17 ac 7a 08 a5 3e 50 01 e9 ab 75 08 a5 3e
       -2.1467927e-12 0.3223303 -1.655601e-12 0.32233015
000030 7d 08 a5 3e 7a 08 a5 3e 7a 08 a5 3e cc 70 b4 ac
       0.3223304 0.3223303 0.3223303 -5.1284307e-12
000040 4c c4 9e ac e0 7f 8e ac 78 08 a5 3e 86 69 d4 3f
       -4.5124234e-12 -4.0500797e-12 0.32233024 1.6594703
000050 ee 3f a5 ac 7e 08 a5 3e 7a 08 a5 3e be a7 a5 ac
       -4.6966797e-12 0.32233042 0.3223303 -4.708205e-12
000060 02 99 69 2c 21 37 5e ab d5 49 34 ac b3 f4 b9 2b
       3.3196228e-12 -7.894675e-13 -2.5620523e-12 1.3212958e-12
000070 a0 54 0d ad 7e 08 a5 3e e0 5e 5f 2c b8 50 83 2c
       -8.033713e-12 0.32233042 3.1742872e-12 3.7322055e-12

weight f4 [2, 32]
000000 10 8b 8c 40 98 ba cc ac 10 8b 8c 40 c2 54 67 ac
       4.3919754 -5.818745e-12 4.3919754 -3.2874124e-12
000010 10 8b 8c 40 0f 8b 8c 40 82 74 e3 ac 10 8b 8c 40
       4.3919754 4.391975 -6.464663e-12 4.3919754
000020 2a 2a 9a 2c 10 8b 8c 40 78 be 0e 2c 10 8b 8c 40
       4.3816244e-12 4.3919754 2.0285145e-12 4.3919754
000030 10 8b 8c 40 10 8b 8c 40 10 8b 8c 40 68 40 41 a9
       4.3919754 4.3919754 4.3919754 -4.2910472e-14
000040 b4 ea 0f ab 87 28 80 ac 0e 8b 8c 40 a6 57 12 40
       -5.112952e-13 -3.6424782e-12 4.3919744 2.2865996
000050 9d e4 1a ac 10 8b 8c 40 10 8b 8c 40 77 83 9a 2c
       -2.2011622e-12 4.3919754 4.3919754 4.3915388e-12
000060 5d a7 51 ac a4 a8 56 ac bd f7 fe ab 99 4e 59 2b
       -2.9793592e-12 -3.0504843e-12 -1.8116547e-12 7.7202963e-13
000070 06 c7 25 a7 10 8b 8c 40 c9 6a 70 ad c6 ab 24 ac
       -2.300624e-15 4.3919754 -1.3666132e-11 -2.3401155e-12
000080 0f 8b 8c 40 ef f7 b9 aa 0f 8b 8c 40 06 fd 51 2c
       4.391975 -3.303464e-13 4.391975 2.9841143e-12
000090 10 8b 8c 40 10 8b 8c 40 86 b9 d8 2c 10 8b 8c 40
       4.3919754 4.3919754 6.1596865e-12 4.3919754
0000a0 27 fb 94 ac 10 8b 8c 40 50 36 4b ac 10 8b 8c 40
       -4.2342965e-12 4.3919754 -2.8878185e-12 4.3919754
0000b0 0d 8b 8c 40 10 8b 8c 40 10 8b 8c 40 d3 8a 81 aa
       4.391974 4.3919754 4.3919754 -2.3011332e-13
0000c0 1b 4d 89 a9 58 64 12 ad 0f 8b 8c 40 a6 57 12 40
       -6.097398e-14 -8.32142e-12 4.391975 2.2865996
0000d0 9a be ba 2c 0f 8b 8c 40 11 8b 8c 40 d7 07 e8 ac
       5.307599e-12 4.391975 4.391976 -6.594707e-12
0000e0 bb b2 34 2c 57 9e 7f ac 4c 93 0e ac 67 8e e5 ab
       2.5678754e-12 -3.6325576e-12 -2.026118e-12 -1.6310953e-12
0000f0 b5 79 90 ac 10 8b 8c 40 85 bb 63 ad aa 8b 77 ab
       -4.1062384e-12 4.3919754 -1.2945094e-11 -8.794585e-13

bias f4 [2]
000000 28 6a a5 3e 76 6b a5 3e
       0.32307553 0.3230855
