ElegantRL/EntornoObservacionesAccionesMejorado/2ksteps_PPO_0/actor__000000108544_58329.785.pt (torch, 27347 bytes, 7 tensors)

state_avg f4 [48]
00000000: 0000 0000 0000 0000 0000 0000 0000 0000
00000010: 0000 0000 0000 0000 0000 0000 0000 0000
00000020: 0000 0000 0000 0000 0000 0000 0000 0000
00000030: 0000 0000 0000 0000 0000 0000 0000 0000
00000040: 0000 0000 0000 0000 0000 0000 0000 0000
00000050: 0000 0000 0000 0000 0000 0000 0000 0000
00000060: 0000 0000 0000 0000 0000 0000 0000 0000
00000070: 0000 0000 0000 0000 0000 0000 0000 0000
00000080: 0000 0000 0000 0000 0000 0000 0000 0000
00000090: 0000 0000 0000 0000 0000 0000 0000 0000
000000a0: 0000 0000 0000 0000 0000 0000 0000 0000
000000b0: 0000 0000 0000 0000 0000 0000 0000 0000
0.0 0.0 0.0 0.0 0.0 0.0 0.0 0.0
0.0 0.0 0.0 0.0 0.0 0.0 0.0 0.0
0.0 0.0 0.0 0.0 0.0 0.0 0.0 0.0
0.0 0.0 0.0 0.0 0.0 0.0 0.0 0.0
0.0 0.0 0.0 0.0 0.0 0.0 0.0 0.0
0.0 0.0 0.0 0.0 0.0 0.0 0.0 0.0

state_std f4 [48]
00000000: 0000 803f 0000 803f 0000 803f 0000 803f
00000010: 0000 803f 0000 803f 0000 803f 0000 803f
00000020: 0000 803f 0000 803f 0000 803f 0000 803f
00000030: 0000 803f 0000 803f 0000 803f 0000 803f
00000040: 0000 803f 0000 803f 0000 803f 0000 803f
00000050: 0000 803f 0000 803f 0000 803f 0000 803f
00000060: 0000 803f 0000 803f 0000 803f 0000 803f
00000070: 0000 803f 0000 803f 0000 803f 0000 803f
00000080: 0000 803f 0000 803f 0000 803f 0000 803f
00000090: 0000 803f 0000 803f 0000 803f 0000 803f
000000a0: 0000 803f 0000 803f 0000 803f 0000 803f
000000b0: 0000 803f 0000 803f 0000 803f 0000 803f
1.0 1.0 1.0 1.0 1.0 1.0 1.0 1.0
1.0 1.0 1.0 1.0 1.0 1.0 1.0 1.0
1.0 1.0 1.0 1.0 1.0 1.0 1.0 1.0
1.0 1.0 1.0 1.0 1.0 1.0 1.0 1.0
1.0 1.0 1.0 1.0 1.0 1.0 1.0 1.0
1.0 1.0 1.0 1.0 1.0 1.0 1.0 1.0

weight f4 [64, 48]
00000000: 6a1c cbbb ea06 8c3d bb5e f2bd 3e91 dcbd
00000010: e74f 76bd 40d2 003d 4a20 f8ba d75c d33d
00000020: a810 8ebc 7674 fb3c 1f06 3dbd 75d0 05bd
00000030: 489e 0ebe e2af c6bd 98b2 60bd 1345 bdba
00000040: fedf 4b3d 8211 9e3d 042d c9bd f15f 86bd
00000050: 924a 323d 8eb1 e13d 3ca9 e3bc f156 c73d
00000060: d4f7 dfbc 7634 0e3c b952 f83d 6810 09be
00000070: 4078 c0bd 7000 23bd 83e6 52bd db24 e83d
00000080: f427 c2bd d0f2 8ebd a70b cfbd 8121 0abe
00000090: 3520 b3bd 9dfd ea3d 9e5e 843d ac9a 793d
000000a0: 2f24 163b 29ce 9dbd 1f40 9d3c 7941 09be
000000b0: c85f ddbd e8e4 97bd 9069 b13d d988 993d
000000c0: 27f1 e2bd 12e1 dd3b a52a cd3d bf9c 253e
000000d0: d5df 933d e3af 753d c9f8 f33d 812e 0bbe
000000e0: 0665 bbbc 75fd c3bd e827 adbd 8a60 60bd
000000f0: e743 ab3d 06e8 bd3d 0f10 c5bd aa05 afbc
00000100: a0a9 0d3d af88 bbbb d0c3 893c f103 7d3d
00000110: 0ab0 e93d 224e 373e d15b 2cbe 725e bebd
00000120: 2729 903b 76aa 013e 4e53 073e f626 173e
00000130: 5ef2 673d 0e78 a9bd 3e07 96bc ad90 18be
00000140: b710 37be 2a2c 0a3e 9875 ef3d 0428 d8bd
00000150: b6b2 653d 712e 2d3c d6c0 893c 42ca e9bd
00000160: a977 873c 100a 90bd 0d59 7f3d 18d3 e23d
00000170: 755e 0d3e 002e cd3d 82c0 0fbe 5584 f8bd
00000180: 047f 9c3d e03b b33d 8d8a 81bd 2737 8cbc
00000190: c0f1 493e ad69 3a3e bd2d 873d 5a70 31bc
000001a0: b361 f9bd 7b6d 653d f9bb 73bd 062d 2bbd
000001b0: b26f 833d 574c d73d 692b e93c c5be db3d
000001c0: b1b7 8ebd 2eb5 3c3e 833a 0f3e 8f94 01bd
000001d0: 3883 333d e912 d23d b429 7e3d f39c 8b3d
000001e0: 1b3d 873d 76d1 883d 8b67 babc faf1 233e
000001f0: 648e 53bd 31b7 8a3c 738e 38bb 7575 14bd
00000200: fc75 14bd 9ebb 61bd f13b 7c3c 8679 023e
00000210: de4d d8bb e628 ba3d 2ff4 2e3e d8c3 ce3c
00000220: 1977 c13c bea7 3e3d 8f5e 953d 0226 413e
00000230: 7805 633e 0ebf 413e 2c04 3e3e e565 393d
00000240: 6606 ffbd 4297 86bd d74d c13d f38e 6bba
00000250: ce18 8dbd 7989 d9bd 02d7 04be 4e9b efbd
00000260: 9955 e6bc c0ae 9b3d 887c 993d 79e4 08be
00000270: a612 b13d ac23 debd d711 f0bc 8038 66bd
00000280: f2bb dabc eff3 debc b4bf febd 0f1f f5bd
00000290: cbaf b1bc 0ef7 ea3a 53f7 80bd 9ce4 553d
000002a0: c884 ffbd 2046 19bc 33af f93d 1597 67bd
000002b0: 862d 003e c49f 4d3d cc19 00be 92a1 b33d
000002c0: 6908 83bc a075 7dbd 2102 e33d 006a e5bd
000002d0: eeb3 733c 0dbf edbc c5b8 ca3d 337f 1e3d
000002e0: a667 883d 9784 483d 0e88 08bd 0ed1 eebc
000002f0: bdf3 e9bd a2d4 993d 5567 e13d 7c42 c23d
00000300: eb5b 0dbd 3608 603d 3ff4 1bbd d64c 103c
00000310: 54fe 53bc 54bc 1d3e 9c62 923c b70c 233d
00000320: b6fa 8d3d 232e 0d3e bae8 38bd a232 6dbc
00000330: 1c29 02bc f3cc 453e 30b2 fa3b 8959 1b3e
00000340: 5d68 f43d 914d 873d 760f 703d d4d5 8c3d
00000350: c1a2 c73d 4d28 a43d aafa 8a3b 4949 8e3d
00000360: 04d3 2dbd 77c2 c5bc 6ab0 2f3e fb46 5dbc
00000370: 1578 983d 7746 813e beeb 633d 9b65 593d
00000380: a280 56bd 5afc ef3d b921 20bd ce42 8c3d
00000390: 63fc 2c3d 0040 c43d 2f36 8c3d 1ec6 333e
000003a0: 5c39 be3d d7d0 303e 5ee6 133e 5c39 d53c
000003b0: 2a4f 233e 8144 dc3c c23e 13bc 2237 ef3d
000003c0: 0778 a43c ee3c 0e3d 3c12 17bb f4d7 1b3d
000003d0: f300 d53d 90e5 8abd e6bf 1c3e fb8d 3dbe
000003e0: ddad e7bc 6820 bebd f665 fbbc 5195 363d
000003f0: dce4 173e 63a5 6c3c bddf 8fbd eed1 11be
-0.0061984556 0.06837256 -0.11834475 -0.1076989 -0.060134795 0.03145051 -0.0018930521 0.10320442
-0.017341927 0.030695181 -0.046148416 -0.032669503 -0.13927567 -0.09701516 -0.05485782 -0.0014440141
0.049774162 0.07718183 -0.09823039 -0.06561268 0.043528147 0.11020194 -0.027790658 0.0973338
-0.027339853 0.0086795 0.12125153 -0.13385165 -0.09397936 -0.03979534 -0.051489364 0.113351546
-0.09480277 -0.069799066 -0.101096444 -0.13489343 -0.087463774 0.11474154 0.06463359 0.060938522
0.002290975 -0.077053376 0.019195614 -0.13403882 -0.108092844 -0.07416707 0.086627126 0.07496805
-0.110811524 0.0067712152 0.100178994 0.16173075 0.07220427 0.05998219 0.119126864 -0.13591959
-0.02287532 -0.095698275 -0.08454877 -0.054779567 0.08362561 0.092727706 -0.096222036 -0.021365006
0.034585595 -0.005723081 0.016817003 0.061771337 0.1141053 0.17900899 -0.168319 -0.09295358
0.004399437 0.12662682 0.13215372 0.14760956 0.056627624 -0.08274852 -0.018314 -0.1489894
-0.1787747 0.1349341 0.11692351 -0.105545074 0.056078635 0.0105701545 0.016815584 -0.11415531
0.01653655 -0.07033169 0.062340785 0.11075419 0.13805564 0.100185394 -0.1403828 -0.12134615
0.07641414 0.087516546 -0.063252546 -0.017116142 0.19721127 0.18204375 0.06600521 -0.010830009
-0.12176838 0.05601261 -0.059505437 -0.041790985 0.064177886 0.105126075 0.028463082 0.10729746
-0.0696863 0.1842849 0.13987164 -0.031635817 0.04382631 0.10257513 0.06205149 0.06817045
0.06603452 0.066805765 -0.022754451 0.16010275 -0.051649466 0.016933056 -0.0028161078 -0.03624483
-0.03624533 -0.055110566 0.0153951505 0.1274167 -0.0066010794 0.09089832 0.17085336 0.02523987
0.02361636 0.04654669 0.07293426 0.18862155 0.22170055 0.18920538 0.18556279 0.04526319
-0.12452392 -0.06571819 0.09438675 -0.00089858397 -0.06889497 -0.10621924 -0.12972644 -0.11699544
-0.028116988 0.0760169 0.074944556 -0.13368405 0.08646135 -0.108466476 -0.029305382 -0.056206226
-0.026700947 -0.027215926 -0.12438908 -0.119688146 -0.02169027 0.0017926411 -0.06297173 0.052219972
-0.12476498 -0.009355098 0.1219162 -0.056540567 0.12517366 0.050201192 -0.1250984 0.087710515
-0.015995221 -0.061879754 0.110843904 -0.112018585 0.014874442 -0.029021764 0.09898523 0.038695525
0.06660394 0.048954573 -0.033332877 -0.02915242 -0.114234425 0.075112596 0.11006037 0.09485337
-0.034511488 0.05469533 -0.038074728 0.008807382 -0.0129390545 0.15403873 0.017869286 0.039807048
0.06932585 0.13787131 -0.04514382 -0.014477404 -0.007944372 0.19316463 0.007650636 0.15170874
0.11933968 0.066065915 0.058608495 0.06876722 0.0974784 0.08015499 0.0042413073 0.06947572
-0.04243757 -0.02414058 0.1715714 -0.013505693 0.07444779 0.25249073 0.055644743 0.053075414
-0.052368768 0.11718054 -0.03909466 0.068486795 0.042232882 0.095825195 0.06846272 0.17556044
0.09288284 0.17267166 0.14443347 0.026028328 0.15948167 0.026888134 -0.008987131 0.116804376
0.020076765 0.034726076 -0.002305164 0.038047746 0.10400572 -0.06782067 0.15307578 -0.18511193
-0.028281147 -0.09283525 -0.030688267 0.044575993 0.14833397 0.014443728 -0.070250966 -0.14240238

bias f4 [64]
00000000: 3216 003e b3eb 123e c16b 1dbd 6693 5ebd
00000010: 1989 2b3e b1b8 e7bc 84cf b53c aa57 89bc
00000020: 74a7 9d3d f6db a03d f8f7 9c3d e791 863d
00000030: 1f87 dc3c 08e9 9c3d 458a e43c 6ee2 32bd
00000040: be6d dfbd 1a76 353e 4480 f8bb 4be4 cc3d
00000050: b97a a03d 85d5 4a3d 2019 fabd 2f5a 383c
00000060: ea2e 71bd bea7 b13c cbe6 4ebd f1e7 ad3d
00000070: 059e 14be 85cf bcbc f78e b73d e1ee 61bc
00000080: 94ff 213e 548a 59bd 91d7 eebd bec0 b93d
00000090: 8489 cc3c af0b 763d 65d3 44bd 1193 a9bd
000000a0: d05f a3bd 4160 1d3c b65a aa3c 8ec5 88bd
000000b0: 8d1a 0fbb f29d 14bd 3f14 1f3e c0e4 5abd
000000c0: 945c 073e 6df8 9dbc 1886 16bd be5a 09bd
000000d0: d465 af3d 1952 a1bd b56d f13c 2975 eebc
000000e0: 6194 493e b5e4 e3bb c762 7bbd a348 963d
000000f0: 8a8a ecbc 48d2 eebd 397a 5c3d b573 1f3e
0.12508467 0.14347725 -0.03843284 -0.05433979 0.16751517 -0.02828631 0.022193678 -0.016765434
0.07697955 0.07854454 0.07664484 0.065707974 0.0269199 0.07661635 0.027897963 -0.04367297
-0.109096035 0.17720833 -0.00758365 0.10004481 0.078359075 0.049520034 -0.122118235 0.01125197
-0.05888263 0.021686431 -0.05051307 0.08491505 -0.14513405 -0.023048172 0.08962815 -0.013789863
0.15820152 -0.053110436 -0.1166221 0.09069966 0.024967916 0.060069736 -0.048053164 -0.08280004
-0.07977259 0.009605468 0.020795207 -0.066783056 -0.0021835894 -0.03628344 0.15535067 -0.05344081
0.1321891 -0.019283498 -0.036748976 -0.033533804 0.08564344 -0.07876987 0.029471258 -0.0291086
0.19685508 -0.0069547542 -0.0613735 0.07338073 -0.028874654 -0.11661202 0.053827498 0.15571482

weight f4 [32, 64]
00000000: db7e 0d3d 3bef 5b3c 658b 3fbd 80a9 023d
00000010: 4e50 c1bd 8db7 013e 4e7c e53d 0b02 5a3d
00000020: c294 e2bc 6f97 d2bd 13b6 19bd e2c3 d83d
00000030: 29be d1bd 3a9a fabd e26e cf3b 3f31 023d
00000040: d8b2 f4bd c97f dabd a507 4a3c 770a a3bd
00000050: 0c45 ab3d f650 293d 364d b7bd 7896 ddbd
00000060: 9ba9 273c 8c65 aebc 26e8 1dbd f8e4 1a3d
00000070: e786 cfbc 4ff9 a93d 7799 193d dc5d 61bd
00000080: b1e2 29be a3c5 503d a9e6 92bd c3b5 b2bc
00000090: 1916 b73c 2d8f 6ebd e136 9f3d a63d b4bd
000000a0: 8a1f c93a 37a4 723c 231c 2c3d 3a53 01be
000000b0: baea ac3c 14c0 3c3d a8cb 8cbd d3c5 953c
000000c0: e803 01bd 09ba e13d cd8d 71bd a910 213b
000000d0: d1df 55bd 7d4d cdbb cb86 723d 0f6d d3bd
000000e0: cc3f a23d 994a ff3d 4910 643d 99db e23d
000000f0: 5233 b2bc 57fe 3d3d 81c4 073d 50f4 3cbe
00000100: 5aec 32bd 9c88 a5bd 5f86 30be 394e dabd
00000110: 222c 60be be86 b9bc 22cc 46bd 02c3 45be
00000120: 097a a93d 50e1 063e 2a93 893c ed88 8d3d
00000130: 3920 bdbd 44b3 43bd f7f5 babd f0a0 31bc
00000140: 7a5e 963d fcf2 843d ae75 a13d f9a6 093e
00000150: c6f3 7ebd 1cb7 133e 8537 e73d 0565 273b
00000160: 2a20 943d 79fb a1bd 35e8 983d 44c1 8d3d
00000170: 3ccd ae3d b568 153e 4e3c 193c 6645 45bc
00000180: 5fe5 97bc a14b 60bc 8cc7 ef3d 24c9 dd3d
00000190: 8377 433d 1c50 cd3d 9fa9 793d b732 2cbd
000001a0: a343 3c3d 62db 71bd a963 743d f6cb 763d
000001b0: f7d8 bd3d 46e1 87bd d4e8 80bd 6f01 293e
000001c0: 7c19 e13a bd61 c03d bfaa 1b3e 48b2 95bd
000001d0: b915 53bc 0dc7 2dbe 0d7d 74bd 9cfe 72bd
000001e0: d840 05be e6ab 26be 3f5e a4bd 1ddb 18bd
000001f0: 8c9f bb3d 823f 94bc 60b2 10bd d22d b33d
00000200: 530d e13d f9f8 3b3c d1b3 56be 3bd3 97bd
00000210: cabc 69be 4f66 4fbc 6e09 b7bd a6dd 92bd
00000220: 774e 593d 9410 afbd f921 5ebe f485 30be
00000230: ea29 a5bd 9b55 033a 52d2 e4bd 2ef6 24bd
00000240: 3fc3 fc3b 2c96 1b3e 7d0e 31bd ed32 343e
00000250: f1fb c0bd 825c 1fbd 250d 893d 3652 24bd
00000260: 9904 873e 9ddf 9abd de4d 003e b98a 123e
00000270: 00e0 4b3b 0b19 fa3d 2a88 993d d619 5b3d
00000280: 0ed7 26be bc16 223c e42e 63bd 6d62 773e
00000290: d38e 2f3c 32e5 3a3d 2ba7 88bd 8e37 b9bd
000002a0: 72f7 4d3d 6994 f33d 2495 52bd 9a0f 743c
000002b0: 96ed 233e 1728 203e c58e 5dbc 6059 393e
000002c0: d41d 703d 335c da3d 7588 ef3d 6a71 14be
000002d0: c502 a43d 95e0 213d b693 81bd 23ae 75be
000002e0: e1f7 f6bb 9574 24be 6344 6f3d 8ea3 993d
000002f0: 2b74 593d 94ca 98bc 01d2 e53d f222 063e
00000300: a519 b6bd 03dc fabd 9b68 2b3d c0c2 bb3d
00000310: eb30 21bd 42fe 17be 4239 05be 2eef 61bd
00000320: 9ded 4e3d 7275 cebd 6ff4 4f3d a232 60bd
00000330: 1957 b43d 4596 c4bd 4216 04bd 9770 03bd
00000340: 262f a8bd d6ef 57ba 7b68 dabb fe95 7e3d
00000350: bb84 c3bd add1 84bc 8ac6 e4bc 3675 fe3d
00000360: 4f28 e0bd 167c 123d 64d7 e23c 9cee a23d
00000370: 3151 91bc 0e98 f53c 4df4 c4bc 5c94 1d3d
00000380: 5b58 8fbd a743 f5bd f61c 09be 28dc 1fbd
00000390: 1316 93bd 5b28 823c 730c 0ebd 6d67 a2bd
000003a0: 3984 dbbc 4485 2dbd f13c bb3d 1124 b1bd
000003b0: c5af 9dbc 6e11 7cbd 2a46 aebb e752 713a
000003c0: 2c69 03bd ff63 a23d 9d0d 02bd fa0a 45bd
000003d0: 6c16 7e3c 4859 ee3d 7452 bc3d c9d2 a43a
000003e0: 7c8c 8dbd c83b 2d3d 5a8f 813d 569b e33a
000003f0: 6b7d 3b3d cfca cd3d 47cc 93bd 7f77 4d3b
0.034544807 0.013423736 -0.046763796 0.03189993 -0.09439145 0.12667675 0.1120535 0.053224605
-0.027658824 -0.1028279 -0.037527155 0.10584237 -0.10241348 -0.12236448 0.006330357 0.031785246
-0.11948174 -0.10668904 0.012330924 -0.079609804 0.08362779 0.041336976 -0.08950274 -0.10819715
0.010233308 -0.021288656 -0.038551472 0.037816018 -0.025332881 0.08299505 0.03749987 -0.055021152
-0.16590382 0.05096973 -0.07172901 -0.021815186 0.022349404 -0.05824201 0.07774139 -0.08800821
0.0015344482 0.01480966 0.04201902 -0.12629405 0.02110802 0.046081617 -0.06874782 0.018282807
-0.031497866 0.110218115 -0.058973122 0.002457658 -0.0522154 -0.006265341 0.05921058 -0.10323536
0.079223245 0.124654 0.055679593 0.11077041 -0.021752987 0.046385136 0.033146385 -0.18452573
-0.043682434 -0.08082697 -0.17238759 -0.10659451 -0.21891835 -0.022647258 -0.04853452 -0.19312671
0.082752295 0.13171887 0.016793806 0.06910882 -0.092346616 -0.047778383 -0.09128945 -0.010841593
0.07342239 0.06491658 0.07883774 0.13442601 -0.0622442 0.1442532 0.112898864 0.002554239
0.07232697 -0.07909293 0.07466165 0.06921628 0.08535239 0.14590724 0.009352757 -0.012040472
-0.01854199 -0.013689906 0.117079824 0.1082938 0.047721397 0.10025045 0.06095278 -0.042040553
0.04596294 -0.05904711 0.059665356 0.060253106 0.092698984 -0.066347644 -0.062944084 0.16504453
0.0017173733 0.09393642 0.15201853 -0.07309395 -0.012883597 -0.16970463 -0.05968957 -0.059324846
-0.13013017 -0.16276512 -0.080257885 -0.037318338 0.091612905 -0.01809669 -0.03532636 0.08748974
0.109888695 0.011472934 -0.20967032 -0.07413336 -0.22825924 -0.01265867 -0.089373454 -0.07171182
0.053053346 -0.08548084 -0.21692647 -0.17238599 -0.08064635 0.00050100096 -0.11172928 -0.040273838
0.007713705 0.15194005 -0.043226708 0.17597552 -0.09423054 -0.03890658 0.0669196 -0.040117465
0.26370695 -0.07562182 0.12529704 0.14310731 0.0031108856 0.12211808 0.07496674 0.053491436
-0.16292974 0.009893116 -0.05546464 0.2415864 0.010715204 0.045628734 -0.0667251 -0.09043799
0.05028481 0.11893541 -0.051411763 0.014896298 0.160086 0.15640293 -0.013522808 0.181005
0.058622196 0.10662117 0.11695949 -0.14496389 0.08008341 0.03952082 -0.06327002 -0.23992209
-0.0075368737 -0.16060098 0.058414828 0.07501899 0.053089302 -0.018651284 0.11221696 0.13099268
-0.0889161 -0.12248995 0.041847806 0.09168005 -0.039353292 -0.14843085 -0.13010123 -0.05515974
0.050519574 -0.10080995 0.05077022 -0.054735787 0.08805675 -0.09598974 -0.03224779 -0.032089796
-0.08212118 -0.00082373375 -0.006665287 0.062154762 -0.09546801 -0.016213262 -0.027926702 0.124247
-0.10945188 0.03576287 0.027690597 0.079556674 -0.01773891 0.029979732 -0.024042273 0.038471565
-0.06999274 -0.11975794 -0.13389954 -0.039028317 -0.07181945 0.015888384 -0.03467984 -0.07929883
-0.026796447 -0.04236342 0.09142483 -0.08649457 -0.019248853 -0.06154006 -0.005318423 0.0009205774
-0.03208272 0.07929229 -0.031751264 -0.04810617 0.0155082755 0.11638123 0.09195414 0.0012575026
-0.06911561 0.04229334 0.0632617 0.0017365019 0.045773905 0.10048448 -0.07216697 0.0031351743

bias f4 [32]
00000000: bcdc 903d 8c79 08bd a2fb a03d 5df1 68bb
00000010: 466f 093e 03d1 e73d e13d f6bc 9f16 d13d
00000020: da6f 043e e2fb 55bd 3da0 c03c 6884 a3bd
00000030: 6571 ac3d 78a9 74bc 1092 ecbd b770 ad3d
00000040: 6cfd 8a3c 7745 053e 142e 063e 3ada df3d
00000050: 42fd 7d3d 0a38 553d 0cbd 253e 7219 423c
00000060: 87a4 413d d2af 45bd 365d 183d a50e 3cbd
00000070: 3e1c a0bd 1c8c ba3d 5add 6c3d 0aa2 27bd
0.07073352 -0.03331904 0.07860495 -0.0035544254 0.13421354 0.11319163 -0.030058803 0.10209393
0.12933293 -0.052242167 0.023513908 -0.07984239 0.08420066 -0.014932983 -0.11551297 0.08468764
0.016966544 0.1301478 0.13103515 0.10930295 0.062009104 0.052055396 0.16185397 0.011846887
0.047276046 -0.04826338 0.037198268 -0.045912404 -0.07817887 0.09108755 0.057828285 -0.040926017

weight f4 [1, 32]
00000000: a25f 27bd 4b69 a5bd c02a d0bd 8e8e 843c
00000010: ada5 b83d 2f36 823d 2516 d43d 426a cebd
00000020: 3a18 943d 22fa a73d f826 0abc 3d7d 9fbd
00000030: a55a c03d cbf9 c6bd 963a b6bd b242 db3d
00000040: ccc7 133e c0ce d1bd 9084 b8bd 6592 6a3d
00000050: 0443 8abd 7e34 afbd 122a b93d c869 efbd
00000060: ac64 a4bd e5af 85bd b5b4 f73d c533 02bd
00000070: f8c0 11bd 4fe1 4abe 6a22 593d 4553 cbbd
-0.040862687 -0.08076724 -0.10164404 0.016181257 0.09015975 0.06357991 0.10355786 -0.10078861
0.07231183 0.08202006 -0.008432142 -0.07787559 0.09392289 -0.09715613 -0.08897893 0.107060805
0.14431685 -0.102445126 -0.09009659 0.05726852 -0.067510635 -0.08554934 0.090412274 -0.11690098
-0.08027014 -0.0652769 0.12095014 -0.031787653 -0.03558442 -0.19812511 0.053011335 -0.09927992
