ElegantRL/EntornoObservacionesAccionesMejorado/2ksteps_PPO_0/actor__000000081920_53629.238.pt (torch, 27347 bytes, 7 tensors)

state_avg f4 [48]
000000 00 00 00 00 00 00 00 00 00 00 00 00 00 00 00 00
       0.0 0.0 0.0 0.0
000010 00 00 00 00 00 00 00 00 00 00 00 00 00 00 00 00
       0.0 0.0 0.0 0.0
000020 00 00 00 00 00 00 00 00 00 00 00 00 00 00 00 00
       0.0 0.0 0.0 0.0
000030 00 00 00 00 00 00 00 00 00 00 00 00 00 00 00 00
       0.0 0.0 0.0 0.0
000040 00 00 00 00 00 00 00 00 00 00 00 00 00 00 00 00
       0.0 0.0 0.0 0.0
000050 00 00 00 00 00 00 00 00 00 00 00 00 00 00 00 00
       0.0 0.0 0.0 0.0
000060 00 00 00 00 00 00 00 00 00 00 00 00 00 00 00 00
       0.0 0.0 0.0 0.0
000070 00 00 00 00 00 00 00 00 00 00 00 00 00 00 00 00
       0.0 0.0 0.0 0.0
000080 00 00 00 00 00 00 00 00 00 00 00 00 00 00 00 00
       0.0 0.0 0.0 0.0
000090 00 00 00 00 00 00 00 00 00 00 00 00 00 00 00 00
       0.0 0.0 0.0 0.0
0000a0 00 00 00 00 00 00 00 00 00 00 00 00 00 00 00 00
       0.0 0.0 0.0 0.0
0000b0 00 00 00 00 00 00 00 00 00 00 00 00 00 00 00 00
       0.0 0.0 0.0 0.0

state_std f4 [48]
000000 00 00 80 3f 00 00 80 3f 00 00 80 3f 00 00 80 3f
       1.0 1.0 1.0 1.0
000010 00 00 80 3f 00 00 80 3f 00 00 80 3f 00 00 80 3f
       1.0 1.0 1.0 1.0
000020 00 00 80 3f 00 00 80 3f 00 00 80 3f 00 00 80 3f
       1.0 1.0 1.0 1.0
000030 00 00 80 3f 00 00 80 3f 00 00 80 3f 00 00 80 3f
       1.0 1.0 1.0 1.0
000040 00 00 80 3f 00 00 80 3f 00 00 80 3f 00 00 80 3f
       1.0 1.0 1.0 1.0
000050 00 00 80 3f 00 00 80 3f 00 00 80 3f 00 00 80 3f
       1.0 1.0 1.0 1.0
000060 00 00 80 3f 00 00 80 3f 00 00 80 3f 00 00 80 3f
       1.0 1.0 1.0 1.0
000070 00 00 80 3f 00 00 80 3f 00 00 80 3f 00 00 80 3f
       1.0 1.0 1.0 1.0
000080 00 00 80 3f 00 00 80 3f 00 00 80 3f 00 00 80 3f
       1.0 1.0 1.0 1.0
000090 00 00 80 3f 00 00 80 3f 00 00 80 3f 00 00 80 3f
       1.0 1.0 1.0 1.0
0000a0 00 00 80 3f 00 00 80 3f 00 00 80 3f 00 00 80 3f
       1.0 1.0 1.0 1.0
0000b0 00 00 80 3f 00 00 80 3f 00 00 80 3f 00 00 80 3f
       1.0 1.0 1.0 1.0

weight f4 [64, 48]
000000 6a 24 cd bb 96 6b 8d 3d 36 ca f4 bd 6e c0 de bd
       -0.0062604444 0.06905286 -0.11952631 -0.10876547
000010 32 c2 78 bd 40 17 02 3d 42 9c fa ba de 77 d5 3d
       -0.060732074 0.031760454 -0.0019120055 0.104232535
000020 a8 7c 8f bc 18 f4 fd 3c 1f e7 3e bd 75 22 07 bd
       -0.017515495 0.031000182 -0.046607133 -0.032991845
000030 48 0a 10 be e2 aa c8 bd 98 ee 62 bd 13 26 bf ba
       -0.14066422 -0.09798218 -0.055403322 -0.001458349
000040 fe e7 4d 3d 82 a4 9f 3d 08 2e cb bd 18 b2 87 bd
       0.050270073 0.07795049 -0.09920889 -0.066257656
000050 92 11 34 3d 12 ee e3 3d 32 f1 e5 bc f1 51 c9 3d
       0.04396207 0.11129393 -0.028069112 0.09830082
000060 d4 33 e2 bc 76 a0 0f 3c b9 cf fa 3d 68 6f 0a be
       -0.027612604 0.008766284 0.12246651 -0.1351906
000070 40 66 c2 bd 70 a0 24 bd a7 fe 54 bd 37 76 ea 3d
       -0.09492159 -0.040192068 -0.052000668 0.11448329
000080 f4 15 c4 bd d0 5e 90 bd a4 1e d1 bd 81 80 0b be
       -0.095745 -0.07049334 -0.10210922 -0.13623239
000090 35 e7 b4 bd 9d 53 ed 3d 9e b0 85 3d ac 17 7c 3d
       -0.08833162 0.115882136 0.06527828 0.061546013
0000a0 41 a2 17 3b 29 61 9f bd 1f d3 9e 3c 79 a0 0a be
       0.0023137482 -0.07782204 0.01938778 -0.13537778
0000b0 c5 93 df bd e8 6a 99 bd 90 30 b3 3d d9 0e 9b 3d
       -0.10916857 -0.07491094 0.08749497 0.07571191
0000c0 55 32 a6 bd c8 36 7b 3c 60 b6 cd 3d e4 57 26 3e
       -0.08115069 0.015332885 0.10044551 0.16244465
0000d0 c7 8c ad 3d ad a5 86 3d de 25 f6 3d 98 be f6 bd
       0.08474117 0.06574569 0.12018941 -0.120480716
0000e0 ea 73 cf 3b e9 8b b4 bd 5d 62 b0 bd f5 cf 59 bd
       0.0063309567 -0.08815748 -0.08612511 -0.05317684
0000f0 28 40 c2 3d 0a b5 d6 3d 02 86 92 bd 60 ee 70 3a
       0.09484893 0.10483749 -0.07154466 0.0009190794
000100 68 84 81 3d cc de 31 3b 88 23 85 3c 9d f7 7c 3d
       0.063240826 0.0027140854 0.016252294 0.06175958
000110 b0 38 fd 3d 40 d8 40 3e c8 17 03 be 81 4b 9e bd
       0.12364328 0.18832493 -0.1280204 -0.07729245
000120 b5 ab 02 3d a9 a7 0b 3e ea ec 07 3e f5 7a 16 3e
       0.031902034 0.13638176 0.1327397 0.14695342
000130 4d ca 81 3d 84 61 a4 bd 81 ce 1a 3c 4d 54 0c be
       0.06337414 -0.08026412 0.009448648 -0.13704033
000140 c9 4c 1c be 95 3e 14 3e 80 58 f0 3d a2 9a de bd
       -0.15263666 0.14476998 0.1173563 -0.108693376
000150 27 ce 7a 3d f5 2e 89 3c e1 fc 17 3d c9 c5 d1 bd
       0.06123176 0.016746024 0.0371064 -0.10242803
000160 17 bc 28 3d b9 13 80 bd 30 e4 7e 3d a2 07 d9 3d
       0.041195 -0.06253762 0.062229335 0.10597159
000170 f5 06 10 3e 6a fd ce 3d 21 61 0b be f1 a4 f0 bd
       0.14065154 0.10106929 -0.1361127 -0.1175021
000180 60 44 a6 3d dd 5b f6 3d 5a 56 b8 bd 7f ee 06 bd
       0.0811851 0.1202924 -0.09000845 -0.03294229
000190 f1 38 42 3e 10 33 2d 3e 9a 49 67 3d 87 f6 b1 3b
       0.18967034 0.1691401 0.056466676 0.0054309997
0001a0 ec b9 f9 bd c4 31 b5 3d 39 96 b0 bd 6b 76 72 bd
       -0.12193665 0.08847383 -0.08622403 -0.059194963
0001b0 c8 1d 57 3d 4d 16 bf 3d 5e e2 1c 3d 5a 3a fc 3d
       0.052518636 0.093304254 0.038301818 0.12315817
0001c0 83 c9 8e bd 5c 41 5f 3e 85 d0 eb 3d 1e 5c 53 bd
       -0.06972029 0.21802276 0.11514381 -0.05160152
0001d0 b4 9c f0 3c 1f 36 ae 3d be 2c b3 3d 47 96 a2 3d
       0.029371597 0.085064165 0.08748768 0.079388194
0001e0 34 b5 82 3d 43 85 cb 3d bf 23 49 bd 7b 8b 0b 3e
       0.06382218 0.09937527 -0.049106356 0.13627426
0001f0 9e 1c 92 bd 6a 41 1d bc 50 fa fb 3c f6 ac 12 bd
       -0.071343645 -0.009598115 0.030759007 -0.03580948
000200 ca fd 18 bd dd 9c c2 bc 36 49 2d bc 0f f3 d9 3d
       -0.037351407 -0.023756439 -0.010576537 0.10642063
000210 c9 9a e4 bc 0c 8d 8c 3d fb 3f 47 3e 0d 82 f4 3c
       -0.027905839 0.0686284 0.19458 0.02984717
000220 7c 4a 8d 3c 45 9d a1 3d 1c b6 42 3d 1c 13 24 3e
       0.017247431 0.07891325 0.047536954 0.16022915
000230 03 26 4a 3e d8 64 24 3e 0f 41 4e 3e 91 d4 13 3d
       0.19741063 0.16054094 0.20142005 0.03609139
000240 33 c8 00 be 89 eb 87 bd d7 3b c3 3d f3 e4 6d ba
       -0.1257637 -0.06636722 0.09532898 -0.00090749486
000250 ce 84 8e bd 17 b8 db bd 02 29 06 be 4e fe f1 bd
       -0.06958924 -0.10728472 -0.1310158 -0.11816083
000260 99 9e e8 bc ae 3d 9d 3d 88 02 9b 3d 79 43 0a be
       -0.028395938 0.0767778 0.07568842 -0.13502301
000270 a6 d9 b2 3d 38 5c e0 bd d7 74 f2 bc 80 81 68 bd
       0.087329194 -0.10955089 -0.02959673 -0.056764126
000280 f2 ea dc bc ef 2f e1 bc da a4 00 be 0f 8f f7 bd
       -0.0269675 -0.027488677 -0.12562886 -0.12087833
000290 cb 76 b3 bc 0e 4d ed 3a 53 3c 82 bd 9c 06 58 3d
       -0.02190723 0.0018104629 -0.06359162 0.05274068
0002a0 64 07 01 be 20 cc 1a bc 33 2c fc 3d 4b e5 69 bd
       -0.12600476 -0.009448081 0.12313118 -0.057103436
0002b0 86 72 01 3e a8 a9 4f 3d cc 5e 01 be 92 68 b5 3d
       0.12641343 0.050698906 -0.12633818 0.08857836
0002c0 69 5a 84 bc a0 ff 7f bd 4b 46 e5 3d 00 b3 e7 bd
       -0.016156392 -0.062499642 0.11195048 -0.113134384
0002d0 ee 23 76 3c 32 20 f0 bc c5 c0 cc 3d 33 12 20 3d
       0.015023215 -0.029312227 0.09997705 0.039079856
0002e0 a6 c6 89 3d 4a 81 4a 3d 0e e7 09 bd 0e 34 f1 bc
       0.06727342 0.049439706 -0.033667617 -0.029443767
0002f0 bd 49 ec bd a2 5a 9b 3d 55 a3 e3 3d 7c 30 c4 3d
       -0.11537502 0.07585646 0.111151375 0.0957956
000300 0d ce 10 bd 36 db 97 3d 99 10 35 bd 42 25 36 3a
       -0.035352755 0.07414858 -0.044205282 0.0006948301
000310 e1 80 bd bb 0d ae 15 3e 74 a2 29 3c da d0 3c 3d
       -0.005783186 0.14617176 0.010353673 0.046097614
000320 88 51 8c 3d 11 f3 21 3e 37 4e 52 bd 4b 9e a4 bc
       0.06851488 0.15815379 -0.051344123 -0.020095011
000330 79 21 3d bb 11 94 44 3e da d1 9f 3c fa 82 25 3e
       -0.0028859063 0.19197108 0.019509245 0.16163245
000340 44 6c f1 3d 1a 60 af 3d 06 e6 5a 3d c2 ac 77 3d
       0.11788228 0.08563252 0.053442024 0.06046749
000350 39 ea ce 3d 15 88 95 3d de 93 25 3d 7c 66 95 3d
       0.10103268 0.07301346 0.04042422 0.07294938
000360 42 95 45 bd 75 5a b3 bb 88 8d 2b 3e bf 51 dc bc
       -0.048238046 -0.00547343 0.16753209 -0.026894448
000370 c8 47 97 3d 08 57 75 3e c8 15 c7 3d 95 e6 4a 3d
       0.07386738 0.23958981 0.09720951 0.049536306
000380 4f d2 65 bd 25 8d 0c 3e 4d 48 39 bd ef db 6f 3d
       -0.05610877 0.13725717 -0.045234967 0.058559354
000390 4f 0e 22 3d a8 e1 b2 3d 36 fe b7 3d 09 2c 35 3e
       0.039564427 0.08734447 0.08984034 0.1769258
0003a0 52 7a ae 3d bb f0 45 3e 43 7c 0f 3e 84 33 20 3c
       0.085194245 0.19330113 0.14012246 0.009777907
0003b0 4a c1 1c 3e 1a 16 3c 3c 11 8a 1f 3c 10 0a db 3d
       0.15308109 0.011479879 0.009737507 0.10695279
0003c0 08 dd ed 3c 02 57 48 3d da 99 28 bc 6d 7c d5 3c
       0.02903606 0.048911102 -0.010290587 0.026060307
0003d0 a9 9a da 3d ed 2e a6 bd a3 3e 2e 3e 51 5a 41 be
       0.1067403 -0.08114419 0.17016082 -0.18882109
0003e0 a3 ea a0 bc 34 ae a3 bd 76 90 1f bd 58 d9 19 3d
       -0.019643134 -0.07992211 -0.038956128 0.03756079
0003f0 47 e4 19 3e b9 f1 2c 3c 34 22 2f bd 8e 4d 0b be
       0.15028487 0.010555678 -0.042757228 -0.13603804

bias f4 [64]
000000 32 5b 01 3e a6 c5 11 3e 6b f4 7c bd 8b ce 60 bd
       0.12632445 0.14235553 -0.061756533 -0.054884475
000010 b9 df 24 3e bf 80 0e bd e7 21 08 3d 4c b6 93 bc
       0.16100968 -0.03479075 0.033235457 -0.018031262
000020 f6 52 80 3d a5 b9 b7 3d aa 78 46 3d f9 e5 87 3d
       0.062658235 0.08970956 0.048454918 0.06635661
000030 bc 14 b9 3c 73 1f c6 3d 8a b6 27 3d 19 b9 47 bd
       0.022592895 0.09673967 0.040945567 -0.048760507
000040 be a9 e1 bd 0b 73 35 3e 2f e8 69 bc e9 4e d8 3d
       -0.11018704 0.17719667 -0.014276548 0.10561926
000050 1d 14 a2 3d 99 b9 40 3d f6 24 ef bd 2f 2e 3a 3c
       0.079139926 0.047052 -0.116769716 0.01136355
000060 aa 7d 8b bd be 6e b3 3c c2 47 4a bd f1 a1 af 3d
       -0.06811078 0.021903392 -0.04938484 0.0857581
000070 74 ad 14 be 91 3b db bc 2c 47 9c 3d c9 2c 64 bc
       -0.14519292 -0.026761802 0.076307625 -0.013926693
000080 af 08 14 3e 41 d1 55 bd 30 47 fc bd 2c 69 b4 3d
       0.14456438 -0.052201513 -0.123182654 0.088091224
000090 b1 e7 00 3d 48 3a 8d 3d 56 59 70 bd 6a da b2 bd
       0.03147096 0.06895882 -0.058678947 -0.087330654
0000a0 05 9b 9b bd 15 2a 7e 3c ac 0b ac 3c e9 28 9e bd
       -0.07597927 0.015512963 0.02100166 -0.07722647
0000b0 44 29 15 bb 1b a8 10 bd fb 10 17 3e 9b f8 58 bd
       -0.0022760192 -0.035316568 0.14752571 -0.052971464
0000c0 27 c3 21 3e bd ee dd bc e5 03 46 bd 36 c4 31 bd
       0.15797101 -0.027091378 -0.048343558 -0.043400012
0000d0 7a 23 b1 3d a9 1e a0 bd 14 a5 2b 3d 71 73 22 bd
       0.08649345 -0.07818348 0.041905478 -0.039660875
0000e0 83 cd 5c 3e 5a f4 1e 3a b9 18 93 bd dc 80 7e 3d
       0.21562771 0.0006063633 -0.0718245 0.06213461
0000f0 3c ff ab bc ee b1 f5 bd ae e5 10 3d df 68 e5 3d
       -0.020995729 -0.11996828 0.03537529 0.11201643

weight f4 [32, 64]
000000 db ea 0e 3d d4 47 df bb 4e 49 0a bd 80 fb 03 3d
       0.034891944 -0.0068139825 -0.033761315 0.03222227
000010 5e d1 63 bd eb a7 e1 3d c0 5a ca 3d 9b 12 5d 3d
       -0.05561959 0.11018356 0.098805904 0.05397282
000020 d3 44 4e bd 1e 77 fa bd fb a5 ac bd cc ed da 3d
       -0.050358605 -0.12229751 -0.08430096 0.106898874
000030 6f 43 f8 bd ba 35 fe bd a4 3a 7a bc 7c 7f 03 3d
       -0.12122237 -0.12412591 -0.01527277 0.032104
000040 d8 22 f7 bd 31 36 f3 bd fe 6b 93 bb 57 94 26 bd
       -0.12067193 -0.118755706 -0.0044989577 -0.04066881
000050 1b fd ac 3d 4c 05 d4 3c 63 49 e9 bd bb cb df bd
       0.084467135 0.025881432 -0.113909505 -0.109275304
000060 ab 86 aa 3d 8c 1f b0 bc 33 75 73 bd 2c 6d 1c 3d
       0.08326467 -0.021499418 -0.05943794 0.038190052
000070 e7 9b d1 bc 37 7f 6d 3d af e6 8e 3c dc 99 63 bd
       -0.025587035 0.05798265 0.017443983 -0.055566654
000080 69 7f cc bd 45 33 81 3d 54 77 a6 bd 52 9a a1 bc
       -0.09985239 0.06308607 -0.08128229 -0.019726906
000090 54 44 18 3c 72 d1 96 bd a4 9a 74 3d aa 94 d0 bd
       0.009293634 -0.07364167 0.05971779 -0.101846054
0000a0 08 b9 cb 3c 07 f7 42 3c 23 d6 2d 3d 95 98 02 be
       0.024868503 0.011899716 0.042440545 -0.12753518
0000b0 32 61 85 3a 3d b4 32 3d a4 94 b1 bd 3a ab c2 3c
       0.0010176061 0.04362892 -0.08670929 0.023763288
0000c0 17 4f a4 ba e8 79 b8 3d b4 06 ef bc 74 53 81 bc
       -0.0012535778 0.09007627 -0.029178001 -0.015786864
0000d0 d1 01 58 bd f3 95 eb bc a3 d3 98 3c e9 fa f3 bd
       -0.052736107 -0.028758025 0.018655604 -0.11913092
0000e0 e6 92 a5 3d 98 6d a6 3d ea 00 0f 3d 57 39 a8 3d
       0.08084659 0.08126372 0.03491298 0.08214062
0000f0 2a ac 36 bd eb 43 9a 3c 1a cd ed 3a 3f 18 af bd
       -0.044597782 0.018831214 0.001814279 -0.085495465
000100 5a b3 34 bd 68 85 ac bd 08 0f 3b be 39 7d dc bd
       -0.044116355 -0.08423883 -0.18267453 -0.10766072
000110 b2 47 65 be b1 b2 aa bc 1b 4c fb bc 85 92 43 be
       -0.22390631 -0.02083716 -0.030675938 -0.19098862
000120 03 4a 8d 3d a7 fb 13 3e 2b ba b0 3c ed f4 8e 3d
       0.06898882 0.14451467 0.021573147 0.0698031
000130 29 da b5 bd 2e ef 1e bd 33 db a4 bd 16 5c 01 bc
       -0.088795014 -0.03880232 -0.080496214 -0.00789549
000140 8e de 97 3d c0 c3 1d 3d fe 3b 9c 3d 5d f9 07 3e
       0.07415496 0.03851676 0.0762863 0.13278718
000150 e3 be 80 bd d4 37 0d 3e 82 bd fd 3d 05 12 29 3b
       -0.06286409 0.13790828 0.12389661 0.0025798094
000160 3e 13 f3 3c 79 9b a3 bd 40 43 a4 3d 44 2d 8f 3d
       0.029672261 -0.079886384 0.080206394 0.069910556
000170 a3 cb b2 3d 96 d0 21 3e e7 44 dc 3b 66 40 47 bc
       0.08730247 0.15802225 0.006722081 -0.01216135
000180 e9 a6 e0 bc 1a 36 55 38 03 e2 03 3e f0 28 3b 3d
       -0.027423339 5.0833543e-05 0.12879185 0.045693338
000190 da 3d 79 3d ce 0e 92 3d 8d c0 8d 3d 62 34 18 bd
       0.060850002 0.0713173 0.06921492 -0.03715933
0001a0 db 1e 7a 3d 97 79 33 bd a9 d3 76 3d 66 2e 8f 3d
       0.061064582 -0.04381713 0.06026045 0.06991272
0001b0 36 5e dc 3d a3 50 70 bd d9 52 6c bd cd 65 32 3e
       0.10760157 -0.05867065 -0.057696197 0.17421646
0001c0 1a 9e aa 3b 23 86 c8 3d 5f f7 b0 3d a4 5a 8f bd
       0.0052068355 0.097912095 0.08640932 -0.0699971
0001d0 03 2f 55 bc 8d 30 3c be 4f a4 2a bd f6 2f 4f bd
       -0.013011697 -0.18377896 -0.041660603 -0.05058285
0001e0 e2 22 14 be 52 98 22 be dc 39 94 bd 96 fa 0c bd
       -0.14466432 -0.15878418 -0.07237598 -0.034418665
0001f0 ed 0f d9 3d b5 1d 02 bc 8e 2d 3a bd 9b f6 e9 bc
       0.10598741 -0.007941653 -0.0454536 -0.028559973
000200 53 49 e3 3d ca 30 a1 3a 53 a4 72 be 3b 59 99 bd
       0.1109797 0.0012297865 -0.23695497 -0.074877225
000210 23 c0 68 be 0b ee c2 bc 32 5e a5 bd d2 30 88 bd
       -0.22729544 -0.023795148 -0.08074607 -0.06649937
000220 2a 9a b3 3c 29 d5 9b bd 7e d6 4d be 13 4c 32 be
       0.021924097 -0.076090164 -0.20101354 -0.17411833
000230 04 48 b7 bd 6e 4c 47 3c e2 82 e7 bd bb 31 e9 bc
       -0.08949283 0.012164218 -0.11304261 -0.028466096
000240 b6 49 ff 3b 76 8b fa 3d 73 4e 70 bd 26 d7 2c 3e
       0.0077907695 0.12233631 -0.058668565 0.16878948
000250 f1 e9 c2 bd 08 8d 7a bd 91 d0 98 3d 36 f2 25 bd
       -0.09517277 -0.061169654 0.07461656 -0.040514193
000260 f1 a2 5d 3e a3 67 9c bd 52 85 00 3e b9 03 14 3e
       0.21644188 -0.07636955 0.12550858 0.14454545
000270 94 d1 85 bb 98 96 03 3e 81 ff 78 3d d6 48 5d 3d
       -0.0040838216 0.12850416 0.060790543 0.05402454
000280 2d 56 2a be 28 16 cc 3c 7c 7e 56 bd e9 fe 2e 3e
       -0.16634436 0.024912909 -0.05236672 0.17089428
000290 8d e1 9e 3c 4f 05 d0 3b fa a6 96 bd 4c d4 cc bd
       0.01939466 0.006348289 -0.07356067 -0.1000143
0002a0 a1 ff 8f 3d 49 f2 0a 3e 4c ab 54 bd fd 22 31 3c
       0.07031179 0.13568987 -0.051921174 0.0108115645
0002b0 53 0c 32 3e 34 aa 2e 3e 95 9b a6 bc c1 ac 3b 3e
       0.17387514 0.17057115 -0.02033786 0.18327619
0002c0 66 25 48 3d b7 22 cf 3d 17 1f bf 3c 35 41 1d be
       0.04886379 0.10114043 0.023330254 -0.15356906
0002d0 c5 a2 a5 3d ce 3e 5e 3c bc 5d 87 bd 79 9c 6e be
       0.080876864 0.0135647785 -0.06609675 -0.23301877
0002e0 cc dd a6 bc f2 a3 31 be 1e 18 71 3d 01 61 8f 3d
       -0.020369433 -0.17347696 0.05886089 0.07000924
0002f0 c0 27 82 3d b3 00 5a bc 74 4a c2 3d 95 02 0a 3c
       0.06355238 -0.013305831 0.09486857 0.008423467
000300 a5 ed b7 bd 1c 8e f6 bd 8f 89 3c 3d c0 a3 bd 3d
       -0.08980874 -0.12038824 0.046029624 0.092597485
000310 a7 3a 19 bd 66 00 16 be d1 61 05 be 7c 91 58 bd
       -0.03740945 -0.1464859 -0.13025595 -0.05287312
000320 b5 96 54 3d 31 8e ce bd 6f 09 52 3d a2 6e 62 bd
       0.051901538 -0.100857146 0.051278528 -0.05528129
000330 11 be bc 3d 11 31 c2 bd e5 75 00 bd 97 c2 04 bd
       0.0921594 -0.09482015 -0.031362433 -0.032412138
000340 26 dc a9 bd 41 c7 c1 3a 45 12 8c bb f2 89 80 3d
       -0.08293943 0.0014784114 -0.004274639 0.06276311
000350 f1 74 c5 bd 56 cd 75 bc 72 38 e0 bc 9b 7f 00 3e
       -0.096414454 -0.015002569 -0.027370665 0.12548678
000360 9a b3 e1 bd 16 f5 13 3d 35 ed f0 3c 9c 8e a4 3d
       -0.110205844 0.036122404 0.029409984 0.08035013
000370 af c4 92 bc 93 d5 fa 3c b8 53 b1 bc 5c 27 1f 3d
       -0.017916052 0.030619418 -0.021646366 0.038855895
000380 5b c4 90 bd a7 b3 f7 bd e4 0f 0a be 6f 70 21 bd
       -0.07068702 -0.12094813 -0.13482624 -0.039413866
000390 e1 4f 93 bd 3d 76 83 3c c5 5a 02 bd da 86 a2 bd
       -0.0719297 0.016047591 -0.031824846 -0.07935877
0003a0 c4 07 dd bc 44 3f 2f bd f1 1d bd 3d 11 eb b2 bd
       -0.026981242 -0.042784944 0.092342265 -0.087362416
0003b0 9b 8a 9c bc 44 94 7e bd 0e 8f 5f bb fa b3 86 3a
       -0.019109061 -0.062153116 -0.0034112367 0.0010277026
0003c0 2c bb 04 bd 27 02 ab 3d 6d 5a 03 bd b6 4a 3a bd
       -0.032405064 0.0835002 -0.03206866 -0.045481406
0003d0 36 50 80 3c 03 68 f5 3d 9a 47 c0 3d 81 cc 98 3b
       0.015663248 0.11982729 0.09388657 0.0046630506
0003e0 56 ea 86 bd 18 70 31 3d cc a0 88 3d ab f7 7b 3b
       -0.06587665 0.04331979 0.066712946 0.0038447182
0003f0 a8 17 40 3d 71 80 d3 3d e7 da 94 bd 62 80 4f 3b
       0.04689756 0.10327233 -0.07268315 0.0031662215

bias f4 [32]
000000 15 ff 81 3d ff 53 0c bd 07 a6 9e 3d fc 3a 07 bb
       0.06347481 -0.034259792 0.07746511 -0.0020634523
000010 a3 ef 08 3e 7f 7d f3 3d 5a d0 0c bd 9f 2b d3 3d
       0.13372664 0.11889171 -0.034378387 0.103110544
000020 39 4f 04 3e 6c c3 79 bd 3d 8e c2 3c 1f b4 c4 bd
       0.12920846 -0.060977384 0.023749465 -0.09604668
000030 ec 3e 88 3d 78 19 77 bc d3 b5 df bd 37 b4 a8 3d
       0.066526264 -0.015081756 -0.10923352 0.08237498
000040 2b 29 89 3c 43 d5 20 3e d5 29 0c 3e 90 3e b9 3d
       0.016743263 0.15706353 0.13687833 0.09045136
000050 a1 43 80 3d 55 28 56 3d 7e 6e 25 3e 6b bd 57 3c
       0.06262899 0.052284557 0.1615543 0.013167719
000060 c5 bf 80 3d 10 6a eb bc 4f c3 ea 3c e3 ce 15 bd
       0.06286577 -0.028737098 0.028657584 -0.036574256
000070 96 b2 a1 bd 09 8b b2 3d 20 6a 9a 3d d4 af 77 bd
       -0.07895391 0.08717925 0.07539773 -0.060470417

weight f4 [1, 32]
000000 49 ce a7 bc be f4 b9 bd 80 22 cc bd e7 67 86 3c
       -0.020484107 -0.09079884 -0.09967518 0.016406966
000010 c1 25 bc 3d c6 39 a4 3d e4 dd bb 3d 36 79 d0 bd
       0.091868885 0.08018832 0.09173182 -0.10179369
000020 ea 10 95 3d e9 3a 96 3d f8 85 0b bc 9b cf 79 bd
       0.07278617 0.07335455 -0.008515827 -0.060989004
000030 37 6f b0 3d cb f4 c8 bd 59 de bc bd 76 1b d4 3d
       0.086149625 -0.098123156 -0.09222097 0.103568
000040 38 b6 0b 3e d1 e3 b8 bd f7 10 cd bd 8c e7 71 3d
       0.1364373 -0.090278275 -0.100130014 0.05905871
000050 04 a2 8b bd c3 89 b3 bd 2e 85 a0 3d 8f b0 fd bd
       -0.068180114 -0.0876651 0.07837902 -0.123871915
000060 46 25 9c bd f0 0d 8a bd 28 67 e8 3d cb 70 2f bc
       -0.07624297 -0.067409396 0.113478005 -0.010708044
000070 73 38 13 bd 4b 54 37 be db 77 34 3d 27 a9 6b bd
       -0.035942506 -0.17903249 0.044059616 -0.057534363
