ElegantRL/EntornoObservacionesAccionesMejorado/2ksteps_PPO_0/actor__000000002048_-5697033.500.pt (torch, 27392 bytes, 7 tensors)

state_avg f4 [48]
00000000: 0000 0000 0000 0000 0000 0000 0000 0000
00000010: 0000 0000 0000 0000 0000 0000 0000 0000
00000020: 0000 0000 0000 0000 0000 0000 0000 0000
00000030: 0000 0000 0000 0000 0000 0000 0000 0000
00000040: 0000 0000 0000 0000 0000 0000 0000 0000
00000050: 0000 0000 0000 0000 0000 0000 0000 0000
00000060: 0000 0000 0000 0000 0000 0000 0000 0000
00000070: 0000 0000 0000 0000 0000 0000 0000 0000
00000080: 0000 0000 0000 0000 0000 0000 0000 0000
00000090: 0000 0000 0000 0000 0000 0000 0000 0000
000000a0: 0000 0000 0000 0000 0000 0000 0000 0000
000000b0: 0000 0000 0000 0000 0000 0000 0000 0000
0.0 0.0 0.0 0.0 0.0 0.0 0.0 0.0
0.0 0.0 0.0 0.0 0.0 0.0 0.0 0.0
0.0 0.0 0.0 0.0 0.0 0.0 0.0 0.0
0.0 0.0 0.0 0.0 0.0 0.0 0.0 0.0
0.0 0.0 0.0 0.0 0.0 0.0 0.0 0.0
0.0 0.0 0.0 0.0 0.0 0.0 0.0 0.0

state_std f4 [48]
00000000: 0000 803f 0000 803f 0000 803f 0000 803f
00000010: 0000 803f 0000 803f 0000 803f 0000 803f
00000020: 0000 803f 0000 803f 0000 803f 0000 803f
00000030: 0000 803f 0000 803f 0000 803f 0000 803f
00000040: 0000 803f 0000 803f 0000 803f 0000 803f
00000050: 0000 803f 0000 803f 0000 803f 0000 803f
00000060: 0000 803f 0000 803f 0000 803f 0000 803f
00000070: 0000 803f 0000 803f 0000 803f 0000 803f
00000080: 0000 803f 0000 803f 0000 803f 0000 803f
00000090: 0000 803f 0000 803f 0000 803f 0000 803f
000000a0: 0000 803f 0000 803f 0000 803f 0000 803f
000000b0: 0000 803f 0000 803f 0000 803f 0000 803f
1.0 1.0 1.0 1.0 1.0 1.0 1.0 1.0
1.0 1.0 1.0 1.0 1.0 1.0 1.0 1.0
1.0 1.0 1.0 1.0 1.0 1.0 1.0 1.0
1.0 1.0 1.0 1.0 1.0 1.0 1.0 1.0
1.0 1.0 1.0 1.0 1.0 1.0 1.0 1.0
1.0 1.0 1.0 1.0 1.0 1.0 1.0 1.0

weight f4 [64, 48]
00000000: 0088 8dba 1474 9e3d fc1b f3bd c861 d9bd
00000010: b288 63bd 546a 1e3d 4046 3bbb 7c33 ea3d
00000020: 40b4 51bc d451 1c3d 9e88 32bd e83e e8bc
00000030: bd17 0dbe d69f c3bd 8485 73bd 0012 af3b
00000040: 8c8b 693d 663b b13d d23f c8bd 69a0 80bd
00000050: 8492 563d 2847 f53d 8327 f3bc 1409 dd3d
00000060: d870 bebc 600a 7a3c b6ba 053e 7901 09be
00000070: f0f3 b9bd 488f 15bd cc46 66bd c834 ff3d
00000080: a475 bfbd 70f8 87bd 3c5d cebd df51 0abe
00000090: 3e6c acbd 9ce7 fd3d 54cd 833d 5429 8f3d
000000a0: 608c f83b 0b6f 97bd d8e4 c73c 6be5 09be
000000b0: ce6d d5bd 7346 98bd e25d ba3d 8a2f ad3d
000000c0: 8a0b 89bd f252 92bb abf5 b63d 567b 0a3e
000000d0: e136 4d3d e384 133c 4ac3 bc3d 0c89 b3bd
000000e0: 7961 c63c e67e e3bd afac d2bd 8b49 a7bd
000000f0: 2b3f 6e3d efa3 4a3d be46 bcbd 3698 303d
00000100: 8fc6 9c3d 8f13 8fbc b46d 2a3b d5b2 da3c
00000110: a4c9 a83d fbdf 063e d9fe f3bd d7f4 57bd
00000120: 1df8 5d3d a73f f63d 9516 fb3d 4850 f63d
00000130: 0bf1 b13c 270f 07be 3aa9 af3b 301c babd
00000140: f90b 0cbe e0f9 033e 16a4 da3d 1560 1abe
00000150: 98c1 a43c 9cc8 ffbc bf0b 03bd c01f 87bd
00000160: 6274 593d 9d70 adbd 51a9 4c3d fd8c 863d
00000170: a27c c53d 396e 423d b296 1ebe f0e5 bfbd
00000180: c07b 8d3d 1b61 fb3c 5f48 edbd a0e7 afbd
00000190: 4f3b 0c3e 266b c93d 65e1 6cbd ea06 29bd
000001a0: dd54 10be 0932 09bb d54c e5bd aeb0 e9bd
000001b0: 84d0 dabb ee81 bb3c 3f52 61bd d43f a53d
000001c0: 6955 babd 1485 063e 2f8f c33d 31fc f6bd
000001d0: 3ccc 0dbd efee fe3b f7c1 cb3c 9a51 f03c
000001e0: 7ef1 5d3d 4bb8 153c adfc 96bd 7c1e 8f3d
000001f0: 365a 0cbe aeeb abbd 9879 0bbd 21c5 99bd
00000200: 9531 58bd 8d13 f1bd 6963 0bbd 9e2b 053d
00000210: f6c2 bdbd 65e6 bcbb c0ac d73d 5946 a1bc
00000220: dfff ac3a 65ae 43bc 61aa d33c d5a2 be3d
00000230: bc39 0d3e 417f be3d 43db 0d3e 170d 7cbc
00000240: ffab 04be 8908 8cbd 2220 c93d 0017 75ba
00000250: b6d0 92bd 3a5a e2bd 0c37 0abe dc4c f9bd
00000260: 3ca7 efbc 54fc a13d b8b1 9f3d 6d6f 0ebe
00000270: 5e40 b83d fa22 e7bd 70c8 f9bc d888 6fbd
00000280: 3894 e3bc 80fb e7bc 3c87 04be 310a ffbd
00000290: 00e2 b8bc 8078 f43a 012f 86bd 048a 5e3d
000002a0: b7ed 04be 8079 1fbc cae1 013e 02f7 70bd
000002b0: 225d 053e 94f1 553d 9e48 05be 06e2 ba3d
000002c0: a856 88bc 98db 83bd 5433 ec3d 2ab1 eebd
000002d0: f08f 7d3c 745f f7bc 16ef d23d 38e8 243d
000002e0: faed 8d3d 38a1 503d 960f 0ebd 007a f8bc
000002f0: e969 f3bd c20c a03d dc85 ea3d 381b ca3d
00000300: d12d c1bd 7217 633c 423e c7bd 57a8 97bd
00000310: 80e6 a2bd c2c4 6e3d d789 c1bd b91f 993a
00000320: ea58 5a3c a89e cd3d ae4d d6bd bdbc c0bd
00000330: 871d a2bd 7c9c dc3d 394a 68bd bba1 003e
00000340: f533 743d e575 d23c 07f4 583b 7ad1 babc
00000350: 981b bb3c 0ffa d1bc 6c08 a2bb c679 be3c
00000360: d2c2 d7bd 899a 8bbd 727e f73d b760 e4bd
00000370: 81f4 b3bb cf03 1b3e 3988 313d 98e0 123c
00000380: 40a9 f0bd 5789 a13d c469 c9bd c0a6 11bd
00000390: ffdc 31bd 029c 53bc fd9c 34bc 524e fd3d
000003a0: 4a98 ce3c afe3 0b3e 41aa bd3d 5867 b1bd
000003b0: cc92 8e3d 11a9 c5bd 8223 88bd 817c 3f3d
000003c0: bca2 273d 4e11 c83d 96cb 33bd 326d 9a3b
000003d0: 743a 9f3d 2067 06be 19ad d53d b639 03be
000003e0: 17c9 a3bb fd80 0fbd ef60 96bd 4e36 bc3c
000003f0: 3889 fb3d 1eaa 10bd 16b6 b7bd 5d29 85bd
-0.0010797977 0.07736984 -0.11870572 -0.106143534 -0.055550285 0.03867562 -0.0028575808 0.11435601
-0.012799323 0.038163975 -0.04358732 -0.028350309 -0.13778587 -0.09551971 -0.059453502 0.005342722
0.057017848 0.086539075 -0.09777798 -0.06280596 0.052385822 0.119764626 -0.029681927 0.10792747
-0.023247167 0.015261263 0.13059506 -0.13379468 -0.090797305 -0.036513597 -0.05621986 0.12461239
-0.0934861 -0.066391826 -0.10076377 -0.13507794 -0.08419083 0.123976916 0.064356476 0.069903046
0.0075850934 -0.07394227 0.024401113 -0.13466422 -0.10421334 -0.07435312 0.09099938 0.08456333
-0.06691654 -0.0044654543 0.08933576 0.13523611 0.050101165 0.009003851 0.09216936 -0.08766374
0.0242164 -0.11108188 -0.10286843 -0.08168324 0.05816571 0.049472746 -0.091931805 0.04311391
0.076550595 -0.017465381 0.002600533 0.026696602 0.08241585 0.1317138 -0.11913843 -0.05272373
0.054191697 0.120238595 0.122601666 0.12027031 0.021721384 -0.13189374 0.0053607496 -0.090874076
-0.13676442 0.12888288 0.10675828 -0.15075715 0.020111844 -0.031223588 -0.031993624 -0.06597853
0.053089507 -0.08468745 0.04996616 0.0656986 0.096429124 0.047468398 -0.15487173 -0.09370029
0.06908369 0.030685952 -0.11586069 -0.08589101 0.136945 0.0983489 -0.05783214 -0.04126636
-0.14094873 -0.0020934364 -0.11196295 -0.11410652 -0.006677689 0.022889104 -0.055010077 0.08068815
-0.09098322 0.13136703 0.095487945 -0.120598204 -0.0346186 0.007779948 0.024872763 0.029335786
0.054185383 0.009138177 -0.07372413 0.06988236 -0.13706288 -0.08394562 -0.034051508 -0.075083025
-0.05278166 -0.11771307 -0.03403035 0.0325123 -0.092657015 -0.00576477 0.10530996 -0.019686865
0.0013198814 -0.011943434 0.025838079 0.093084015 0.13791555 0.093016155 0.13853173 -0.01538398
-0.12956236 -0.068375655 0.09820582 -0.00093494356 -0.07168715 -0.110523656 -0.13497561 -0.12172863
-0.029254548 0.07909456 0.07797569 -0.13909693 0.08996652 -0.11285968 -0.030491084 -0.058480114
-0.027780637 -0.028318167 -0.12942213 -0.12453116 -0.022568703 0.0018651634 -0.06551934 0.05433084
-0.12981306 -0.009733558 0.12683788 -0.058829315 0.13023809 0.05223234 -0.13015983 0.09125142
-0.016642883 -0.064383686 0.115332276 -0.11654885 0.015476212 -0.030196883 0.10299508 0.040260524
0.06930156 0.050935 -0.034682833 -0.030331612 -0.11885435 0.07814933 0.11451313 0.09868473
-0.09432567 0.01386057 -0.097286716 -0.07405155 -0.07954121 0.05829311 -0.09450119 0.0011682428
0.013326863 0.10040027 -0.10464035 -0.09410999 -0.07915788 0.107720345 -0.05671141 0.12561695
0.059619863 0.025690982 0.0033104436 -0.022804964 0.022840306 -0.025631933 -0.0049448516 0.023251425
-0.10535206 -0.068165846 0.120846644 -0.111512594 -0.0054917936 0.15138172 0.043342803 0.00896468
-0.11751032 0.078875236 -0.09834626 -0.035559416 -0.04342365 -0.012915613 -0.011023757 0.12368454
0.025219101 0.13661073 0.09260989 -0.086622894 0.06961593 -0.096513875 -0.066473976 0.046749596
0.04092668 0.097689256 -0.043895327 0.004712724 0.07774821 -0.13125277 0.104334064 -0.12814984
-0.004998337 -0.035035122 -0.07342707 0.022975113 0.12282032 -0.035318486 -0.08970277 -0.0650203

bias f4 [64]
00000000: 80e1 093e caf2 d13d 22ed ffbd e697 67bd
00000010: 4e58 a63d 2661 a2bd 8764 733c 4d86 84bd
00000020: 8f64 e73c 5c64 943d 466a 553d 8885 e13d
00000030: 4f87 39bc 657e b63d e8cb 383d 612d 4bbd
00000040: 2038 c7bd c0d6 013e 0c41 37bd 5092 e73d
00000050: 8163 b03d 18a8 89ba 20a4 00be 3122 8b3c
00000060: 3aff 82bd 0764 103d 5c5c 62bd 81ee d73d
00000070: 8d05 f2bd eb0d 0cbd 6fa1 d83c 978b 503b
00000080: 985b 053e 52c9 4ebd 378e ebbd 6516 e23d
00000090: bdf6 1b3d c69c d13d fa7d a2bd 7450 93bd
000000a0: 89f0 60bd 9b67 673c 926b 3f3d 5b72 82bd
000000b0: a07b 5ebc 6324 45bc ad9f 073e 9f36 42bd
000000c0: 34e0 223e 71a2 b2bd a1c4 46bd e325 e6bd
000000d0: fe03 d53d d2f8 c3bd d709 563d 2287 66bd
000000e0: 6981 1a3e d666 bb3c 809f ddbd 2f58 b83c
000000f0: 9fa9 523c 2555 0fbe 9aa9 f53c 3138 0a3e
0.13464928 0.102513865 -0.12496401 -0.056541346 0.081223115 -0.07928686 0.014855511 -0.06470928
0.028246192 0.072457045 0.052103303 0.11011797 -0.011323764 0.089108266 0.045116335 -0.049603824
-0.09727502 0.12679577 -0.044739768 0.11307204 0.08612729 -0.0010502366 -0.12562609 0.016984077
-0.06396337 0.035251644 -0.055263862 0.10543538 -0.11817465 -0.03419296 0.026444165 0.0031821483
0.13023221 -0.050484963 -0.11501735 0.11039428 0.038077105 0.1023498 -0.07934184 -0.071930796
-0.054916892 0.014123823 0.046733446 -0.06369468 -0.013579279 -0.012032601 0.13244505 -0.047415372
0.15905839 -0.087223895 -0.048527364 -0.11237695 0.10401152 -0.09568943 0.052255478 -0.056281216
0.15088429 0.022876184 -0.10821438 0.022502987 0.012857824 -0.13997324 0.029988099 0.13497998

weight f4 [32, 64]
00000000: 683a 133d 6de3 46bb 081e d4bc 18f4 073d
00000010: fdb5 6abd ed62 f73d d43e d93d fbcf 663d
00000020: 1046 46bd 5830 f0bd 7a9d 96bd 9235 f33d
00000030: 1b1c f0bd 22fc f6bd a802 37bc 1d7f 293d
00000040: 7899 febd 5b01 f2bd b5c8 b5ba 049c 2bbd
00000050: 9e36 b23d 091d 0c3d ba0b debd 348f e6bd
00000060: f6ac af3d a870 b5bc a6b8 67bd 2c26 213d
00000070: aa80 d7bc d8ac 743d c29f ea3c e9c7 69bd
00000080: 4614 d0bd e35a 873d bcb0 99bd 65e9 95bc
00000090: fe58 8b3c 01f9 98bd 09af 873d 36ee b3bd
000000a0: f315 f23c 83d9 483c 3076 333d 280d fbbd
000000b0: 806d ec3b d49c 753d 842b a8bd d832 fd3c
000000c0: 5d45 a9ba 7603 d93d 3fd7 edbc 00b2 5f3a
000000d0: 1c85 5ebd 282d fcbc e875 123d e4a4 fabd
000000e0: 1bf0 bb3d aec3 b43d 6caa 583d 147f bf3d
000000f0: 16a0 23bd e80f e93c d0ba 893b 9d61 b4bd
00000100: 10b0 44bd 0228 25bd d178 0fbd f223 e3bd
00000110: 8617 e1bd 2eda 86bc 1c5e 53bc 6158 d4bd
00000120: 582e 2f3d fb0a a03d c462 e33d 22a4 dd3d
00000130: da6c aabd 6b68 9fbc 9211 66bd b266 bb3c
00000140: 67ef 573d e736 1a3d f059 a53d 3bfd 9c3d
00000150: ae02 95bd 9bbf d03d 8db1 b93d d13b 0e3d
00000160: 210d cabd 7278 9abd cb6b 3e3d 9b18 523d
00000170: 04c3 063e 3b8b 943d 00fd 463d b254 ed3a
00000180: 5628 d43d 0971 f0bc 597c 783d 65d4 37bd
00000190: 0028 fd3b db96 b43d a300 823d b0ac b0bc
000001a0: b172 513c 281e 48bd e045 923d 922d d93d
000001b0: e81b 303d 8865 ccbd 7706 a9bd 2b1e cb3d
000001c0: 5a9c 903b f253 a63d 4130 db3d 8a1c a0bc
000001d0: 784a 85bd f89b e3bd 59fe 5b3d deb8 993d
000001e0: 69b8 0dbd 9473 e5bd 2d11 94bd 4ac1 e9bb
000001f0: c368 863d 99b8 15bd 0672 90bd fbf2 9abd
00000200: fedf e43d 77bd 393d c437 e3bd 3efa 9dbd
00000210: cd4f 05be 51a2 ab3b 8450 74bd 04f0 4a3c
00000220: 76c9 f9bb 1f63 f0bd 255f 01be 45b6 e2bd
00000230: 1594 96bd 6162 3f3d a093 9dbd 9843 a8bb
00000240: 4868 adbc ca00 f73d 4ac6 68bd 5c9c dc3d
00000250: 9677 cfbd f313 babd 988c 033d 2670 88bd
00000260: 95a4 5a3d 406f 91bd 1761 c53d 68c8 f13d
00000270: 3551 e63c 421f 6c3c 73fd be3d 9404 7f3d
00000280: fa5b a9bd cdde 9b3c 4655 f0bd 94c5 e03d
00000290: 4d6c e0bc dda6 4d3c 1967 b7bd a5d4 9bbd
000002a0: 9916 043d 0c19 043e 6156 3bbd a54f 273d
000002b0: a08e e73d af31 113e 3f21 19bd d040 e83d
000002c0: 8478 953d b003 d93d f418 c03c 697a d7bd
000002d0: 9720 8dbc 7110 083d 374b 703d 94d7 eebd
000002e0: 8a4b a83d 0b26 edbd 5056 863d 6aaf ee3d
000002f0: 1a42 d93c ddce fcbc af2a 913d 7a82 5bbd
00000300: a87b bdbd 1af2 b1bd c2dc 7e3d 6c5d c33d
00000310: a85a 153c 2de9 debd ef2e f4bd fb3e b0bc
00000320: 3c46 983d 28fe 94bd ad0a 1e3d 974c 85bd
00000330: 416c da3d d0be b3bc 130b bdbc cb5b e0bd
00000340: 522b c2bd 2098 8a3c 6be6 ca3c 5a1a 953d
00000350: 04ec d6bd 9c8c 003d 48da 8abc ea8d b23d
00000360: 955d 5dbd e06b 183d 9b83 663d 86f6 8a3d
00000370: 2dfe ffbc b287 313d 20bc abbc 1d12 113d
00000380: 309b 81bd 96d1 b7bd 6a37 c9bd b84d 87bd
00000390: 0136 4abd b518 c93c da67 b6bc 1af2 87bd
000003a0: 3b87 463b aa4d 0bbd aaea af3d ca45 a7bd
000003b0: d0d6 3cbd 6596 81bd 8d64 a53c f28a 563c
000003c0: 5edb 663c c751 ff3d 04db 08bd 13f8 5bbc
000003d0: 682d 043d 305d dd3d 2123 c43d 780c a73c
000003e0: 57e0 14bd badd 3f3d dd10 a93d 27a9 aebb
000003f0: 8e0c 933d c3d4 d33d b938 81bd b246 9cbc
0.035944372 -0.0030347959 -0.025893226 0.03319177 -0.057302464 0.120794155 0.10607687 0.05635069
-0.04840666 -0.11727971 -0.07354255 0.11875452 -0.11724111 -0.12059809 -0.011170067 0.04138099
-0.124316156 -0.11816665 -0.001386902 -0.041896835 0.08701824 0.034207378 -0.108420804 -0.112577826
0.085779116 -0.022148445 -0.05657258 0.039343044 -0.026306469 0.05973515 0.028640632 -0.057075415
-0.10160117 0.06609132 -0.075044125 -0.018299768 0.017010208 -0.07469369 0.06625182 -0.087856695
0.029551482 0.01225889 0.043813884 -0.12258369 0.007215202 0.059964016 -0.08211425 0.030908033
-0.0012914349 0.10596363 -0.029033301 0.0008533299 -0.05432616 -0.03078325 0.035756975 -0.12238482
0.09176656 0.088263854 0.052896902 0.0935041 -0.03994759 0.028449968 0.004203178 -0.08807681
-0.04801947 -0.040321358 -0.03502733 -0.110908404 -0.10990815 -0.016461458 -0.012900855 -0.103684194
0.042768806 0.07814594 0.111028224 0.108223215 -0.08321543 -0.01945897 -0.0561691 0.022876117
0.052718546 0.037650015 0.08073795 0.076654874 -0.07275902 0.10192796 0.09067068 0.034725014
-0.098657854 -0.07542504 0.046489518 0.051292997 0.1316033 0.072531186 0.048581123 0.0018106906
0.10359256 -0.029350774 0.060665462 -0.04488029 0.0077257156 0.08817836 0.06347778 -0.021566719
0.012783692 -0.048856884 0.07142234 0.10604395 0.042995363 -0.09980303 -0.08253186 0.099178635
0.00441317 0.0812148 0.10702563 -0.019544858 -0.065083444 -0.11113733 0.05370936 0.07505964
-0.034599695 -0.112036854 -0.072298385 -0.0071336376 0.065629505 -0.036553 -0.07052998 -0.07565876
0.111755356 0.045346703 -0.11094621 -0.077137455 -0.13018723 0.0052378555 -0.0596471 0.012386326
-0.007622893 -0.11737656 -0.12633951 -0.110699214 -0.07352463 0.04672468 -0.07694173 -0.005135011
-0.02116789 0.120606974 -0.05682973 0.10772011 -0.10130231 -0.09085836 0.032116503 -0.066620156
0.053379614 -0.071012974 0.09637659 0.118058026 0.028114894 0.014411749 0.09325685 0.062260225
-0.08269496 0.019027138 -0.117350146 0.10975185 -0.027395392 0.01255199 -0.08955211 -0.07608918
0.032248113 0.1290018 -0.045736674 0.04084744 0.113065004 0.14179109 -0.03738522 0.11340487
0.07298377 0.105964065 0.023449399 -0.10521395 -0.017227454 0.033218805 0.05866548 -0.11662212
0.08217533 -0.11579522 0.065594316 0.11654551 0.026520777 -0.030860359 0.070882194 -0.05359123
-0.09252101 -0.08688755 0.06222225 0.09539303 0.009115852 -0.108843185 -0.119230144 -0.021514406
0.07435271 -0.07275039 0.0385844 -0.06508749 0.10665179 -0.021941572 -0.02307657 -0.10955008
-0.09480919 0.016918242 0.024768075 0.07280417 -0.10494235 0.031384096 -0.016949788 0.08718474
-0.054044325 0.037212253 0.056277853 0.06785302 -0.03124913 0.0433423 -0.020963728 0.035417665
-0.06328428 -0.08975522 -0.098250225 -0.066066206 -0.04936791 0.024547914 -0.022266317 -0.06637974
0.0030293006 -0.034009613 0.085896805 -0.08167608 -0.0461033 -0.063275136 0.020189548 0.013094651
0.014090387 0.1246677 -0.033411995 -0.013425845 0.032269865 0.1080879 0.09577013 0.020391688
-0.03634676 0.046842314 0.082551695 -0.005330223 0.07180129 0.103433155 -0.06309647 -0.019076679

bias f4 [32]
00000000: 0f8a 8b3d e8b4 3fbd 9da1 973d 5fe0 293c
00000010: aefd ac3d af89 e63d fe80 c1bd ce4f f33d
00000020: 8541 ba3d b8c5 c7bd 59ff fb3c feed c9bd
00000030: fe40 183d 5ae4 a33c c4a2 f8bd 7058 453d
00000040: 64dc 08bd 3b0b fd3d 0af2 fe3d 969c 303d
00000050: b14d cf3d 3f66 443d a389 ee3d 0f8e a03b
00000060: 971a 583d 7215 93bc 17bc ac3a 0456 1abd
00000070: 6aab 60bd 0137 983d 0e3e 643d 9512 6ebd
0.06813442 -0.046803385 0.07403872 0.010368436 0.08446823 0.1125673 -0.094484314 0.11880456
0.09094528 -0.09754509 0.030761408 -0.098598465 0.037171356 0.020006347 -0.1214042 0.048180044
-0.033413306 0.12355658 0.12448509 0.043118082 0.1012224 0.047949072 0.11647346 0.004899747
0.052759733 -0.017954562 0.0013178614 -0.037679687 -0.054850973 0.07432366 0.055723242 -0.05812319

weight f4 [1, 32]
00000000: 0fad d7bc 293f 88bc a8eb 06bd 410b 23bc
00000010: 2c5c 043c fd74 aa3c 10d5 ec3b ba17 f9bc
00000020: be48 3b3c bc60 c63c 37bf 3dbc 62df bcbc
00000030: 8011 a73c 831e 27bd 6f22 0dbc e0c4 873c
00000040: 69dc ce3c a614 babc de22 99bc 6acf e13b
00000050: 3dd5 05bd a603 9fbc 9aed 253c b79b 11bd
00000060: fe6e fabc 4b69 7bbc 1259 973c c4bc 34bc
00000070: 39ec 09bd e66d 50bd 88f9 e8bb 5699 f1b9
-0.026327638 -0.01663168 -0.032939583 -0.009951414 0.008078616 0.020807737 0.0072275475 -0.030406822
0.011430917 0.024216048 -0.011581234 -0.023055736 0.020394087 -0.040800583 -0.008614167 0.01657337
0.025251584 -0.022714924 -0.018693384 0.0068911808 -0.032674063 -0.01941092 0.010127449 -0.035548892
-0.030570503 -0.015344928 0.01847509 -0.011031333 -0.033672545 -0.050886057 -0.0071098246 -0.00046081346
