ElegantRL/EntornoObservacionesAccionesMejorado/2ksteps_PPO_0/cri.pth (torch, 26501 bytes, 7 tensors)

state_avg f4 [48]
0	0x00000000	0.0
1	0x00000000	0.0
2	0x00000000	0.0
3	0x00000000	0.0
4	0x00000000	0.0
5	0x00000000	0.0
6	0x00000000	0.0
7	0x00000000	0.0
8	0x00000000	0.0
9	0x00000000	0.0
10	0x00000000	0.0
11	0x00000000	0.0
12	0x00000000	0.0
13	0x00000000	0.0
14	0x00000000	0.0
15	0x00000000	0.0
16	0x00000000	0.0
17	0x00000000	0.0
18	0x00000000	0.0
19	0x00000000	0.0
20	0x00000000	0.0
21	0x00000000	0.0
22	0x00000000	0.0
23	0x00000000	0.0
24	0x00000000	0.0
25	0x00000000	0.0
26	0x00000000	0.0
27	0x00000000	0.0
28	0x00000000	0.0
29	0x00000000	0.0
30	0x00000000	0.0
31	0x00000000	0.0
32	0x00000000	0.0
33	0x00000000	0.0
34	0x00000000	0.0
35	0x00000000	0.0
36	0x00000000	0.0
37	0x00000000	0.0
38	0x00000000	0.0
39	0x00000000	0.0
40	0x00000000	0.0
41	0x00000000	0.0
42	0x00000000	0.0
43	0x00000000	0.0
44	0x00000000	0.0
45	0x00000000	0.0
46	0x00000000	0.0
47	0x00000000	0.0

state_std f4 [48]
0	0x3f800000	1.0
1	0x3f800000	1.0
2	0x3f800000	1.0
3	0x3f800000	1.0
4	0x3f800000	1.0
5	0x3f800000	1.0
6	0x3f800000	1.0
7	0x3f800000	1.0
8	0x3f800000	1.0
9	0x3f800000	1.0
10	0x3f800000	1.0
11	0x3f800000	1.0
12	0x3f800000	1.0
13	0x3f800000	1.0
14	0x3f800000	1.0
15	0x3f800000	1.0
16	0x3f800000	1.0
17	0x3f800000	1.0
18	0x3f800000	1.0
19	0x3f800000	1.0
20	0x3f800000	1.0
21	0x3f800000	1.0
22	0x3f800000	1.0
23	0x3f800000	1.0
24	0x3f800000	1.0
25	0x3f800000	1.0
26	0x3f800000	1.0
27	0x3f800000	1.0
28	0x3f800000	1.0
29	0x3f800000	1.0
30	0x3f800000	1.0
31	0x3f800000	1.0
32	0x3f800000	1.0
33	0x3f800000	1.0
34	0x3f800000	1.0
35	0x3f800000	1.0
36	0x3f800000	1.0
37	0x3f800000	1.0
38	0x3f800000	1.0
39	0x3f800000	1.0
40	0x3f800000	1.0
41	0x3f800000	1.0
42	0x3f800000	1.0
43	0x3f800000	1.0
44	0x3f800000	1.0
45	0x3f800000	1.0
46	0x3f800000	1.0
47	0x3f800000	1.0

weight f4 [64, 48]
0	0x3f4b410e	0.7939614
1	0xbdc8177f	-0.097701065
2	0x3f5f6b56	0.87273157
3	0xbdbc41c8	-0.09192234
4	0x3d430ec7	0.047621515
5	0x3c2d4254	0.010574896
6	0x3e14d81e	0.14535567
7	0x3ca230c5	0.019798646
8	0x3f20d8d2	0.6283084
9	0x3dc685fd	0.09693525
10	0x3f721289	0.9455953
11	0xbdcf14b9	-0.101113744
12	0x3e524b1e	0.20536467
13	0x3e0907e3	0.13381915
14	0x3db8b5b5	0.09019033
15	0xbe210c26	-0.1572729
16	0x3f0e9533	0.5569641
17	0xbd05f3d5	-0.03270324
18	0x3f6d3ccf	0.9267091
19	0x3c276234	0.010216285
20	0x3e54bd44	0.20775324
21	0xbc72a3bf	-0.014809548
22	0xbae455ab	-0.001742055
23	0xbd3bce90	-0.04585129
24	0x3f399f5c	0.7250879
25	0x3d86bd5f	0.065790884
26	0x3f630571	0.8868018
27	0xbe0d1689	-0.13778128
28	0x3e67c454	0.22633487
29	0xbcf918cd	-0.030407334
30	0xbcd0247e	-0.025408026
31	0xbe80ebc1	-0.25179866
32	0x3f1be94c	0.6090286
33	0xbd2f0871	-0.04273266
34	0x3f605700	0.8763275
35	0xbdaa29cd	-0.08308754
36	0x3eb3b573	0.35099372
37	0x3d871516	0.06595819
38	0x3dd7ae30	0.105312705
39	0xbea3e135	-0.32007757
40	0x3f183a42	0.59463894
41	0x3d867771	0.065657504
42	0x3f7fc06a	0.99902976
43	0xbeaf4392	-0.3423124
44	0x3e6abcf3	0.22923641
45	0xbeaacd9a	-0.33359987
46	0xbe455798	-0.19271696
47	0xbf006bc0	-0.50164413
48	0x3f199370	0.59990597
49	0xbe133a44	-0.14377695
50	0x3f77a5d0	0.96737385
51	0xbe89e108	-0.26929498
52	0xbdbfdf3b	-0.0936875
53	0xbd440615	-0.047857363
54	0x3d203014	0.03910835
55	0x3dd0700e	0.10177623
56	0x3f3ca527	0.736895
57	0xbd594545	-0.053044576
58	0x3f65a282	0.8970109
59	0xbe7f914d	-0.24957772
60	0x3d6fda26	0.058557652
61	0xbbe50323	-0.0069888993
62	0xbe1570f5	-0.14593871
63	0xbc05b788	-0.008161433
64	0x3f1476dc	0.57993865
65	0xbd4ca5c2	-0.049962766
66	0x3f6b7096	0.9196867
67	0xbe765a67	-0.24057923
68	0xbb75c51c	-0.003750152
69	0xbcad2276	-0.021134596
70	0x3dbb021e	0.09131263
71	0xbe361280	-0.17780495
72	0x3f25d58f	0.6477899
73	0x3ae8f22e	0.001777237
74	0x3f5ccfd7	0.8625464
75	0xbde6531e	-0.11246322
76	0x3e445166	0.19171676
77	0xbd172ff9	-0.036910985
78	0x3e15b5d9	0.1462015
79	0xbe2f8246	-0.17139539
80	0x3ee7a1a8	0.4524052
81	0x3de26916	0.110552
82	0x3f61c4f8	0.88191175
83	0xbd8ae3a7	-0.067817025
84	0x3e8131fb	0.25233445
85	0xbd74d8db	-0.059777122
86	0xbde74e78	-0.112942636
87	0xbec05471	-0.37564424
88	0x3f087969	0.5331026
89	0x3cb66792	0.022266183
90	0x3f7f8127	0.99806446
91	0xbef21031	-0.47277978
92	0x3e20051c	0.15626949
93	0xbe3f04d8	-0.18654191
94	0xbe00a7ad	-0.12563963
95	0xbeca9c63	-0.3957244
96	0x3f34660c	0.7046821
97	0xbc9a963c	-0.018870465
98	0x3f5137af	0.8172559
99	0xbe81e3c3	-0.2536908
100	0x3d06d100	0.03291416
101	0xbe2b590c	-0.16733187
102	0x3e0a8784	0.13528258
103	0xbc2ab2e8	-0.010418631
104	0x3f2c1f7d	0.6723555
105	0x3db5a40f	0.08869182
106	0x3f7c2954	0.9850056
107	0xbe1f452a	-0.15553728
108	0x3ddad293	0.10684695
109	0xbdd919dd	-0.10600636
110	0xbe0f286f	-0.13980268
111	0xbd9d721e	-0.07687782
112	0x3ef9ce08	0.48790002
113	0x3e08ab70	0.13346648
114	0x3f635432	0.88800347
115	0xbdaf7221	-0.0856669
116	0x3d89d790	0.067305684
117	0xbd56f093	-0.052475523
118	0xbdfa9b40	-0.12236643
119	0xbde8b0af	-0.11361825
120	0x3ed86db6	0.42271203
121	0xbd4d08b1	-0.050057117
122	0x3f817f66	1.0117004
123	0xbe8102f3	-0.25197563
124	0x3e056f30	0.13030696
125	0xbd31bccd	-0.043392945
126	0xbde765fc	-0.11298749
127	0xbdfff1d9	-0.12497301
128	0x3f15a868	0.5846009
129	0x3de35644	0.11100438
130	0x3f6efbb9	0.9335285
131	0xbd7e0d6e	-0.062024526
132	0x3e1934d7	0.14961563
133	0xbd376fe1	-0.04478443
134	0x3cc8a63e	0.024493333
135	0xbeb23284	-0.34804165
136	0x3ed76819	0.42071608
137	0xbda4816b	-0.08032497
138	0x3f819ff0	1.0126934
139	0xbe9c4944	-0.30524647
140	0x3dc95687	0.09830957
141	0xbeae1a03	-0.3400422
142	0xbe2fdc44	-0.17173868
143	0xbf20f696	-0.6287626
144	0x3f2a9218	0.6662917
145	0x3d92792f	0.0715202
146	0x3f78bfad	0.97167474
147	0xbdccb7fe	-0.09996031
148	0x3e2f9593	0.17146902
149	0x3c9c8ec9	0.019111054
150	0x3daac205	0.083377875
151	0x3dce29e3	0.10066583
152	0x3f0bfb49	0.54680306
153	0x3da9b5e4	0.08286646
154	0x3f88a722	1.0676005
155	0xbd830033	-0.063965224
156	0x3daa9a7e	0.08330248
157	0xbd223322	-0.039599545
158	0xbd9875ff	-0.07444381
159	0xbce38654	-0.027774014
160	0x3f12e22f	0.5737638
161	0x3e0ff7ac	0.14059323
162	0x3f65acb3	0.89716643
163	0x3c76a5ed	0.015054208
164	0x3d353a80	0.044245243
165	0x3db7ffda	0.08984347
166	0x3e08d8f1	0.13364007
167	0xbe161063	-0.14654689
168	0x3f127f53	0.5722553
169	0x3d220188	0.03955224
170	0x3f53aa7a	0.82682
171	0xbe0291b1	-0.1275089
172	0x3e80cbe0	0.25155544
173	0x3e09b623	0.13448386
174	0x3d3a2524	0.045445576
175	0xbdcaa531	-0.09894789
176	0x3eea2a68	0.45735478
177	0xbdf7ac20	-0.12093377
178	0x3f89238a	1.0713971
179	0x3d0140c0	0.03155589
180	0x3e4d3668	0.20040286
181	0xbd96f2ea	-0.07370551
182	0x3d3e2fe0	0.046432376
183	0xbe06a45d	-0.13148637
184	0x3ec5882e	0.3858046
185	0xbd88530f	-0.06656467
186	0x3f69288d	0.910775
187	0xbeae9913	-0.3410116
188	0x3e7e5968	0.24838793
189	0xbe0eecb6	-0.13957486
190	0xbdd95db9	-0.10613579
191	0xbf131814	-0.57458615
192	0x3ebd7ef3	0.37010917
193	0x3da1bc96	0.07897298
194	0xbe109828	-0.14120543
195	0x3e501e4c	0.20324057
196	0x3eb901c3	0.36134157
197	0x3da41274	0.08011332
198	0xbd7a7231	-0.061144058
199	0xbe4e3bd6	-0.20140013
200	0x3e7095ce	0.23494646
201	0xbd5ea31c	-0.054354772
202	0xbe8b7060	-0.27234173
203	0x37ab610f	2.0429985e-05
204	0x3e352983	0.17691617
205	0xbdb6e246	-0.08929877
206	0x3e8f9699	0.28044584
207	0xbc93c12a	-0.018036444
208	0x3e9a781f	0.3016977
209	0xbde39c5d	-0.11113808
210	0xbe72f59b	-0.23726504
211	0x3de69b01	0.112600334
212	0x3e00ca4a	0.12577167
213	0xbd89aa6b	-0.06721958
214	0x3daafe22	0.08349253
215	0x3cd9a4b1	0.026567789
216	0x3e760b4b	0.24027745
217	0x3dd21dd4	0.102595955
218	0xbe317021	-0.1732793
219	0x3a9e16b5	0.001206121
220	0x3eb3cf35	0.35119024
221	0x3d8347c7	0.06410175
222	0xbe0213f2	-0.12702921
223	0xbe249d6f	-0.16075681
224	0x3eb293e9	0.34878471
225	0xbde3ea0f	-0.111286275
226	0xbdbd0ca9	-0.0923093
227	0x3d4d6314	0.050143316
228	0x3e22b563	0.15889506
229	0xbd896720	-0.06709123
230	0x3da51c0d	0.08061991
231	0xbda5d82a	-0.08097871
232	0x3e9cad5a	0.30601007
233	0x3d55b18f	0.052171286
234	0xbe8cd0ce	-0.27503055
235	0x3e85be43	0.2612172
236	0x3dbb5213	0.09146514
237	0x3d108d4a	0.035290994
238	0x3c787faf	0.015167161
239	0x3e227140	0.15863514
240	0x3f486030	0.7827177
241	0xbde99693	-0.11405673
242	0x3f677946	0.90419424
243	0xbd714a2e	-0.058908634
244	0x3e0e59d6	0.13901457
245	0x3ce00dbe	0.027350303
246	0x3da7135d	0.0815799
247	0xbd015540	-0.03157544
248	0x3f307c13	0.6893932
249	0xbdbe6829	-0.09297211
250	0x3f815069	1.0102664
251	0xbe585a79	-0.21128263
252	0x3e5c4cf0	0.21513724
253	0x3d7a17cc	0.06105785
254	0xbd8b177c	-0.06791589
255	0x3c9b2c04	0.018941887

bias f4 [64]
0	0x3fcecd3e	1.6156385
1	0x3fd79b1c	1.6844211
2	0x3fd56ff9	1.6674796
3	0x3fd951cd	1.6978089
4	0xbf12c98e	-0.573388
5	0x3fd76e6f	1.6830577
6	0x3fd3c1c0	1.6543503
7	0x3d98a205	0.07452778
8	0xbfa0068d	-1.2501999
9	0x3fc9cd77	1.5765828
10	0x3fae264e	1.360544
11	0x3fc1a107	1.5127267
12	0x3fcf5bca	1.6199887
13	0x3fd114fe	1.6334531
14	0x3fcfc014	1.6230493
15	0x3fdb9e0f	1.7157611
16	0x3fdb9778	1.71556
17	0x3fb85a3b	1.4402536
18	0x3b582b2b	0.0032984714
19	0x3fcee7b4	1.616446
20	0x3fd0a007	1.6298836
21	0x3fc54c54	1.5413918
22	0x3fd78080	1.683609
23	0x3fbe3244	1.485909
24	0x3fc0233b	1.5010751
25	0xbf879cb8	-1.0594702
26	0x3fc32111	1.5244466
27	0x3fcfaa6d	1.6223885
28	0x3fd8a646	1.6925743
29	0x3fc6ac10	1.5521259
30	0x3fbe782c	1.4880424
31	0x3fdb6bec	1.714231
32	0x3fca2c5b	1.5794786
33	0x3fc7dd10	1.5614338
34	0x3fcb30a8	1.5874224
35	0x3fd6dec4	1.6786733
36	0xbd2e2f32	-0.042525478
37	0x3d29b8b3	0.04143591
38	0x3f9589d2	1.1682684
39	0x3faeb8c7	1.365014
40	0x3fd8293b	1.6887583
41	0x3fdd4ecf	1.7289675
42	0x3fd71598	1.6803465
43	0x3fda2655	1.7042948
44	0x3fccafa4	1.5991101
45	0x3fd1a95c	1.6379809
46	0x3fd61ed3	1.6728157
47	0x3fb97f24	1.4491925
48	0x3f10495a	0.56361926
49	0x3fcc840a	1.5977795
50	0xbc963d03	-0.01833964
51	0xbd58b171	-0.052903596
52	0x3fc58faa	1.5434468
53	0x3fc915a3	1.5709728
54	0x3fe26607	1.7687386
55	0x3fd0c19f	1.6309088
56	0x3fb7dc8b	1.4364179
57	0xbdcc0c36	-0.099632666
58	0x3fda751c	1.7066989
59	0x3fd40fa3	1.6567272
60	0x3d8245f9	0.063610025
61	0x3fdcbf47	1.7245873
62	0x3fbd1031	1.4770566
63	0x3fddaad5	1.7317759

weight f4 [32, 64]
0	0x3d8b93d4	0.06815305
1	0xbdd3db0c	-0.10344514
2	0xbdd13418	-0.10215014
3	0xbdb96ff9	-0.0905456
4	0x3b13e660	0.0022567734
5	0xbd040181	-0.032227997
6	0xbdfd7080	-0.12374973
7	0xbd1a9f1b	-0.03774939
8	0x3d94d0f3	0.072664164
9	0xbc07cc3a	-0.0082884375
10	0xbdc2483f	-0.09486436
11	0xbda92ae6	-0.08260135
12	0x3d0f2e12	0.034956045
13	0x3cde470b	0.027133485
14	0xbd833391	-0.0640632
15	0xbdc966b3	-0.098340414
16	0x3d23ff92	0.040038653
17	0xbd99e230	-0.07513845
18	0xbdd01539	-0.10160298
19	0x3dc54b88	0.09633547
20	0x3d3f0531	0.04663581
21	0xbcdc6b15	-0.02690653
22	0x3c107d1a	0.008818889
23	0x3dadfbbc	0.0849528
24	0xbdc86d7d	-0.09786508
25	0xbcbd0b6e	-0.02307674
26	0xbd28403d	-0.041076887
27	0xbdf61f93	-0.12017741
28	0x3dc9778c	0.09837255
29	0xbdf04aba	-0.11733003
30	0xbd462a3f	-0.048380133
31	0x3d6185dd	0.055059303
32	0x3dcd8481	0.10035039
33	0xbd15b6db	-0.036551338
34	0x3db05bbb	0.08611246
35	0x3b1fcb72	0.0024382737
36	0xbde4ed6e	-0.111780986
37	0xbdd5c64c	-0.10438213
38	0xbd6afe0e	-0.05737119
39	0x3ad504ce	0.0016252042
40	0x3dc0adbd	0.09408138
41	0xbd575856	-0.052574478
42	0xbc9344af	-0.017977087
43	0x3d953181	0.07284833
44	0xbcea444d	-0.028597021
45	0x3d47dcf1	0.04879469
46	0xbc95d016	-0.0182877
47	0xbd6546e5	-0.055975813
48	0xbd99edee	-0.075160846
49	0x3df05fdd	0.117370345
50	0xbd7f3250	-0.06230384
51	0x3c43ca01	0.011950017
52	0x3cfe4efc	0.031043522
53	0x3c2f74bb	0.010708983
54	0xbc8d7c55	-0.0172712
55	0xbcf52916	-0.029926818
56	0xbd75ed85	-0.06004097
57	0x3d243455	0.04008897
58	0xbd0a8e36	-0.03382703
59	0x3d31138f	0.043231543
60	0x3d6474e2	0.05577553
61	0x3d143a89	0.036188636
62	0xbd5f9c14	-0.054592207
63	0xbdad2bfe	-0.084556565
64	0xbd47a05b	-0.04873691
65	0x3c14951b	0.009068753
66	0xbc226655	-0.009912093
67	0x3dcc137a	0.09964652
68	0x3d895d2e	0.06707226
69	0xbd81f6fb	-0.06345936
70	0x3d83a5ab	0.06428083
71	0xbd9ce293	-0.07660403
72	0xbd5971cf	-0.053087052
73	0x3d9af0fd	0.07565496
74	0xbdbc1ee9	-0.09185583
75	0xbd308c8f	-0.043102797
76	0xbde857b0	-0.1134485
77	0x3d1860e2	0.03720177
78	0x3d8c1f14	0.06841865
79	0x3db04cfd	0.08608434
80	0xbd62e529	-0.055394325
81	0xbde6eeb3	-0.11275997
82	0x3d7abf2e	0.06121748
83	0xbdbfb821	-0.09361292
84	0xbd59574b	-0.053061765
85	0xbddfbab8	-0.10924286
86	0x3d99c709	0.07508666
87	0xbcaebe25	-0.021330902
88	0xbc8d1d18	-0.017225787
89	0x3acbd972	0.0015552475
90	0xbc8aba78	-0.016934618
91	0xbd86409d	-0.06555293
92	0x3dcb5b6f	0.09929549
93	0xbe04f386	-0.12983522
94	0xbd00164d	-0.031271268
95	0xbdb7c778	-0.089735925
96	0xbdd295dd	-0.102824904
97	0x3d5e03a4	0.05420269
98	0x3d87a286	0.06622796
99	0x3d27e964	0.040994063
100	0x3cdd53b8	0.02701746
101	0x3d9b8786	0.075942084
102	0x3d5e1f03	0.054228794
103	0xbd10c2e8	-0.035342127
104	0xbd93ee45	-0.07223181
105	0x3cb9d31e	0.022683676
106	0x3d46b9f0	0.048517168
107	0x3d8a3adf	0.0674951
108	0xbc963727	-0.018336846
109	0x3dbd7808	0.0925141
110	0xbdbb5fcc	-0.09149131
111	0x3ce07066	0.027397346
112	0x3db5b835	0.08873025
113	0xbc86e3f8	-0.016466126
114	0x3d8f7c78	0.070061624
115	0x3dd0c19d	0.10193179
116	0xbddcad14	-0.107751995
117	0x3d315a8e	0.04329925
118	0x3d3ba02b	0.045807045
119	0x3d3f7379	0.046740983
120	0x3ccd1e29	0.025038796
121	0x3d8e1974	0.069384485
122	0xbb8da483	-0.00432259
123	0x3d02f81e	0.031974904
124	0xbde61916	-0.112352535
125	0xbe13360b	-0.14376085
126	0x3d3a7e63	0.045530688
127	0x3dd1a3a9	0.10236294
128	0x3f187173	0.5954811
129	0x3f650268	0.89456797
130	0x3f61cc97	0.88202804
131	0x3f4e989b	0.8070161
132	0xbec290d0	-0.38001108
133	0x3f3d8bf9	0.74041706
134	0x3f220475	0.6328805
135	0xbda5d9a0	-0.08098149
136	0xbf788971	-0.9708472
137	0x3f3bc659	0.7334953
138	0x3f53c11b	0.8271653
139	0x3f31f705	0.69517547
140	0x3f217a06	0.6307682
141	0x3f47df81	0.78075415
142	0x3f520160	0.8203335
143	0x3f32ed4e	0.6989335
144	0x3f34ef99	0.70678097
145	0x3f3edc7d	0.7455519
146	0xbd91e3c0	-0.07123518
147	0x3f3cdada	0.7377144
148	0x3f0f3c7e	0.5595168
149	0x3f20de06	0.6283878
150	0x3f20d2cb	0.62821645
151	0x3f39141e	0.7229632
152	0x3f434a07	0.7628483
153	0xbfa59fb9	-1.2939368
154	0x3f442a03	0.76626605
155	0x3f234b62	0.637869
156	0x3f5ee941	0.8707467
157	0x3f5507fb	0.832153
158	0x3f2d8688	0.67783403
159	0x3f344d14	0.7043011
160	0x3f5e2f38	0.867908
161	0x3f15e141	0.58546835
162	0x3f0a9594	0.5413449
163	0x3f3ffede	0.7499827
164	0x3df19de1	0.11797691
165	0x3ce0b8aa	0.027431805
166	0x405fe879	3.498564
167	0x405af7da	3.4213777
168	0x3f64e1b9	0.89406925
169	0x3f22f4b8	0.6365466
170	0x3f35f75c	0.71080565
171	0x3f39c1bb	0.72561234
172	0x3f07aae9	0.52995163
173	0x3f223217	0.6335768
174	0x3f1bc897	0.6085295
175	0x3f35ea0b	0.71060246
176	0x400235f1	2.0345423
177	0x3f29ec0f	0.6637582
178	0xbcdb8bf4	-0.026800133
179	0x3d80f3e0	0.062965155
180	0x3f3a34f5	0.72737056
181	0x3f3aa7dc	0.72912383
182	0x3f3faadb	0.7487008
183	0x3f2f2ad4	0.68424726
184	0x3f3cb632	0.7371551
185	0x3db9217f	0.09039592
186	0x3f4b45e8	0.79403543
187	0x3f5b1eee	0.8559407
188	0xbd029b4c	-0.031886384
189	0x3f4dda4c	0.8041122
190	0x3f1dba05	0.6161197
191	0x3f464b15	0.77458316
192	0x3da8e4c3	0.08246758
193	0xbd0d3e22	-0.034483083
194	0xbe552744	-0.2081576
195	0x3dc0308a	0.09384258
196	0x3f078bc4	0.5294764
197	0x3e590e1d	0.2119679
198	0x3d7e02d4	0.062014416
199	0xb990148e	-0.00027481135
200	0x3f5920d1	0.848157
201	0xbd676b7a	-0.056498982
202	0xbde84013	-0.11340346
203	0x3e9494b7	0.2901971
204	0x3e52bb02	0.2057915
205	0x3dda24a1	0.10651518
206	0x3e017a30	0.12644267
207	0x3e088e52	0.13335541
208	0x3d645f5c	0.055755004
209	0x3e13ec2a	0.14445558
210	0xbd4377bb	-0.047721606
211	0xb8f9c6fe	-0.000119103104
212	0x3e5090e9	0.20367779
213	0x3dc802f3	0.097661875
214	0xbd178edd	-0.03700148
215	0x3e024b79	0.12724103
216	0x3d957f52	0.07299675
217	0x3fbe0b40	1.4847183
218	0xbcc15365	-0.023599336
219	0x3e1d355c	0.15352386
220	0x3e09683a	0.13418666
221	0xbd4e257b	-0.050328713
222	0x3e5b4f69	0.21417011
223	0x3dad8d6f	0.08474242
224	0x3deac6e7	0.11463719
225	0x3e6ea1cd	0.2330391
226	0x3da9f7d0	0.082992196
227	0x3db7cd14	0.089746624
228	0xbd5a67b9	-0.053321574
229	0xbd1462f7	-0.036227193
230	0xc0507ba4	-3.2575464
231	0xc0405511	-3.005192
232	0x3cdd0197	0.026978297
233	0x3e110234	0.14160997
234	0x3d6e9357	0.058245983
235	0x3e322484	0.17396742
236	0x3e13cb28	0.14432967
237	0x3deca67e	0.11555193
238	0x3e3e4918	0.1858257
239	0x3d3003df	0.04297244
240	0xc000d71b	-2.013129
241	0x3e7ca66d	0.24672861
242	0x3d99ebfe	0.07515715
243	0x3d85ea03	0.06538775
244	0x3dbfffb7	0.093749456
245	0x3d922fd2	0.07138027
246	0x3e437bde	0.1909022
247	0x3deea201	0.116519935
248	0x3e164742	0.1467562
249	0x3d572c05	0.052532215
250	0xbcde4677	-0.02713321
251	0x3d28076e	0.04102271
252	0xbdabba3d	-0.083851315
253	0xbdead441	-0.114662655
254	0xbc9767ca	-0.018482108
255	0x3e12f54b	0.14351384

bias f4 [32]
0	0xbdc8b631	-0.09800375
1	0xbdfe9578	-0.12430853
2	0x3fa90157	1.3203534
3	0xbf48d578	-0.7845073
4	0x3fbcb6ba	1.4743264
5	0x3d58190b	0.052758258
6	0x3fb7607f	1.4326323
7	0x3faef3ae	1.3668115
8	0xbd0dbf79	-0.03460643
9	0x3ba1a0d2	0.0049325014
10	0x3f8e2c3e	1.1107252
11	0x3f924072	1.1425917
12	0x3fa49c76	1.2860248
13	0x3f8f1f56	1.1181438
14	0x3fa549fc	1.2913203
15	0x3f8fc63e	1.1232374
16	0xbd22754a	-0.039662637
17	0xbddeb9a6	-0.108752534
18	0x3fa67b4a	1.3006375
19	0x3fadf480	1.359024
20	0x3fc087c9	1.5041438
21	0x3f9fb03b	1.2475656
22	0x3f9e9573	1.2389358
23	0x3f9a8150	1.2070713
24	0x3fb693be	1.4263837
25	0x3fb65c0c	1.424684
26	0x3c8513ff	0.016244886
27	0x3faff084	1.3745275
28	0xbd542ef4	-0.05180259
29	0x3d007b37	0.031367507
30	0xbbfc7244	-0.007704051
31	0x3f99303d	1.1967846

weight f4 [1, 32]
0	0xbe1aaa9c	-0.15104145
1	0xbe3b4d3b	-0.1829118
2	0x3f77374d	0.9656876
3	0xc0006246	-2.0059981
4	0x3f77f778	0.9686198
5	0xbd658986	-0.056039356
6	0x3f818acd	1.0120484
7	0x3f73e073	0.9526436
8	0xbd1629f3	-0.0366611
9	0xbe308780	-0.17239189
10	0x3f8aa140	1.083046
11	0x3f87252b	1.0558218
12	0x3f838347	1.0274438
13	0x3f821f53	1.0165809
14	0x3f839dfe	1.028259
15	0x3f8490f5	1.0356737
16	0xbd05c54f	-0.03265887
17	0xbcf2ade1	-0.029623928
18	0x3f81b337	1.0132817
19	0x3f78218e	0.969262
20	0x3f74ef7f	0.9567794
21	0x3f82c34b	1.0215849
22	0x3f82dcb1	1.02236
23	0x3f8b6411	1.0889913
24	0x3f7a73e6	0.97833097
25	0x3f7df8f0	0.99207973
26	0xbd64c9c6	-0.05585649
27	0x3f73ab99	0.9518371
28	0xbc2e6c69	-0.010645964
29	0xbdf205ee	-0.11817537
30	0xbc8c08aa	-0.017093975
31	0x3f7f8444	0.99811196
